source/site/static/nets/120-40-30-1.pth (torch_old, 18405 bytes, 5 tensors)

lstm.weight_ih_l0 f4 [120, 4]
0	0xbee1af79	-0.44079188
1	0xbf0d9e82	-0.5531999
2	0xbe930717	-0.28716347
3	0xbf3ac17e	-0.72951496
4	0xbe3a7f2e	-0.18212578
5	0xbefec523	-0.49759778
6	0x3d854e31	0.065090545
7	0xbeac6072	-0.33667332
8	0x3e54ac2d	0.20768805
9	0x3ee56811	0.4480596
10	0x3e1e7a66	0.15476379
11	0x3f1c655b	0.61092156
12	0xbee6b783	-0.45061883
13	0xbea45ca5	-0.32101932
14	0xbf0fe0b3	-0.5620224
15	0xbeca94d3	-0.3956667
16	0xbe34c0e1	-0.17651702
17	0xbeac9ce9	-0.33713463
18	0x3b9a2737	0.004704382
19	0xbf14cb79	-0.58122975
20	0xbef79dab	-0.4836248
21	0xbebffc00	-0.37496948
22	0xbe0275ab	-0.127402
23	0xbf3489c7	-0.7052273
24	0xbec65704	-0.38738263
25	0xbf0ea639	-0.55722386
26	0xbd17edc8	-0.037092
27	0xbe448589	-0.19191565
28	0xbdf1a461	-0.11798931
29	0xbd15b025	-0.036544938
30	0xbe20d02a	-0.15704408
31	0xbe0838db	-0.13302939
32	0x3ba99caa	0.0051761465
33	0xbdc43531	-0.09580458
34	0xbc25345c	-0.010083284
35	0x3df6bc78	0.12047666
36	0x3e23e9d9	0.16007175
37	0x3dd9fd62	0.10644032
38	0x3e2d68ab	0.16934459
39	0x3edcb1dc	0.43104446
40	0xbee508f9	-0.44733408
41	0xbf16e26a	-0.5893923
42	0xbf421e1b	-0.7582719
43	0xbee38426	-0.4443676
44	0x3db90f5e	0.09036134
45	0xbe155a04	-0.1458512
46	0x3eab1a4f	0.3341851
47	0xbe6c3c01	-0.23069765
48	0x3e307f8c	0.17236155
49	0x3d98ac10	0.07454693
50	0x3e34faa4	0.17673737
51	0x3e307101	0.17230608
52	0xbe8f7870	-0.28021574
53	0xbe1ede38	-0.15514457
54	0xbe0493d7	-0.12947021
55	0xbf2ce758	-0.675405
56	0x3e8a3654	0.26994574
57	0x3eecede4	0.46275246
58	0x3cb0469b	0.021518042
59	0x3e68dbd7	0.22740112
60	0xbdd18134	-0.10229722
61	0xbe545575	-0.20735724
62	0x3cf9f3f2	0.03051183
63	0xbebda957	-0.3704326
64	0xbd19b8f4	-0.0375299
65	0xbec6b222	-0.3880778
66	0xbd1ab93e	-0.037774317
67	0xbf5ed06c	-0.87036777
68	0xbed0e63e	-0.4080066
69	0xbedfe241	-0.43727306
70	0xbf0564b8	-0.5210681
71	0xbf7980ee	-0.97462356
72	0x3d5b71cb	0.05357532
73	0x3da7a81b	0.081863604
74	0x3ed12c34	0.40854037
75	0x3edaa64e	0.42705005
76	0x3e7296d0	0.23690343
77	0x3edce697	0.43144676
78	0x3e84176a	0.25799114
79	0x3ea391c8	0.3194716
80	0x3edca4f5	0.43094602
81	0x3f30c0ee	0.6904439
82	0x3f04aea2	0.5182897
83	0x3f3788c4	0.7169306
84	0xbd070421	-0.032962922
85	0xbe1aceb4	-0.15117913
86	0x3e536287	0.20643054
87	0xbd916dea	-0.071010426
88	0xbe1c777e	-0.15279958
89	0x3e156b46	0.14591703
90	0xbe88276b	-0.26592574
91	0xbf06508f	-0.5246667
92	0xbd98a3ee	-0.07453142
93	0xbf1474aa	-0.57990515
94	0xbed0bdcc	-0.40769804
95	0xbf6419a5	-0.8910163
96	0xbe1a96ab	-0.15096538
97	0xbe8af347	-0.2713873
98	0x3d8e6b0c	0.06954011
99	0xbf9b68c1	-1.2141343
100	0x3e4bfe4a	0.19921222
101	0x3f18bd47	0.59663814
102	0xbf049c7f	-0.51801294
103	0x3e7478dc	0.23874229
104	0x3d48ad70	0.048993528
105	0x3ea3abf7	0.31967136
106	0xbe0382d9	-0.12842883
107	0x3e74ebdd	0.239181
108	0xbd579024	-0.052627698
109	0xbf01809a	-0.50586855
110	0xbee18c89	-0.44052532
111	0xbf7b91e4	-0.98269486
112	0x3d82e18f	0.06390678
113	0x3e7bdb51	0.24595381
114	0xbda93eb1	-0.082639106
115	0x3d9bfa3f	0.0761609
116	0x3eb47b47	0.35250303
117	0x3f6b1e8e	0.918435
118	0xbda5c874	-0.08094874
119	0x3e86157d	0.2618827
120	0xbec61baf	-0.38692996
121	0xbf52c5ec	-0.82333255
122	0xbe069dd5	-0.13146146
123	0xbf6f30fb	-0.93434113
124	0xbd23f933	-0.040032577
125	0xbe9a8f39	-0.30187395
126	0x3e3b5ab0	0.18296313
127	0xbda0051c	-0.078134745
128	0x3ea86f1f	0.3289728
129	0x3e861c10	0.26193285
130	0x3eb2219f	0.34791276
131	0x3eeb4349	0.45949772
132	0xbef1d4cc	-0.47232664
133	0xbf4bd9db	-0.79629296
134	0xbeaf4e65	-0.34239498
135	0xbf52fdd0	-0.8241854
136	0x3e3841d5	0.17993863
137	0xbe1dd2b5	-0.1541241
138	0x3e8f6e8f	0.28014037
139	0xbda7f432	-0.082008734
140	0xbf16fe71	-0.58981997
141	0xbf83b875	-1.0290667
142	0xbeaad80a	-0.3336795
143	0xbf4affb7	-0.7929644
144	0xbe10176b	-0.14071433
145	0xbe3f9304	-0.18708426
146	0x3daba3a1	0.08380819
147	0xbd61aa99	-0.055094335
148	0xbdd92772	-0.10603227
149	0xbe3fea35	-0.18741687
150	0xbe00241e	-0.12513778
151	0xbdf78b72	-0.12087144
152	0x3c635827	0.013875998
153	0x3db3c3e9	0.08777601
154	0x3de48f70	0.11160171
155	0xbdc538b2	-0.096299544
156	0x3ccb948d	0.024851108
157	0xbc1272b6	-0.008938482
158	0x3df711a5	0.12063912
159	0x3e3c9c5e	0.18419024
160	0xbefcbb8d	-0.4936184
161	0xbef33fb9	-0.47509554
162	0xbec64de9	-0.38731316
163	0xbf39b8f4	-0.7254784
164	0xbd8ef9eb	-0.06981262
165	0xbe393afb	-0.18088906
166	0x3d7e6b22	0.06211389
167	0xbea8cd54	-0.32969153
168	0xbd2f4c44	-0.042797342
169	0xbdac6c21	-0.084190615
170	0x3ec6ae31	0.38804772
171	0x3e82d16d	0.25550404
172	0xbe2cf42a	-0.16890016
173	0xbecdd59e	-0.4020204
174	0xbed756c3	-0.4205838
175	0xbf1cb3b8	-0.6121173
176	0x3c381293	0.011234897
177	0xbc3530c4	-0.01105899
178	0x3e65d884	0.22445875
179	0x3ebaea48	0.36506867
180	0xbf2ae8c0	-0.667614
181	0xbf3b4e27	-0.73166126
182	0xbe6affad	-0.22949095
183	0xbf2e4f0c	-0.68089366
184	0xbe621adb	-0.22080557
185	0xbeae597c	-0.34052646
186	0x3e8c9cb2	0.274633
187	0xbe2f99b4	-0.17148477
188	0xbe0d034f	-0.13770793
189	0xbf2fe08d	-0.6870201
190	0xbec132a8	-0.3773396
191	0xbf5f6040	-0.8725624
192	0x3de63ee1	0.11242462
193	0x3db97a18	0.09056491
194	0x3de45f98	0.111510456
195	0x3ea2b960	0.31782055
196	0x3e8e5231	0.27797082
197	0x3e1dc78a	0.1540815
198	0x3ecffcf1	0.40622666
199	0x3e8f138f	0.2794461
200	0x3ee2dc32	0.4430862
201	0x3f1155b8	0.5677142
202	0x3ead8289	0.33888653
203	0x3ef35a9f	0.47530076
204	0xbd7e042f	-0.06201571
205	0xbe730562	-0.23732522
206	0x3e6c9453	0.23103456
207	0xbd4ca1b4	-0.0499589
208	0xbe131ba9	-0.1436602
209	0xbe8c269a	-0.273732
210	0xbdb55e85	-0.08855919
211	0xbe7ee146	-0.24890622
212	0xbe92f4be	-0.28702348
213	0xbf192a5e	-0.5983027
214	0xbf0b4db1	-0.5441542
215	0xbf496364	-0.78667283
216	0xbd92edbe	-0.07174252
217	0xbed2efc2	-0.41198546
218	0x3e7a14a0	0.2442193
219	0xbf3384d3	-0.7012455
220	0xbcc8d688	-0.024516359
221	0xbe951bbe	-0.29122728
222	0x3dca6e5a	0.09884329
223	0xbf0e9817	-0.5570082
224	0xbd5f1125	-0.05445971
225	0xbe6545d6	-0.22389922
226	0xbcee1d11	-0.029066594
227	0x3d93a166	0.07208519
228	0xbecb199d	-0.3966798
229	0xbf16f55b	-0.5896813
230	0xbebc6f63	-0.3680373
231	0xbf8b75b8	-1.08953
232	0x3e228729	0.15871872
233	0xbd94b347	-0.07260757
234	0x3df7b896	0.12095754
235	0x3e648351	0.22315718
236	0x3eb77ada	0.35835916
237	0x3dcbefb5	0.0995783
238	0x3e860225	0.2617351
239	0x3e8c5f18	0.274163
240	0xbe839441	-0.25699046
241	0xbf256141	-0.6460152
242	0xbee93663	-0.45549306
243	0xbf2215fa	-0.63314784
244	0x3cd80cf0	0.026373357
245	0xbe173221	-0.14765216
246	0xbea3733f	-0.31923863
247	0x3e0971b1	0.13422276
248	0x3c3cf5e5	0.011533235
249	0x3e0b239e	0.13587806
250	0x3d4f61ef	0.050630506
251	0x3f318b73	0.6935341
252	0xbe516c6f	-0.2045152
253	0xbf0b28d9	-0.54359204
254	0xbe6e6c3e	-0.23283479
255	0xbf30f6d2	-0.6912662

lstm.weight_hh_l0 f4 [120, 30]
0	0xbe612e1f	-0.2199025
1	0xbd242e5c	-0.040083274
2	0xbb881715	-0.004153142
3	0xbe18ad05	-0.14909752
4	0x3eae170c	0.34001958
5	0xbe2e07c8	-0.16995156
6	0x3d82b41a	0.06382008
7	0xbe7918d7	-0.24325882
8	0xbcf2964d	-0.029612685
9	0x3e1a6fe6	0.15081748
10	0x3e9e62be	0.3093471
11	0x3dde7a13	0.108631276
12	0x3e5628ab	0.20913951
13	0x3d97a277	0.074040346
14	0x3e7ba2a3	0.2457376
15	0x3e9e4577	0.30912372
16	0xbec3faa6	-0.38277167
17	0x3d9f7c7c	0.077874154
18	0x3e472769	0.19448628
19	0xbe81c0ab	-0.25342306
20	0xbe2c1511	-0.16804911
21	0x3ec3ac70	0.38217497
22	0xbf092268	-0.53568125
23	0x3e8b7adb	0.2724217
24	0xbc70ff6c	-0.014709335
25	0xbe5580a2	-0.20849851
26	0x3ea1a4cb	0.3157104
27	0xbe40dbf6	-0.18833908
28	0xbec7ff4b	-0.3906196
29	0xbe5657df	-0.20931958
30	0xbe14942c	-0.14509648
31	0xbec3fc15	-0.3827826
32	0xbf33e9a6	-0.70278394
33	0xbe418f73	-0.18902378
34	0x3f0c2ad8	0.54752874
35	0xbeccabc8	-0.3997481
36	0xbee52594	-0.44755232
37	0xbebc60a8	-0.36792493
38	0xbeca518f	-0.3951535
39	0x3e75cb73	0.24003391
40	0x3ed7334b	0.4203132
41	0x3e8f4591	0.27982762
42	0xbe1031d7	-0.14081512
43	0x3f062aa5	0.5240882
44	0x3db13265	0.0865219
45	0x3d8af0da	0.0678422
46	0xbdb568d6	-0.088578865
47	0xbf36dbce	-0.71429145
48	0x3f56ecc5	0.8395503
49	0xbf0ca136	-0.5493349
50	0xbe40e8ed	-0.18838854
51	0x3e8801fa	0.26564008
52	0xbe30789b	-0.17233507
53	0x3e9a4745	0.301325
54	0x3ebda7ca	0.37042075
55	0xbe91822d	-0.2841963
56	0x3e661d01	0.22472002
57	0x3e363766	0.1779457
58	0xbc82e66e	-0.015979018
59	0x3e383768	0.17989886
60	0xbebb9bb4	-0.3664223
61	0xbe5bfc3f	-0.21482943
62	0xbea528d5	-0.32257715
63	0xbeb63631	-0.3558822
64	0x3e3ccb76	0.18436989
65	0xbe687a92	-0.22703007
66	0xbe8c7621	-0.27433875
67	0x3cccf32e	0.0250183
68	0xbe7872fa	-0.2426261
69	0x3db92907	0.090410285
70	0x3ec5ad4d	0.3860878
71	0x3ea76693	0.32695445
72	0x3e17a324	0.14808327
73	0xbf0c639d	-0.548395
74	0x3d557da1	0.052121762
75	0x3e1aee22	0.15129903
76	0xbeb11e2a	-0.34593326
77	0x3e9b4962	0.30329424
78	0x3e8c9458	0.27456927
79	0xbe89afaa	-0.26891834
80	0x3d49c406	0.04925921
81	0x3f07b6f5	0.53013545
82	0x3df7fb8d	0.121085264
83	0xbeddc3b3	-0.4331337
84	0x3ebcfd08	0.36911798
85	0xbe54244d	-0.20716973
86	0x3ec0ffad	0.37695065
87	0xbef5f183	-0.4803582
88	0xbec545cd	-0.38529816
89	0xbf317ec1	-0.69334036
90	0xbd3d1bcc	-0.046169087
91	0xbe23ca3c	-0.15995115
92	0xbdfc839d	-0.12329791
93	0x3c867167	0.016411496
94	0x3ded72d3	0.115941666
95	0x3bb2eb0b	0.005460148
96	0x3d637443	0.055530798
97	0xbd8020db	-0.06256267
98	0xbe2e71c7	-0.1703559
99	0xbe2a1186	-0.16608247
100	0x3e4007af	0.18752931
101	0x3e2f3ed6	0.17113814
102	0x3e4a3b46	0.19749174
103	0xbf3098a4	-0.6898291
104	0x3df5ecaa	0.12008031
105	0x3e5d2c1c	0.21598858
106	0xbe304dab	-0.17217128
107	0xbe020ea8	-0.12700903
108	0x3ea55fc2	0.3229962
109	0xbd742b77	-0.059611764
110	0xbea6e312	-0.32595116
111	0x3e440e9d	0.191462
112	0xbee2fd96	-0.44334096
113	0x3dcb9523	0.09940555
114	0x3d151eff	0.036406513
115	0xbdd85204	-0.10562518
116	0x3e845edc	0.25853622
117	0xbce35931	-0.02775249
118	0xbde6b4f3	-0.11264982
119	0x3e4312d5	0.19050153
120	0xbed06a22	-0.40705973
121	0xbf05d2b7	-0.5227465
122	0xbf28167f	-0.65659326
123	0xbf02b32a	-0.5105463
124	0x3ee1b061	0.4407988
125	0xbe785f50	-0.24255109
126	0xbde35a16	-0.11101167
127	0xbf15441b	-0.58307046
128	0xbedb3a3b	-0.42817864
129	0x3eec0bab	0.46102652
130	0x3eacca13	0.3374792
131	0xbebd8dbc	-0.37022197
132	0xbf1285d4	-0.57235456
133	0x3f2f736a	0.6853548
134	0xbf1b2871	-0.60608584
135	0xbe6dac8c	-0.23210353
136	0x3f5255bf	0.8216209
137	0xbf6aea4b	-0.9176375
138	0x3f4580fa	0.7714993
139	0xbf1a3a3a	-0.60245097
140	0xbed34ce6	-0.41269606
141	0x3eb2cd1d	0.34922114
142	0x3e975196	0.29554433
143	0x3f358f8b	0.70922154
144	0x3dbd435d	0.09241364
145	0xbe40d318	-0.18830526
146	0xbea0a451	-0.31375363
147	0x3f339873	0.70154494
148	0x3ef6234f	0.48073813
149	0x3e175e7f	0.14782141
150	0xbea10d8f	-0.31455657
151	0x3dbd4fd7	0.09243744
152	0xbe98188d	-0.2970623
153	0xbe45c34c	-0.19312781
154	0x3d2951c2	0.041337736
155	0xbd89733d	-0.06711433
156	0xbe2e6a11	-0.17032649
157	0xbeb0848f	-0.34476134
158	0xbe125863	-0.1429153
159	0xbe206d0d	-0.156666
160	0x3e391fca	0.18078533
161	0x3e966ab1	0.29378274
162	0x3ea7d066	0.32776183
163	0xbe99ba55	-0.30024973
164	0x3ec50a00	0.38484192
165	0x3d47a9db	0.04874597
166	0xbe188779	-0.14895429
167	0x3c9d641b	0.019212773
168	0x3e87c181	0.2651482
169	0x3b81ee27	0.0039651575
170	0xbea5e29d	-0.32399455
171	0x3e6d94ee	0.23201343
172	0xbefaceb7	-0.48985836
173	0x3e1a2b08	0.15055478
174	0xbb27f3a4	-0.00256274
175	0xbed63f8e	-0.41845363
176	0x3e4e8d7d	0.20171161
177	0xbc2ceae5	-0.01055405
178	0xbe137953	-0.1440175
179	0xbcdf2a68	-0.0272419
180	0xbe88eafb	-0.26741776
181	0xbe66045c	-0.224626
182	0xbf0f649e	-0.56012905
183	0xbe664f5f	-0.22491215
184	0x3e31c102	0.17358783
185	0xbe834de0	-0.2564535
186	0xbe1452a6	-0.14484653
187	0xbe938f8a	-0.2882045
188	0x3e3d9c07	0.18516551
189	0x3e9e72f2	0.3094707
190	0x3e8fb952	0.28071076
191	0x3ec01512	0.37516075
192	0x3d5b78a9	0.053581867
193	0xbe7b5614	-0.24544555
194	0xbc1e4563	-0.009660098
195	0x3ddda0d4	0.10821691
196	0xbed458cb	-0.41473994
197	0x3eabdbdf	0.33566186
198	0x3f0c978b	0.54918736
199	0xbf31a94d	-0.6939896
200	0xbe2cf941	-0.16891958
201	0x3ea2812f	0.31739184
202	0xbea95573	-0.33073005
203	0xbee2e42a	-0.443147
204	0x3e1fccb1	0.15605427
205	0xbf097186	-0.5368885
206	0x3d28afbc	0.04118322
207	0xbe1d182d	-0.15341254
208	0x3df9c28e	0.121953115
209	0xbf0ab371	-0.54180056
210	0xbe92c9c8	-0.28669572
211	0xbee1c4c3	-0.4409543
212	0xbed92d8f	-0.4241757
213	0xbebfbe83	-0.37450036
214	0x3e801b86	0.25021
215	0xbe99ac95	-0.30014482
216	0xbe963740	-0.29339027
217	0xbecfa953	-0.40558872
218	0xbed40465	-0.41409603
219	0x3e2aab35	0.16666873
220	0x3eaeb487	0.34122106
221	0x3e95bb04	0.29244244
222	0x3cf1c1d4	0.02951137
223	0xbe0c0145	-0.1367236
224	0x3e76fea6	0.24120578
225	0x3e799edb	0.24377005
226	0xbe8561eb	-0.26051268
227	0x3eea5c5d	0.45773593
228	0x3f15efe3	0.58569163
229	0xbf0ed3ad	-0.5579174
230	0xbe42cb36	-0.19022831
231	0x3ebfc967	0.37458345
232	0xbe9e8084	-0.30957425
233	0xbf2d6dfd	-0.67745954
234	0x3e221553	0.15828447
235	0xbf01d2c9	-0.5071226
236	0x3e7c0e92	0.24614933
237	0xbea1a6ee	-0.3157267
238	0xbc616f66	-0.01375947
239	0xbf4d5c5e	-0.80219066
240	0xbf386e97	-0.72043747
241	0xbc625355	-0.013813813
242	0xbf1ae30f	-0.60502714
243	0xbf5616d5	-0.8362859
244	0xbc1c43d5	-0.009537657
245	0xbe2310e0	-0.15924406
246	0x3e32cb7a	0.17460433
247	0xbf0a8b71	-0.5411902
248	0xbedf7780	-0.4364586
249	0xbf34aebe	-0.70579135
250	0x3ee56604	0.44804394
251	0xbf552e71	-0.8327399
252	0xbeb2ee03	-0.34947214
253	0x3f08ce97	0.5344023
254	0xbf22c5e7	-0.63583225
255	0xbde09516	-0.10965936

lstm.bias_ih_l0 f4 [120]
0	0xbe03dfd3	-0.12878351
1	0xbef339ba	-0.4750498
2	0xbe626cd0	-0.22111821
3	0x3d153e52	0.036436386
4	0xbf15464b	-0.58310384
5	0xbeb59f6a	-0.35473186
6	0xbe925a4d	-0.2858452
7	0xbe2d4004	-0.16918951
8	0xbf4c6036	-0.79834306
9	0xbf0d0780	-0.5508957
10	0xbddbc2d5	-0.10730521
11	0xbef38bc4	-0.4756757
12	0xbe0509ce	-0.12992021
13	0xbec5af4c	-0.38610303
14	0xbd4d2c55	-0.050091106
15	0xbebdab3c	-0.37044704
16	0xbf0db158	-0.5534873
17	0xbe0af6dc	-0.13570732
18	0xbecf27d9	-0.4046009
19	0xbf1cec0a	-0.6129767
20	0xbea22b7f	-0.3167381
21	0xbf0a3dd5	-0.540006
22	0x3e9f48fd	0.31110373
23	0xbebcee48	-0.36900544
24	0xbdf13ac1	-0.117787845
25	0xbddb3c2f	-0.107048385
26	0xbdbbc852	-0.091690674
27	0xbed79c5b	-0.42111477
28	0xbe1a8d70	-0.15093017
29	0xbd63770d	-0.055533458
30	0xbe39bbce	-0.18138048
31	0xbf199acb	-0.6000182
32	0xbe745a2d	-0.23862524
33	0x3ca7a392	0.020463739
34	0xbf24fb2f	-0.64445776
35	0xbe9673ea	-0.2938531
36	0xbee8e80d	-0.4548954
37	0xbecb3e76	-0.3969609
38	0xbf48e9ef	-0.78481954
39	0xbf03598b	-0.51308507
40	0xbeadb5da	-0.33927804
41	0xbead9c34	-0.33908236
42	0xbe6e52e1	-0.23273803
43	0xbe82badd	-0.2553319
44	0xbee9b682	-0.45647055
45	0xbdd3b023	-0.1033633
46	0xbf5571e8	-0.8337693
47	0xbf0dd79a	-0.55407107
48	0xbf10cb47	-0.56560177
49	0xbeb56629	-0.35429505
50	0xbe93e874	-0.28888285
51	0xbed1a276	-0.4094426
52	0xbf0c565b	-0.5481927
53	0xbf0ecb2b	-0.5577876
54	0xbd8faca8	-0.070153534
55	0xbe9ba4b2	-0.3039909
56	0xbea7c5db	-0.3276814
57	0xbef4496c	-0.47712266
58	0xbd8a879f	-0.06764149
59	0xbf3639ab	-0.71181744
60	0x3d0768d2	0.03305895
61	0xbe74f368	-0.23920977
62	0xbd1c9566	-0.038228415
63	0xbd24efa0	-0.040267587
64	0x3e9cbf67	0.30614778
65	0xbdfa1863	-0.12211683
66	0xbe80c45c	-0.2514981
67	0xbe1e26ad	-0.15444441
68	0x3d2d7552	0.042348213
69	0xbde0db1e	-0.10979293
70	0xbd15ca33	-0.036569785
71	0x3ea36f17	0.31920692
72	0x3e273915	0.16330369
73	0xbccc326c	-0.024926387
74	0x3de2a2ab	0.11066183
75	0xbd53773c	-0.051627383
76	0xbdcbbbfe	-0.09947966
77	0x3ebc9afd	0.36836997
78	0x3ddd51a0	0.10806584
79	0xbe1ad3d3	-0.15119867
80	0x3da78ca9	0.08181126
81	0x3e0657ce	0.13119432
82	0x3d35ef3b	0.0444176
83	0xbea36d90	-0.31919527
84	0x3e653375	0.2238291
85	0x3d1d32f5	0.038378675
86	0x3e1f637f	0.15565298
87	0xbdf75a1f	-0.12077736
88	0xbec0911a	-0.37610704
89	0xbe3d7f9b	-0.18505709
90	0xbe465211	-0.19367243
91	0xbef04cba	-0.46933538
92	0xbe97147a	-0.2950781
93	0xbc71cfb8	-0.014758997
94	0xbf4193c7	-0.75616115
95	0xbe9bccf7	-0.30429813
96	0xbe80a01a	-0.25122148
97	0xbef15621	-0.47136024
98	0xbf5f1039	-0.8713413
99	0xbf0b0902	-0.5431062
100	0xbeb15afe	-0.34639734
101	0xbf1d2af4	-0.61393666
102	0xbe073ab8	-0.13205993
103	0xbe8f8349	-0.2802985
104	0xbe727faa	-0.23681512
105	0xbeb05b5f	-0.3444471
106	0xbf1448b5	-0.5792344
107	0xbea61353	-0.32436618
108	0xbf0aa6da	-0.54160845
109	0xbf05e915	-0.5230878
110	0x3d01b896	0.031670175
111	0xbeffd12c	-0.49964273
112	0x3dd2c3d8	0.102912605
113	0xbe1f3046	-0.15545759
114	0xbd4a919d	-0.049455274
115	0xbe0d6fb9	-0.1381215
116	0xbd92f52b	-0.07175668
117	0xbef26338	-0.47341323
118	0xbe9826c0	-0.29717064
119	0x3d660c0f	0.056163844

lstm.bias_hh_l0 f4 [120]
0	0xbe596823	-0.21231131
1	0xbf07b0b3	-0.53003997
2	0xbe66e24e	-0.22547266
3	0x3d71a711	0.058997218
4	0xbf1005f8	-0.5625911
5	0xbe0ea3db	-0.13929693
6	0xbe6fe246	-0.2342616
7	0xbecf1db4	-0.4045235
8	0xbf799262	-0.9748899
9	0xbf1d1e81	-0.6137467
10	0xbca6f0d4	-0.020378508
11	0xbef624d9	-0.48074988
12	0xbd7c2b96	-0.061565004
13	0xbedc2bbb	-0.43002114
14	0xbe384096	-0.17993388
15	0xbdc94ee3	-0.098294996
16	0xbf113680	-0.56723785
17	0xbe5839f0	-0.21115851
18	0xbef7f47f	-0.48428723
19	0xbf075bf6	-0.52874696
20	0xbe6daffc	-0.23211664
21	0xbf00534c	-0.501271
22	0x3ea84262	0.32863146
23	0xbe78cf59	-0.24297847
24	0xbe3f67e9	-0.18691982
25	0xbe57d77e	-0.21078297
26	0xbeaab7fa	-0.33343488
27	0xbeed4d3b	-0.46347985
28	0xbe514ac9	-0.20438685
29	0x3e862e79	0.2620733
30	0xbe8a868f	-0.27055785
31	0xbf22396c	-0.6336887
32	0xbf07d9c3	-0.53066653
33	0xbe2c387c	-0.16818422
34	0xbf3a5e66	-0.7280029
35	0xbe32f045	-0.17474468
36	0xbf0fb4c7	-0.5613522
37	0xbe87feb5	-0.26561514
38	0xbf387daa	-0.7206675
39	0xbef710f3	-0.4825512
40	0xbe9f6403	-0.3113099
41	0xbf1b6d31	-0.6071349
42	0xbf0b3dba	-0.5439106
43	0xbee343ba	-0.4438761
44	0xbe1ed960	-0.1551261
45	0xbed31bda	-0.41232187
46	0xbf408d43	-0.7521555
47	0xbeaab399	-0.33340147
48	0xbe984a27	-0.29744074
49	0xbf0b78b8	-0.5448108
50	0xbe464715	-0.19363053
51	0xbe54eef8	-0.20794284
52	0xbf087cc9	-0.5331541
53	0xbeb640ae	-0.35596222
54	0xbe9bbd8d	-0.30418053
55	0xbf0812c8	-0.5315366
56	0xbd87e224	-0.0663493
57	0xbee1c44b	-0.44095072
58	0xbd8955a0	-0.06705785
59	0xbf4f88c7	-0.8106808
60	0xbd316ae8	-0.043314844
61	0xbe14c01a	-0.14526406
62	0xbc4d9edb	-0.012550081
63	0x3e26d3df	0.1629176
64	0x3e5b4249	0.21412005
65	0xbb073fed	-0.0020637468
66	0xbe1704d9	-0.14747943
67	0xbd40d693	-0.047079634
68	0xbe45bf0a	-0.19311157
69	0x3d40eba9	0.047099743
70	0xbc95a21e	-0.01826578
71	0x3d93008a	0.07177837
72	0x3c73dcd6	0.014884194
73	0xbe4ee6c7	-0.20205222
74	0x3d6814fd	0.05666064
75	0x3e8649f1	0.26228288
76	0xbeab26fe	-0.33428186
77	0x3e3c0158	0.18359888
78	0x3d0d5a2f	0.034509834
79	0xbdc5915b	-0.09646865
80	0x3dbaa73e	0.0911393
81	0x3d3516ba	0.044211127
82	0x3bb56e24	0.0055368114
83	0xbecb15ed	-0.39665166
84	0xbd0754b8	-0.03303978
85	0x3d211167	0.039323237
86	0x3c668947	0.014070815
87	0xbe9635a9	-0.29337814
88	0xbd0908ae	-0.033455543
89	0xbe9ebf18	-0.31005168
90	0xbe63f0f2	-0.22259882
91	0xbec8be6d	-0.39207783
92	0xbf00e482	-0.50348675
93	0xbe6b5767	-0.2298256
94	0xbf1265d8	-0.5718665
95	0xbea4d3b5	-0.3219277
96	0xbec1887d	-0.37799445
97	0xbe700548	-0.23439515
98	0xbf60506b	-0.8762271
99	0xbf061740	-0.52379227
100	0xbe967859	-0.29388693
101	0xbf18d67d	-0.59702283
102	0xbe5eacda	-0.21745625
103	0xbeeb8cbe	-0.46005815
104	0xbe34c43a	-0.1765298
105	0xbe16d165	-0.14728315
106	0xbf23f735	-0.64049083
107	0xbe896d3b	-0.2684115
108	0xbef8fc64	-0.4863006
109	0xbea20192	-0.31641823
110	0x3b81dce7	0.003963101
111	0xbe679382	-0.22614864
112	0x3e4a90ad	0.19781752
113	0xbeaef57e	-0.3417167
114	0xbe2f3bad	-0.17112608
115	0x3e074c8c	0.13212794
116	0xbde54087	-0.11193948
117	0xbea17e4e	-0.31541675
118	0xbeb5e2b6	-0.3552453
119	0xbd741efd	-0.059599865

linear.weight f4 [1, 30]
0	0xbdbcb477	-0.092141084
1	0x3e19318d	0.14960308
2	0x3e72074e	0.23635599
3	0xbdfb6e1c	-0.12276861
4	0xbe016563	-0.12636332
5	0xbe00d139	-0.12579812
6	0x3cdf6452	0.027269516
7	0xbd05312a	-0.03251759
8	0x3d5ffce6	0.054684542
9	0x3e47fe73	0.19530658
10	0x3cc277d8	0.023738787
11	0xbd29fafd	-0.041499127
12	0x3d5abe2f	0.05340403
13	0x3e2c563a	0.16829768
14	0x3dad7005	0.08468632
15	0xbad1b8cc	-0.0016000508
16	0x3e06e778	0.13174236
17	0xbf004bd5	-0.5011571
18	0xbe30f160	-0.17279577
19	0x3e3e311d	0.18573423
20	0xbe446771	-0.19180085
21	0xbdd1b65e	-0.10239862
22	0xbe3272c1	-0.17426588
23	0x3ec8934f	0.39174888
24	0xbdf37d3e	-0.118891224
25	0x3e9b471b	0.30327687
26	0x3e4122d9	0.1886095
27	0x3ef12b24	0.47103226
28	0xbdbb8ef8	-0.091581285
29	0x3f1f384b	0.6219527
