source/site/static/nets/15-20-10-1.pth (torch_old, 3594 bytes, 5 tensors)

lstm.weight_ih_l0 f4 [40, 4]
000000 ab e1 0d c0 41 c1 48 3f 2d bb 13 c0 a7 74 fb bf
       -2.2168987 0.7841988 -2.3082993 -1.9644974
000010 58 0a a3 be d4 40 7e 40 02 49 f7 bf 49 f3 e2 be
       -0.3184383 3.9727068 -1.9319155 -0.44326237
000020 32 c8 8d 3f ef 70 78 40 12 87 24 bf a5 f1 a5 3f
       1.107672 3.881893 -0.642686 1.2964369
000030 86 3d 76 c0 6b 8b 58 c0 7b 2a 84 c0 a2 37 c2 c0
       -3.847505 -3.3835094 -4.1301856 -6.069291
000040 4c c9 22 bb 80 39 4d 3f eb c7 99 be 7a 21 c7 3e
       -0.002483922 0.80165863 -0.30035338 0.38892728
000050 07 fe 86 c0 3b b7 88 c0 1e 71 58 c0 b8 2d 93 c0
       -4.218509 -4.272367 -3.3819041 -4.599331
000060 21 8d a0 bf aa ba 44 3f 5d e0 16 c0 fe a7 83 bf
       -1.2543069 0.76847327 -2.357444 -1.0285642
000070 08 55 4c 40 5d ee 4f 40 b9 4e 27 40 9e 36 47 40
       3.19269 3.2489235 2.6141798 3.1127086
000080 cc c1 07 40 19 90 84 3f 69 be f3 3f d9 75 dc 3f
       2.1212034 1.0356475 1.9042484 1.7223464
000090 11 b2 5f bf 4a 0a 12 40 a0 b6 b6 bf 07 6a ed bf
       -0.8738108 2.281878 -1.4274483 -1.8547982
0000a0 f9 99 01 40 63 5a 81 40 a3 b1 9e bf 86 a1 ce 3f
       2.0250227 4.0422835 -1.239796 1.6143043
0000b0 1f 32 bd bf f5 0e 56 40 d0 89 f3 bf 65 e3 b0 bf
       -1.4780921 3.344663 -1.9026432 -1.3819395
0000c0 5c 4d ae 3f fc 6a 5a 40 5d 84 ac bf b3 5b 96 3f
       1.3617358 3.4127798 -1.3477894 1.1746734
0000d0 a4 3c 2a c0 25 b1 3c c0 25 a0 96 3f 37 ee 3e c0
       -2.6599512 -2.948312 1.1767622 -2.9832895
0000e0 e8 1e c8 3f 87 3e c1 3f 5a da dc 3f 81 44 ec 3f
       1.5634432 1.5097207 1.7254136 1.8458406
0000f0 39 e1 2c c0 a4 fe 24 c0 d6 f3 a2 c0 f8 b8 a9 c0
       -2.7012465 -2.578042 -5.092265 -5.303829
000100 89 b0 53 bf 69 3a 5a bf 55 a7 c0 bf c0 e8 2d bf
       -0.82691246 -0.85245377 -1.5051066 -0.67933273
000110 e8 3b 4c 40 76 e1 4a 40 f1 59 40 40 c6 d7 59 40
       3.1911564 3.170011 3.0054896 3.4037948
000120 74 30 2f 40 cc c3 21 40 dd c3 35 40 2a 25 25 40
       2.7373323 2.5275755 2.8400795 2.5803933
000130 bd 6a bd 3f 16 cd 62 40 bd 52 c4 bf 0c 4a 19 40
       1.4798199 3.5437675 -1.533775 2.3951445
000140 4a 92 de 3f 63 54 87 3f 90 25 21 40 b5 69 e6 3f
       1.7388394 1.0572628 2.5179176 1.8001009
000150 ec 46 c8 be cd 0f 84 3e 04 f5 0c bf 7f 2a 49 bf
       -0.3911661 0.25793305 -0.55061364 -0.7858047
000160 71 14 41 bf 86 81 03 c0 d7 bd 34 40 12 be 5a bf
       -0.75421816 -2.0547805 2.824087 -0.85446274
000170 09 1d 97 bf 31 24 f7 bf 7a 68 ac be 83 b1 91 bf
       -1.1805736 -1.930792 -0.3367346 -1.1382297
000180 0d 4a 75 3f 0b 17 8f 3f 89 d6 5d 3f 61 99 66 3f
       0.9581612 1.1178907 0.8665548 0.9007779
000190 08 2d 05 40 f9 0c 1f 40 a0 72 67 3f bf 02 dd 3f
       2.0808735 2.4851668 0.9040928 1.7266463
0001a0 74 7d bd 3f 5b f1 b5 3f c1 b9 04 40 49 e7 00 40
       1.480391 1.4214281 2.0738375 2.0141165
0001b0 25 e6 bc 3f 1f 7f 03 40 70 1a a8 3f 4b f1 d5 3f
       1.4757735 2.0546339 1.3133068 1.6714262
0001c0 c3 d0 12 c0 5e 58 1c c0 22 da eb bf ad b8 05 c0
       -2.2939918 -2.4428935 -1.8425944 -2.0893967
0001d0 d9 40 2d 40 27 92 2c 40 df c6 0d 40 e3 7d 18 40
       2.707083 2.6964204 2.2152631 2.3826835
0001e0 7d ff f1 bf d2 c9 11 bf 72 cf 19 c0 00 35 04 c0
       -1.8906094 -0.5694858 -2.4032865 -2.0657349
0001f0 a7 0a e8 be ab 66 fb be 42 40 72 bf af 44 5e c0
       -0.45320627 -0.49101767 -0.946293 -3.472942
000200 d6 51 5f bf 55 5d d5 3f 4a 80 bf bf ac cf ad bf
       -0.87234247 1.6669108 -1.4961026 -1.3579001
000210 ab e5 22 bf de 88 36 c0 b0 56 8d be 64 c0 8c c0
       -0.63631696 -2.8521037 -0.276052 -4.398485
000220 be b4 87 bf 5f 26 8c 3c ad 28 d7 bf e4 05 8b 3e
       -1.0602033 0.01710814 -1.6809288 0.27152932
000230 a8 e0 b8 3f 4a 91 92 be 67 a8 51 bf c3 7b 91 c0
       1.444356 -0.28626472 -0.81897587 -4.5463576
000240 e7 8c a8 bf 6b 6b 68 bf cc 33 f8 bf 11 86 9f bf
       -1.3168 -0.90788907 -1.9390807 -1.2462789
000250 d3 28 f4 be 19 7f a7 bf 3d 32 dd 3f 11 fb 12 bf
       -0.47687396 -1.3085662 1.7280957 -0.57414347
000260 98 50 18 c0 58 b9 18 c0 49 85 24 3f 6a ca 25 c0
       -2.379919 -2.3863125 0.64265877 -2.5904794
000270 61 bf 8f 3f f2 5b 13 40 af 58 a6 bd d2 e3 34 3f
       1.1230279 2.302487 -0.08122384 0.70660126

lstm.weight_hh_l0 f4 [40, 10]
000000 f5 ee 1b c0 3b 3c 42 c0 70 c0 3b c0 a8 de f1 3f
       -2.4364598 -3.0349262 -2.9336205 1.8896074
000010 00 ee 19 40 1c 09 f1 bf f5 77 4b c0 88 91 33 40
       2.4051514 -1.8830905 -3.1791966 2.8057575
000020 00 df 29 c0 ef db 33 40 c3 f1 53 c0 a7 18 6d 3f
       -2.6542358 2.8102987 -3.311631 0.9261574
000030 61 5f 40 c0 64 f6 02 40 4d ce 37 40 88 a3 c6 bf
       -3.0058215 2.0462885 2.8719666 -1.5518656
000040 70 d6 44 c0 7e e8 46 bf bf 6b 5a c0 0d 5a 5c 40
       -3.0755882 -0.77698505 -3.4128263 3.4429963
000050 7a e1 73 c0 4b 45 5e 3f f3 e3 5e c0 c8 d6 ff 3f
       -3.810637 0.8682448 -3.482663 1.9987421
000060 0f 05 25 40 73 48 b7 bf ac 05 48 c0 56 ca 58 3c
       2.5784338 -1.4318985 -3.1253462 0.013231834
000070 67 f3 52 c0 a6 e6 55 40 35 0c 11 40 96 74 20 3f
       -3.296106 3.3422027 2.26637 0.62677896
000080 a5 01 b7 3f 2f 4d 90 bf 2b 22 d5 3d d0 fa 64 3f
       1.4297377 -1.1273555 0.10406908 0.8944521
000090 10 54 ba 3f c7 4d 14 c0 eb c8 b5 be c8 ad 43 c0
       1.4556904 -2.3172472 -0.3550485 -3.0574818
0000a0 2b 39 fd bf ac fa 07 3f 70 28 0d c0 fb 37 b7 3f
       -1.9783071 0.5311687 -2.205593 1.4313959
0000b0 a6 a9 95 3f 73 93 fe bf 87 c8 20 c0 75 83 25 40
       1.1692398 -1.9888748 -2.5122392 2.5861485
0000c0 90 e0 2b c0 c5 2f 3b 40 06 f3 d9 be bc d3 1a 40
       -2.6855812 2.9247906 -0.42568225 2.4191732
0000d0 ad 0a 98 bf 48 d4 f2 bf 77 5b 99 3f c7 97 b5 3f
       -1.1878258 -1.8971033 1.1981038 1.4186944
0000e0 29 2a 9b bf 22 38 d5 bf e9 6c 98 bf 3c 13 af 3d
       -1.2122241 -1.6657755 -1.1908237 0.085485905
0000f0 88 7b 90 c0 77 0c ae 3f 74 eb 8c c0 53 29 e7 3f
       -4.5150795 1.3597554 -4.403742 1.8059486
000100 8b 4a 61 3f de a6 ce bf 1b 56 86 c0 88 f5 a1 3e
       0.8800437 -1.6144674 -4.198011 0.31632638
000110 3a 3a 5a c0 86 01 5e 40 5b 0e c1 bf 12 ad 11 bc
       -3.4098039 3.468843 -1.5082506 -0.008891361
000120 fd ff d0 bf f3 93 fa 3f 17 5c 6c bf 96 74 ee bf
       -1.6328121 1.95764 -0.9232802 -1.8629329
000130 0d 53 96 bf 23 c6 20 bf 12 81 23 c0 30 80 1d 40
       -1.1744095 -0.6280233 -2.5547528 2.460949
000140 a4 18 19 40 f9 c7 7c c0 dd a6 1e 40 19 ad ea 3f
       2.392129 -3.9497054 2.4789345 1.8334075
000150 4b 80 28 40 06 5f 02 c0 d5 55 07 40 ce fd 86 40
       2.6328304 -2.0370498 2.1146138 4.218482
000160 d3 bd 94 3f 13 83 6d bf ce 4f 22 c0 2a 12 f2 bf
       1.162043 -0.9277813 -2.536121 -1.8911793
000170 50 c2 20 c0 2d 2a 24 40 77 36 10 40 e6 98 27 c0
       -2.51186 2.5650742 2.2533243 -2.6187072
000180 26 4d 12 c0 29 91 13 40 cd 46 28 c0 00 62 cc 3f
       -2.2859588 2.3057349 -2.6293213 1.5967407
000190 51 38 77 c0 dc 8c 4d 3f 29 9c 5e c0 5e 67 dc 3f
       -3.8628123 0.8029306 -3.4782813 1.7219045
0001a0 d8 ec 50 40 e8 64 f9 bf df 41 49 c0 ce ff c8 3f
       3.2644558 -1.9483919 -3.1446455 1.5703065
0001b0 36 84 75 c0 68 02 62 40 7e 2d 39 c0 0f 50 9d 3f
       -3.8361945 3.5313969 -2.8934016 1.2290057
0001c0 bc 2a 44 c0 17 c1 85 3f ec 1e 84 bf af 00 eb be
       -3.0651083 1.0449551 -1.0321937 -0.4589896
0001d0 91 f7 45 c0 31 14 c3 bf 44 79 30 c0 e5 16 2e 40
       -3.0932353 -1.5240537 -2.7574015 2.7201474
0001e0 1d 68 37 c0 8a 50 b2 3f c4 e1 32 c0 c0 cd c9 3f
       -2.8657296 1.3930829 -2.7950296 1.5765915
0001f0 2a 8b 49 40 0c a3 6c bf 72 ce 29 c0 53 21 b5 bf
       3.149119 -0.9243629 -2.6532254 -1.4150795
000200 ea 88 49 c0 01 cd 47 40 ce 67 3f 40 5f f7 09 40
       -3.1489816 3.1218874 2.9907107 2.1557233
000210 83 3c 57 40 a6 0d e4 bf 3c 2e 20 c0 62 5a d6 3f
       3.3630683 -1.7816665 -2.502822 1.6746333
000220 68 e1 3b 40 86 9b 29 c0 80 04 11 40 a1 19 28 c0
       2.9356327 -2.6501174 2.2658997 -2.6265643
000230 cb c6 fa 3f 73 ab 52 c0 10 6a dd 3f ca 72 12 40
       1.9591917 -3.2917144 1.7297993 2.2882562
000240 f9 10 19 bf a4 24 1c c0 78 cd e5 3f 72 ad 53 bf
       -0.59791523 -2.4397364 1.7953329 -0.8268653
000250 aa ff cd 3f 18 0c 93 bf 3c 5f 34 40 68 6f 23 40
       1.6093647 -1.1488066 2.8183126 2.5536747
000260 9a 61 0d 40 81 4f 5e bf fe df 0a c0 c6 22 af 3f
       2.2090821 -0.86840063 -2.1699214 1.3682487
000270 72 31 18 40 79 60 37 c0 e0 82 01 40 a8 5f 37 c0
       2.378018 -2.8652632 2.023613 -2.8652134
000280 35 ba 58 c0 c0 22 da 3f 93 d5 63 c0 1c f9 09 3f
       -3.3863652 1.7041855 -3.5599105 0.53895736
000290 9d b7 98 3f 3e 4c a0 3c 31 6b 71 c0 b1 93 91 3f
       1.1931034 0.019567605 -3.7721674 1.1373197
0002a0 5b d1 ab bf c2 41 80 40 b8 c2 47 c0 0f c8 c7 3f
       -1.3423265 4.008027 -3.1212597 1.5607928
0002b0 4b 94 3b c0 6c cf d8 3f a9 9c 98 bf 83 5f b9 bf
       -2.930926 1.69383 -1.1922809 -1.4482273
0002c0 00 c1 3e c0 28 d1 98 bf 48 08 2c c0 e3 e7 52 40
       -2.9805298 -1.193883 -2.6880054 3.2954032
0002d0 33 3a c4 3f 0d f4 50 c0 a4 d7 cf 3f 57 c3 1d 40
       1.5330261 -3.2648957 1.6237683 2.4650476
0002e0 05 41 05 c0 63 c7 40 c0 c1 09 f2 3f 5f b9 95 be
       -2.0820935 -3.0121696 1.8909227 -0.2924299
0002f0 8b d1 a9 3f 56 86 dd bf e7 26 72 c0 88 4b d4 3f
       1.3267072 -1.7306621 -3.7836244 1.658555
000300 2c bc 56 c0 a4 5e 35 40 24 a7 89 3f a7 e0 ff bf
       -3.355235 2.8339014 1.0754132 -1.9990433
000310 ae fe 3d c0 46 97 46 bf ff c7 5d c0 79 29 27 40
       -2.9686694 -0.77574575 -3.4653318 2.6119063
000320 e2 09 fc 3f eb ed 0d c0 76 b6 81 3f 53 bf 46 c0
       1.9690516 -2.2176464 1.0133808 -3.1054275
000330 fe 76 d3 bf 5b ed 4c 40 9d 51 fe 3f ca 3d b8 be
       -1.6520689 3.201987 1.9868656 -0.3598464
000340 51 67 9c 3f 55 7e 08 c0 46 09 21 c0 52 cc 0e 40
       1.221903 -2.1327107 -2.516191 2.2312207
000350 4f 49 44 c0 d5 31 4e c0 d6 29 40 40 9a 5c 61 40
       -3.0669744 -3.2217915 3.0025535 3.521277
000360 d3 b5 11 c0 02 7d f3 bf 78 6b 37 c0 fb 41 1d 40
       -2.2767227 -1.9022524 -2.8659344 2.4571521
000370 38 2f f6 3f a5 a0 1b c0 69 11 d1 3f a8 10 1a c0
       1.923316 -2.43168 1.6333438 -2.4072666
000380 d3 50 bc bf e4 14 1f 40 45 9e e9 3f d8 85 7f 3f
       -1.4712166 2.48565 1.8251425 0.99813604
000390 0a b2 04 40 b6 a2 15 c0 e3 6c 70 40 8d 1a 08 3f
       2.0733666 -2.338056 3.756646 0.53165513
0003a0 da 83 ae 40 1b 30 e3 bf d4 01 76 bf 9e 6f d1 3f
       5.453595 -1.7749056 -0.9609654 1.6362188
0003b0 a4 c9 96 40 b6 7b 2f c0 cd e0 51 40 c0 6b 49 c0
       4.7121143 -2.7419257 3.2793458 -3.1472015
0003c0 8e 3b 1e 40 7d f6 07 c0 7a 72 31 40 1a 22 42 40
       2.472385 -2.1244195 2.772612 3.0333314
0003d0 3a 54 3e c0 df 60 74 c0 b1 7f 04 40 dd e8 19 c0
       -2.9738908 -3.8184125 2.0702937 -2.4048378
0003e0 b3 dd 26 40 1a 29 f3 bf 7d 73 60 c0 31 b0 91 3e
       2.6072814 -1.8996918 -3.5070488 0.28454736
0003f0 d9 9d 6d c0 7f 3b d3 3f 74 c4 65 40 62 59 06 c0
       -3.7127593 1.6502532 3.5901155 -2.0992055

lstm.bias_ih_l0 f4 [40]
000000 17 76 f3 3f 38 30 4d 40 f5 dc 25 40 d0 03 0b c0
       1.9020413 3.206068 2.5916111 -2.1721077
000010 ce 2e 43 3f 6a f0 b1 be 16 1c 2a 40 cc b8 d6 3f
       0.76243293 -0.34753734 2.6579642 1.6775146
000020 07 02 c0 bf 17 d7 3c 40 54 a6 1a 40 72 61 09 40
       -1.5000619 2.950628 2.4164019 2.1465726
000030 e2 b3 11 40 4d c5 fb bf d3 4f d8 bf e2 7f 03 c0
       2.2766042 -1.9669586 -1.689936 -2.0546803
000040 c7 46 2b 40 95 0a 18 40 36 7d 0f c0 06 50 35 40
       2.676195 2.3756459 -2.2420173 2.8330092
000050 9f c8 61 c0 17 ac 61 3f 62 3e 75 c0 a3 9a e9 bf
       -3.52787 0.88153213 -3.8319325 -1.8250316
000060 c1 66 b3 bf e5 b1 eb 3f de e0 75 c0 a9 70 85 bf
       -1.4015733 1.8413664 -3.8418498 -1.0425006
000070 95 b1 a0 3f 38 85 4a 40 b3 1d 2f 40 f5 32 27 3f
       1.2554194 3.164381 2.7361877 0.6531213
000080 f6 30 23 40 3c d7 fb bf cc e6 8b 3f 14 51 88 bf
       2.5498633 -1.9675059 1.0929809 -1.0649743
000090 ae ec 4d 40 11 08 3f c0 77 0a 11 c0 26 4e 5b 40
       3.2175708 -2.9848673 -2.2662637 3.4266448

lstm.bias_hh_l0 f4 [40]
000000 ce c6 d6 3f 92 1d 3a 40 28 2e 26 40 c4 13 0d c0
       1.677942 2.9080548 2.5965672 -2.2043314
000010 06 b1 0c 3f b4 78 72 3c 64 d8 0b 40 8c 7c ab 3f
       0.54957616 0.014799286 2.1850824 1.3397384
000020 a2 8d a8 bf d7 4a 3f 40 18 93 05 40 72 0e e9 3f
       -1.3168223 2.9889429 2.087103 1.8207533
000030 21 61 16 40 f7 f8 ff bf fd ae fa bf 46 cc ee bf
       2.3496783 -1.9997853 -1.9584652 -1.8656089
000040 20 d1 31 40 e3 21 24 40 7e 4d 03 c0 9a 14 2c 40
       2.778389 2.5645683 -2.0516047 2.6887574
000050 80 80 7e c0 93 fd 44 3f 74 45 64 c0 dd db e3 bf
       -3.976593 0.76949424 -3.566739 -1.7801472
000060 a1 b7 95 bf 95 fd f4 3f e8 c6 73 c0 6f f9 af bf
       -1.1696664 1.9139887 -3.8090153 -1.3747996
000070 e2 96 94 3f 07 12 59 40 78 34 46 40 28 5b 88 3f
       1.1608546 3.3917253 3.0969524 1.0652819
000080 be 6f 1a 40 13 99 ed bf d7 74 8c 3f ab c7 b9 bf
       2.4130702 -1.856234 1.0973157 -1.4514059
000090 61 e8 4d 40 be 82 3b c0 2e 9b 19 c0 68 3c 4b 40
       3.2173083 -2.9298549 -2.4000964 3.175562

linear.weight f4 [1, 10]
000000 e9 f4 66 3e 74 af 82 bf e7 2b e6 3d 2f 14 21 3f
       0.22554363 -1.0209794 0.112388425 0.6292142
000010 7f 4e 12 c0 19 7c 40 bf 48 ad 59 3c fe 6a 76 bf
       -2.286041 -0.7518936 0.013285942 -0.9625701
000020 88 2e 72 3f 18 ab af 3d
       0.9460225 0.085775554
