source/site/static/nets/15-5-20-1.pth (torch_old, 9395 bytes, 5 tensors)

lstm.weight_ih_l0 f4 [80, 4]
000000 e2 d8 82 be d6 71 30 3f f9 f6 7e bf d0 3c 4c 3f
       -0.25556093 0.689237 -0.995956 0.7978029
000010 04 e8 00 3f 81 f3 83 3f b4 d0 02 bf 6d 38 40 3f
       0.5035403 1.0308686 -0.51099706 0.750861
000020 da d2 f2 bd 49 d1 04 3f da af 8b be 29 4f ad 3e
       -0.11856623 0.51881844 -0.27282602 0.33849457
000030 c8 30 31 3d c0 96 26 3f f4 c2 e7 be 59 3c e6 be
       0.043259412 0.65073776 -0.45265925 -0.44967917
000040 be 55 01 bf 08 5c 20 bf e1 4a de bd 16 98 3d 3d
       -0.5052146 -0.6264043 -0.10854126 0.04628762
000050 e7 70 f3 3d 53 8f 7c 3d 36 b3 f2 be d4 21 52 bf
       0.11886769 0.061660122 -0.47402352 -0.8208287
000060 c1 75 aa 3e b4 94 b5 3f 34 8c 77 bf 90 06 da be
       0.33292964 1.4186006 -0.9669831 -0.42583132
000070 df 87 8d be 57 bd 36 3e d7 7d 1a bf e6 d3 0f 3e
       -0.27642724 0.17845665 -0.60348266 0.14045677
000080 d2 e6 15 be 9c c4 d8 3c 4a f2 86 be a9 e9 fe be
       -0.14638832 0.026460938 -0.26356727 -0.49787644
000090 10 12 a6 be a5 d9 10 bc 02 8a a1 bd 84 28 df be
       -0.32435656 -0.008840953 -0.07887651 -0.43585598
0000a0 ee a8 8b be 59 3b e4 be cf 5c 63 bd b2 73 00 bf
       -0.2727732 -0.4457653 -0.05550843 -0.5017654
0000b0 b8 6e 4d be da 89 85 3d f0 bf f1 be 49 83 1b bf
       -0.20061767 0.06520434 -0.4721675 -0.607472
0000c0 e6 e3 eb 3c b4 d0 0f bd 47 e1 87 3c d0 d5 a0 3e
       0.028795194 -0.035111144 0.016586913 0.31413126
0000d0 05 dc 85 be f0 c4 89 3e fb 16 2b be 78 db 14 bf
       -0.26144424 0.26908064 -0.16707985 -0.5814738
0000e0 0d 52 ec 3e 91 59 4c 3f e8 a3 16 be 04 09 4a 3f
       0.4615635 0.7982417 -0.14710963 0.78920007
0000f0 09 61 a5 be 7b 51 2b be a0 0b 91 be a7 3a fd be
       -0.32300594 -0.16730301 -0.28329182 -0.4945881
000100 e5 4e a7 be f7 4d 77 3c 6d 82 07 bf ae b2 1a bf
       -0.3267738 0.015094272 -0.5293339 -0.60428894
000110 00 8d bf 3c fe a2 21 be c0 f0 9c 3e a2 23 1d be
       0.023382664 -0.15784833 0.30652428 -0.15345624
000120 4b 26 85 be 0a 84 89 3d 91 98 b9 be d8 80 21 bf
       -0.26005778 0.067146376 -0.3624921 -0.63087225
000130 97 8b fd be c3 7b 0b be 67 28 29 be e0 5d 3f be
       -0.4952056 -0.1362143 -0.16519319 -0.18688154
000140 de 6f 23 3e 0d 98 ad 3d 6d a9 95 3d cf 01 87 3f
       0.15960643 0.08476267 0.07307706 1.0547427
000150 52 1a 98 3e 7f 00 16 bd db b1 a4 3e f9 e8 18 3f
       0.2970758 -0.036621567 0.32166943 0.5973049
000160 ad fe bd be fa 92 f0 be c6 74 43 3d 6b 57 0d bc
       -0.37108365 -0.46987134 0.047718786 -0.008626799
000170 85 6a 9e be ef b9 2c bf dd 3f 63 be d5 30 d2 be
       -0.30940643 -0.6747121 -0.2219233 -0.4105288
000180 65 a3 cb be ae 67 f3 be 31 29 de bd 2e ed b9 bd
       -0.39773098 -0.4754004 -0.108477004 -0.090784416
000190 74 7d bb be f5 7f bf be 1b 11 d5 bc 32 31 4b bf
       -0.3661915 -0.3740231 -0.026009133 -0.7937194
0001a0 03 65 9d 3c 38 ca 09 bf 90 f0 31 bc 99 c0 29 bf
       0.019213205 -0.53824186 -0.010860577 -0.66309506
0001b0 7d 0a 7b be 9e c3 ef be 08 d4 cf 3d 76 6a 5c be
       -0.2451572 -0.46828932 0.101478636 -0.21524987
0001c0 8d b5 d8 3d 59 a7 cc be bb c9 8b be f9 ae 01 bf
       0.10581503 -0.39971426 -0.27302346 -0.5065761
0001d0 2e bb 80 bd 69 cd 5e be ce 54 ac be f2 60 07 bf
       -0.06285702 -0.21758045 -0.3365845 -0.528823
0001e0 ea 0e 81 be ee 8f a7 be 0e e8 24 3c 17 c1 00 bf
       -0.2520669 -0.32726997 0.010065092 -0.5029463
0001f0 25 3a c9 be ca fd 59 bf 33 5d 3f be cd 5f b8 be
       -0.39302173 -0.85152876 -0.18687896 -0.3601059
000200 ae 36 38 3e 7f be a7 3e ec 87 1b 3e 8c ff 08 3f
       0.17989609 0.32762524 0.15188569 0.53514934
000210 b7 bc f9 3d 0f b6 3b be 60 0b b4 be fd e2 d9 be
       0.121941976 -0.18331169 -0.35164928 -0.4255599
000220 78 d7 fe 3e 26 7a 1f 3d f9 a8 cc 3e 28 e2 12 3f
       0.49773765 0.03893485 0.39972666 0.5737634
000230 17 fa 3c bd e4 2c 2e bf 9f c1 04 3e 41 6b 35 bf
       -0.04613694 -0.6803725 0.12964486 -0.7086678
000240 ff eb 11 bf 8c af 1f bf 30 3e b3 be 6b 8f 0c bf
       -0.57000726 -0.6237724 -0.35008383 -0.5490634
000250 87 2a 66 be 1b ed 72 be 7f 78 1d 3e 0f f2 b1 bb
       -0.2247716 -0.23723261 0.15377997 -0.005430467
000260 38 b0 73 be 07 46 0d be ca 9c 8c be ec 72 37 bf
       -0.23797691 -0.13796245 -0.2746337 -0.7165973
000270 6d 00 21 be 13 4c c1 be d6 80 51 3d f4 5a e3 bd
       -0.15722819 -0.37753353 0.05114826 -0.11101332
000280 a1 5a 02 be e1 9e ce be 6b b5 b6 bc c6 4d 88 bf
       -0.12729885 -0.4035559 -0.022303304 -1.0648735
000290 cb 41 34 be a8 8d a3 3e 85 9e 69 bd 29 f9 94 3f
       -0.17603223 0.31944013 -0.05703594 1.1638538
0002a0 1b 42 ff bc 84 09 dc bd 87 2f 4b 3d 40 af 8a bf
       -0.031159451 -0.107440025 0.049605872 -1.0834732
0002b0 5e ac 6e 3e 3d 0a 9b 3d 75 0a 74 3e d5 54 89 3f
       0.2330794 0.07570312 0.23832114 1.0729014
0002c0 25 36 27 be 8d 87 97 be 7a ce 85 3d 48 53 e1 be
       -0.16329248 -0.29595605 0.06533523 -0.4400885
0002d0 b4 e4 d3 bd d2 d2 d5 bc 73 21 fe bd 90 b0 51 bf
       -0.10346356 -0.026101504 -0.12408724 -0.8191004
0002e0 53 3e 8b bb 9c 6f 46 be 3c 24 8a bd 76 38 a7 3f
       -0.004249373 -0.19378513 -0.067451924 1.3064106
0002f0 21 52 5c 3e c9 a5 84 3e aa 25 78 be cf 5b 52 3f
       0.21515705 0.25907734 -0.24233118 0.8217134
000300 9d f8 35 bd b9 ac 48 be 65 bc 32 3d f2 60 67 bf
       -0.04442655 -0.19597138 0.0436367 -0.903823
000310 2f 25 d1 3d c0 d5 81 bc a8 2c ba 3d c4 1e 4b 3f
       0.1021217 -0.015848994 0.09090549 0.7934382
000320 37 fb 48 3d 12 c2 95 be 27 11 09 bd 8b f3 25 bf
       0.049067702 -0.29249626 -0.033463623 -0.6482474
000330 45 e6 a3 3d 7f 71 8c bd 7f 86 aa be 0e c9 2f bf
       0.08002905 -0.06857585 -0.33305737 -0.6866616
000340 b7 a0 69 bd e7 ef 92 3c 33 93 58 3d 8c b5 f8 3e
       -0.057038035 0.01793666 0.052874755 0.4857601
000350 68 9a 1a be 5c cb 98 be 46 c0 b3 3c d2 ac 59 bf
       -0.15097964 -0.2984265 0.021942269 -0.8502933
000360 44 29 b6 3e ac 2d 88 3e a7 91 9b be 10 c5 87 3f
       0.35578358 0.26597345 -0.3038456 1.0607014
000370 f6 a1 70 be 22 d8 a4 bd c0 af b3 3c b9 a9 37 bf
       -0.23499283 -0.080490366 0.02193439 -0.7174335
000380 bc 8a 07 be d2 35 73 3d fb 4e 3b be 20 27 54 bf
       -0.13236517 0.0593775 -0.18291847 -0.828722
000390 7b 1f ca 3d 95 5f c8 3c 9b 79 a7 3d 8b f3 46 3e
       0.09869286 0.02445964 0.08177491 0.19428842
0003a0 59 8b 28 be 43 36 2e bd c2 84 90 be fd 1d 36 bf
       -0.16459407 -0.042532217 -0.28226286 -0.7113951
0003b0 b5 c4 bf bd 9b 0a 76 be e3 33 31 3e 82 06 2e bf
       -0.09363691 -0.24027483 0.1730495 -0.6797868
0003c0 91 1e b3 3d e3 b7 d3 3e d7 4a 56 bf f5 22 55 3f
       0.087460645 0.41351232 -0.83707947 0.83256465
0003d0 23 eb 65 3f cc 61 85 3f 27 6a 3f bf 83 5c 40 3f
       0.89811915 1.042047 -0.7477135 0.7514116
0003e0 8c 0e 91 be 59 92 00 3f 46 9a 38 3d 4d bb 1e 3f
       -0.2833141 0.5022331 0.045069 0.6200455
0003f0 c6 49 de bd 2c a4 01 3f 5b a7 c0 be f2 a3 d5 be
       -0.10853915 0.5064113 -0.37627682 -0.41726643

lstm.weight_hh_l0 f4 [80, 20]
000000 99 7e 89 3d c8 cb 5b 3e b9 75 90 be 7b 5a da be
       0.067136 0.21464455 -0.28214815 -0.42647156
000010 ee 1d 5a be 90 17 96 bc b5 80 d7 be 7f 7a a2 3e
       -0.2130048 -0.018321782 -0.42090383 0.31734082
000020 7f 01 c3 bd e5 4d 00 be 9e d1 ac bd f8 fd 82 3e
       -0.0952177 -0.12529714 -0.08438419 0.25584388
000030 c0 b4 2e 3e 35 a0 a3 bd 13 7c 26 3e 5c a5 4f 3e
       0.17061138 -0.079895414 0.16258268 0.20277923
000040 6d fb 02 3e 3d e3 a1 3d 9a 15 a4 3e 91 ff 96 3d
       0.12791224 0.079046704 0.3204773 0.07372964
000050 bf e6 7b be 6a a6 d3 3c cb d9 aa be 79 fb 56 3c
       -0.24599741 0.025836188 -0.33369288 0.013121479
000060 b6 35 b9 be 48 04 59 3e e1 81 4b bf 2d 1d c4 3e
       -0.3617379 0.2119304 -0.79495054 0.3830351
000070 b4 29 45 3e 12 91 28 be da 26 e9 bc 6c c4 df 3e
       0.1925419 -0.1646159 -0.028460909 0.43704545
000080 ed 21 38 be d8 d6 1b be e3 59 21 3e 91 23 34 be
       -0.17981692 -0.15218675 0.15756945 -0.17591693
000090 fa a9 eb 3d 30 69 fb 3d c4 1f bd bb 8e 20 23 be
       0.1150703 0.12275922 -0.005771609 -0.15930387
0000a0 8d fd 07 3e 65 d6 7c be f8 fe 1e 3e fd b2 f4 bd
       0.13280316 -0.2469116 0.1552695 -0.11948202
0000b0 27 3c 2d 3e 69 2d 90 3d 84 71 a5 be a8 bd 77 bd
       0.16917478 0.07039911 -0.32313168 -0.060483605
0000c0 be 01 81 3d 44 92 40 bd af d8 82 3e 65 e7 90 3e
       0.062991604 -0.04701449 0.2555594 0.2830154
0000d0 d1 4e ff be e6 00 75 3e 93 8b 54 bd 1c 7d af 3d
       -0.4986482 0.23926124 -0.05189092 0.085687846
0000e0 48 91 a3 3e 9c db 51 be 47 3f f0 bd 3a 1e 35 3e
       0.31946778 -0.2049393 -0.11730819 0.17687312
0000f0 d9 b9 04 be 4c 6d d2 3e 0b 17 bc be 30 c0 03 3e
       -0.1296152 0.41099012 -0.3673633 0.12866282
000100 3e 53 aa be b0 8d 1d 3e d9 7c 47 3e 28 0b 06 3e
       -0.33266634 0.1538608 0.1948122 0.13090193
000110 70 03 4c be 2c 14 5a 3e 72 2b bd 3d c7 26 ba 3d
       -0.19923186 0.21296757 0.09236802 0.090894274
000120 f2 6e ce 3d 05 38 da 3d d1 a2 dc 3d ca 00 79 be
       0.10079755 0.10655216 0.10773242 -0.24316707
000130 50 01 28 be ee 5c c0 3d c6 39 79 3d b3 f7 0a be
       -0.1640675 0.09392725 0.060846113 -0.13571052
000140 9f 0b 83 3e a3 c4 87 be 81 5e cc 3e eb 36 d2 3c
       0.25594804 -0.2651721 0.3991585 0.025660953
000150 28 20 99 bd 2d ce 05 be 3b 5b 3f be 2a c5 fb 3d
       -0.074768364 -0.13066931 -0.18687145 0.122934654
000160 ba 61 b4 be fe 09 be 3e da 9a bc bd 0b d1 96 3c
       -0.3523081 0.37116998 -0.09209223 0.018410226
000170 fd f2 3f be 76 6f 73 be f9 00 58 be a9 4a 27 3e
       -0.18745036 -0.23772988 -0.21094121 0.16337074
000180 9f 31 a8 bd d7 50 59 bd f9 3c 40 be bb 06 6e 3e
       -0.082125895 -0.05305561 -0.18773259 0.23244755
000190 a5 a5 1c bd a1 d8 39 3e f0 76 3f be 19 1b 95 3e
       -0.03824391 0.18149044 -0.18697715 0.29122236
0001a0 6c 18 84 3c fd 99 3a be 18 63 7e 3e 7f ea 8b 3e
       0.016124927 -0.18222804 0.24842489 0.27327344
0001b0 4b 36 70 bd 61 d7 18 3d ec 13 f7 bd 5c cd ea 3d
       -0.058645528 0.037314776 -0.12064347 0.114649504
0001c0 0f d4 b2 bd 63 cd 1f bd a4 95 2b be 79 f2 51 3d
       -0.08731853 -0.03901423 -0.16756302 0.05125663
0001d0 ad cd 36 be 3a ba ce bd 57 83 d5 3d a7 b3 90 bd
       -0.17851897 -0.10094114 0.10425442 -0.07065516
0001e0 4b 83 25 bf 43 8a 7a 3f 7c 70 a9 be b0 a4 00 3d
       -0.6465346 0.9786722 -0.3309363 0.03140706
0001f0 a1 4b cf be 8e 50 8d 3e a2 b8 67 3e 92 79 16 3f
       -0.40487388 0.2760052 0.22629026 0.5877925
000200 95 61 27 3e ed 90 9c be a1 8e cb 3d 23 e5 f8 be
       0.16345818 -0.3057932 0.09939314 -0.48612317
000210 0d 77 a8 3e da 80 12 be 08 f9 1d 3d 0f 12 26 3d
       0.3290333 -0.14306965 0.038567573 0.040544566
000220 46 2b ab bd 5c af 19 be ad 55 3f 3e c8 b2 f0 be
       -0.08357863 -0.150083 0.18685026 -0.470114
000230 fc 3a ac 3e ab eb cb 3c 05 f9 f3 bd 21 79 bd 3c
       0.33638752 0.024892649 -0.11912731 0.023129048
000240 9a b2 ae bd e0 3c 8c be c3 66 90 be e5 63 fa bd
       -0.08530159 -0.27390194 -0.282034 -0.122260846
000250 43 d8 54 be 13 6b 3c 3e b6 46 6d 3e ef 98 80 3e
       -0.20785622 0.1840022 0.23171505 0.2511668
000260 b2 da 37 bd 39 89 c1 3d f8 c6 c2 bd db f3 2a be
       -0.0448863 0.09450001 -0.095106065 -0.16694586
000270 10 31 1d be 75 5f 24 be 5b 09 70 bd 83 68 03 be
       -0.15350747 -0.16052039 -0.058602672 -0.12832837
000280 55 0b ae bd a1 de ea 3e a5 56 ae 3c 91 04 5c 3e
       -0.08498255 0.45872977 0.02128155 0.21486117
000290 1f c0 56 bd 17 53 2a be 89 17 b0 3e 5f cf 60 3d
       -0.052429315 -0.16633259 0.34392956 0.054885264
0002a0 7d 8c 81 bd 91 9e a9 3d 54 a5 24 be 08 0a ad be
       -0.06325624 0.08282197 -0.16078693 -0.33796716
0002b0 40 d1 02 be cb 92 48 be b4 92 9a 3d 5f bd 8f be
       -0.12775135 -0.19587247 0.07547513 -0.28074166
0002c0 eb 9e aa be 25 1f 7e bc 59 33 87 3b d5 fb 78 3d
       -0.3332437 -0.015510355 0.004125994 0.06078704
0002d0 08 41 8b 3e 3f 4f 05 3d 3e 9e 4e be 7c 01 c2 bc
       0.27198052 0.032546278 -0.20177552 -0.023682348
0002e0 50 7f b4 be 0e 19 52 bc 89 ef 78 3e 3f 57 18 bc
       -0.35253382 -0.012823356 0.24310125 -0.009298145
0002f0 49 7b 96 be 12 2f 4a 3e 0d a5 e9 bd 72 78 8a be
       -0.29390934 0.19744518 -0.11408434 -0.27045017
000300 e1 19 b2 bd 22 a9 42 3d e3 0c 9b bd 0f 95 75 be
       -0.08696342 0.04752458 -0.07570817 -0.23982643
000310 2d 20 b0 3d fc 04 8c 3e 51 a6 8f 3d 25 9c 37 bd
       0.08599887 0.27347553 0.07014144 -0.044826645
000320 95 f5 2a 3e f7 20 4c be 74 9e 7f be 10 fa 20 3f
       0.16695245 -0.1993445 -0.24962789 0.62881565
000330 c6 04 8c be de 31 79 be ba ce 20 3f ef c9 aa 3e
       -0.27347392 -0.24335429 0.6281544 0.33357188
000340 48 4e f9 bd 80 14 c4 3e 07 5f 90 3d b9 27 6c be
       -0.12173134 0.3829689 0.07049375 -0.23062028
000350 9b 87 36 3d 73 7a 88 be 8e f7 13 3e 75 2c 05 bf
       0.044562917 -0.2665592 0.14449903 -0.5202096
000360 eb ea 90 be e0 b8 56 3e c4 75 34 be 92 07 70 3d
       -0.28304228 0.20968962 -0.17623049 0.05860097
000370 d4 55 09 be dd 73 2b 3e 35 7b 9b bd bc e4 9f 3e
       -0.13411647 0.16743417 -0.07591859 0.31229198
000380 09 0f bb be f0 40 d7 be af d2 aa 3e a9 b1 c1 3e
       -0.36534908 -0.4204173 0.33363864 0.37830856
000390 f5 55 73 be 3d 54 b7 3d 95 0b b3 bc 53 e9 8e bd
       -0.23763259 0.08951614 -0.021856109 -0.06978097
0003a0 2c 64 a3 be ea 4d 40 be c7 73 07 3b ea d8 48 be
       -0.31912363 -0.18779722 0.0020668374 -0.19613996
0003b0 3b 83 7f bd 0e ac 41 bc a7 e6 aa be 42 55 22 be
       -0.06238101 -0.011820806 -0.333791 -0.15852836
0003c0 34 f5 c4 bd d4 53 20 be 0b 50 ea bd 8f 80 8c 3e
       -0.09617081 -0.15656978 -0.11441048 0.27441832
0003d0 9e 6e 32 bd b5 d0 c0 be c8 cc a2 be b2 b5 84 3e
       -0.043562524 -0.3765923 -0.3179686 0.25919873
0003e0 bc 6b 74 be 8b c3 c7 3e 67 d5 47 3d e2 9b 1d be
       -0.23869222 0.39016375 0.0487875 -0.15391496
0003f0 8f 38 11 bd 91 57 4e be a3 63 bd 3d 54 e0 ba bd
       -0.03545433 -0.20150591 0.0924752 -0.091248184

lstm.bias_ih_l0 f4 [80]
000000 15 f9 ed 3d 0f 41 83 3d 3b 8b 8c be 49 03 0b bd
       0.11619774 0.06408893 -0.27449974 -0.03393868
000010 81 bb b9 be 41 39 0a bc c7 31 1a 3f 84 7f 0c be
       -0.36275867 -0.008436502 0.60232204 -0.13720518
000020 80 6b 84 be 0b f0 be 3d 5d 9e 11 bf 67 9d 93 be
       -0.25863266 0.09323128 -0.5688227 -0.28831026
000030 f0 e4 a2 be f4 9c 26 be b9 4d 8b be 8b d3 7b be
       -0.3181529 -0.1627081 -0.27207735 -0.24592416
000040 37 f7 4c be 54 70 81 bd fc 29 48 be c8 ef 9f be
       -0.2001618 -0.06320253 -0.19547266 -0.31237626
000050 f7 65 74 bd 95 3f d3 be 2b ec d1 be 1e 1a 5f be
       -0.059667554 -0.41259447 -0.41000494 -0.21787307
000060 d6 17 a9 be 39 95 88 bd b9 2a 9c be 80 dc c2 be
       -0.33025998 -0.06669087 -0.30501345 -0.38058853
000070 cd be 93 be bc 65 5f be 4d 20 86 be d0 0b 09 be
       -0.28856507 -0.21816152 -0.2619652 -0.13383412
000080 6c b3 a6 bd 67 36 da bd 4a 37 0d be 27 07 4b be
       -0.08139691 -0.10654908 -0.13790622 -0.19826947
000090 de 17 89 be 5f 2e e3 be 30 f6 07 bd 99 b8 28 be
       -0.26776022 -0.44371316 -0.033193767 -0.16476668
0000a0 5e 48 0a 3e 5f f4 33 be 02 18 df bc 65 b3 6f bd
       0.13504168 -0.17573689 -0.027233128 -0.058520693
0000b0 b4 07 66 3d b8 ba c5 bd 04 a3 3f be 65 98 e8 3d
       0.05615969 -0.096547544 -0.1871453 0.11357192
0000c0 16 b9 8c 3c 65 cb f9 3b d9 35 32 3e 65 b3 eb bd
       0.0171781 0.0076231235 0.17403354 -0.11508826
0000d0 dc a1 83 3d 32 f3 30 3e f8 73 07 3d c4 d0 27 be
       0.064273566 0.17280272 0.03306958 -0.16388232
0000e0 fb c4 5c 3e 53 08 f6 3c e4 7f 0e 3d 5b 65 cb bd
       0.21559517 0.030033266 0.034789935 -0.099314414
0000f0 35 2d a7 3d 90 89 33 3d 18 57 e1 be 77 6c 11 3e
       0.081629194 0.04383236 -0.4401176 0.14201532
000100 77 69 db be 0b 03 b5 bd 80 3a 16 3f 96 f3 85 be
       -0.428539 -0.08838471 0.58683014 -0.26162404
000110 99 cc 22 be 5e 13 14 3e 6d aa 19 bf 44 2b bc be
       -0.1589836 0.14460513 -0.60025674 -0.3675176
000120 ff bb e0 be 41 fe 25 3c 1b 0f 14 be 3e c4 7e 3c
       -0.4389343 0.01013142 -0.14458887 0.0155497175
000130 e2 0d a3 be 44 a3 b8 bc de 85 33 3e 64 75 42 be
       -0.3184653 -0.022538789 0.17531535 -0.18990093

lstm.bias_hh_l0 f4 [80]
000000 34 8a 3c 3e af 14 27 bc ff e7 d2 be ae fd 87 3e
       0.18412095 -0.010197802 -0.41192624 0.2656073
000010 c0 dc cb be 8f 2b 82 ba 68 49 9a 3e f2 e7 c9 bd
       -0.39816856 -0.0009931194 0.3013413 -0.09858693
000020 25 5a 83 be 41 08 ea bd 9a d8 de be ff 90 b1 be
       -0.25654712 -0.114273556 -0.4352463 -0.34680936
000030 43 fb a3 be 49 0c b3 3d 44 25 77 be 94 75 22 bd
       -0.32027635 0.087425776 -0.2413531 -0.039662912
000040 5f 3b 10 bd 54 55 a5 bd 31 2d 15 3e a5 8d dc be
       -0.03521287 -0.08072916 0.1456802 -0.43076816
000050 8a d3 ad be 96 29 60 be 10 36 3d be 1f dd c6 3d
       -0.33950454 -0.21890864 -0.18477654 0.09710144
000060 d1 63 ba be ec 1b 08 3e 53 43 c6 be 20 0b ee bd
       -0.3640428 0.13291901 -0.3872324 -0.11623216
000070 19 43 9b be c9 36 fc bd b6 83 f4 be 4d 2e 8b be
       -0.3032463 -0.12315137 -0.47756737 -0.27183762
000080 7e ef 4e be db 41 65 be fd be ab be 35 c8 fc bd
       -0.20208547 -0.22388403 -0.3354415 -0.12342874
000090 77 98 d3 be 62 f7 cb bd f6 00 23 bd e8 20 36 be
       -0.4132726 -0.09959294 -0.03979584 -0.1778599
0000a0 d5 0f cf bd f2 7e 0d 3e e7 16 e9 3c 79 e9 5b 3b
       -0.101104416 0.13817957 0.028453304 0.0033555909
0000b0 44 b4 2b bd 6e eb 7c 3e f4 c1 71 3d ba b6 27 be
       -0.04191996 0.24699184 0.05902286 -0.16378298
0000c0 3d b9 88 3d 40 5b 5b be b9 b2 b6 bd a8 ba 03 3e
       0.066759564 -0.21421528 -0.089208074 0.12864172
0000d0 a0 85 bb 3c f6 5a 90 3c 70 3e 02 be 5a 0e 4e 3e
       0.022890866 0.017621499 -0.1271913 0.20122662
0000e0 b7 2f 3e be e3 18 3d bc f9 52 e2 3d d9 b6 14 3e
       -0.1857289 -0.011541578 0.11050982 0.14522876
0000f0 d1 fe 6f 3e 49 0d 62 3d 03 f0 97 bd 32 10 47 bd
       0.23437048 0.05518845 -0.074188255 -0.04859943
000100 cd 1a eb be 75 ee e9 3c 9a de 0e 3f 4f 7f 97 be
       -0.45918885 0.028556088 0.55808413 -0.29589316
000110 65 73 7c be 2c 59 12 3e be 6e 43 be 79 8f d4 bd
       -0.24653395 0.14291829 -0.19085214 -0.10378928
000120 49 80 8d be bd 51 bf 3d f4 f2 a2 be 0b 28 6f be
       -0.27636936 0.09341762 -0.31825984 -0.23355119
000130 e8 b9 bb be b0 a3 08 be d6 a8 10 be 02 62 3b be
       -0.36665273 -0.13343692 -0.14126906 -0.18299106

linear.weight f4 [1, 20]
000000 21 96 1f be bf 83 49 3e 96 03 07 be e6 d1 8e 3e
       -0.15584613 0.19679163 -0.13184962 0.27894515
000010 20 7d ca bd 29 ee 96 be 7b 31 e9 3e ed e0 ab 3d
       -0.09887147 -0.29478577 0.45545563 0.083925106
000020 83 d3 c8 bd 82 98 26 3e 90 44 c1 bd af 68 81 bd
       -0.09805968 0.16269115 -0.094369054 -0.06318795
000030 6b 1b 97 3d 63 e3 6e be 8b 7a 18 3e e3 22 48 be
       0.073782764 -0.23328929 0.14890496 -0.19544558
000040 bb 76 f7 bd 18 ec 14 3d d6 52 82 be 44 50 7e bd
       -0.12083193 0.03635797 -0.25453824 -0.062088266
