source/site/static/nets/240-65-30-1.pth (torch_old, 18395 bytes, 5 tensors)

lstm.weight_ih_l0 f4 [120, 4]
000000 a8 90 4b bd b1 43 99 bc 7f c8 ca bd 90 aa 24 3d
       -0.0496985 -0.018709036 -0.09901523 0.040201724
000010 d4 97 d6 3e 8e bf ce 3e d7 99 16 3f 5e 3e 8e 3f
       0.4191271 0.4038052 0.5882849 1.1112783
000020 ae d8 5a 3e 03 d1 37 be 05 4a 9a 3c 23 44 a2 3d
       0.21371719 -0.17950825 0.018834123 0.07923152
000030 7d f5 75 bc 35 a3 08 3d 9f 6a 8a bd a4 89 2d 3e
       -0.015012142 0.03335877 -0.067586176 0.16947037
000040 1c 52 bc 3d 07 60 bc be 38 22 1f 3e 22 82 b3 3e
       0.091953486 -0.36792013 0.15540397 0.3506022
000050 98 0e 39 bb 4e 7a 00 3e a1 b2 76 3e d9 71 45 3b
       -0.0028237458 0.12546656 0.24091579 0.0030127673
000060 18 05 f9 3e 36 bf 13 3f 18 f4 05 3f 1d 1c 11 3f
       0.486367 0.5771364 0.5232558 0.5668352
000070 f0 13 1f be 34 d0 88 bd 89 a7 cf bd cd 1a b9 be
       -0.1553495 -0.066803366 -0.10139377 -0.3615326
000080 1f b8 3c 3e 32 44 c8 3e 51 44 2c be 01 f0 a3 3e
       0.18429612 0.3911453 -0.16822936 0.32019046
000090 20 01 16 be 3e ef 74 be 57 3a b5 3d ff 7b 19 3e
       -0.14648867 -0.23919389 0.08849018 0.14988707
0000a0 9c fc 92 be c4 fd 82 be ca 2d 2f bf 63 ae 40 bf
       -0.2870835 -0.25584233 -0.68429244 -0.75266093
0000b0 cf 75 95 be 9b 20 bf 3e 67 a2 e2 be 37 2e c3 bd
       -0.29191443 0.37329563 -0.44264528 -0.09530299
0000c0 fa 0f d3 3e 25 26 d8 3d c3 2a a9 3e 20 0b cb 3e
       0.41223127 0.105541505 0.33040437 0.39656925
0000d0 2c 2a 0b be f7 6b 02 3c e3 58 bc be 0e 4e 69 be
       -0.13590306 0.007960311 -0.36786565 -0.22783682
0000e0 b9 c7 5c 3e aa dd a8 3c c9 a5 d5 bc 85 e7 cb 3e
       0.21560563 0.02061351 -0.02608003 0.39825073
0000f0 9c 91 6a be d8 a7 94 be d1 ab 8e 3e e9 d1 60 be
       -0.22907108 -0.29034305 0.2786546 -0.21955074
000100 ff b6 e2 be e1 f3 85 be 42 b6 22 bd 47 87 3e be
       -0.4428024 -0.26162627 -0.039724596 -0.18606292
000110 40 8e ee be 0a 98 ee be b2 97 15 bf 24 7c 0e bf
       -0.46592903 -0.46600372 -0.58434594 -0.55658174
000120 4a 4c 1e 3f c3 bb 16 3e 65 d2 f8 3e 81 fe f1 3e
       0.6183516 0.14720063 0.48598018 0.47264484
000130 7b 12 93 bd 23 2f bb bc d9 ac 0c 3e 81 00 1b 3f
       -0.07181259 -0.022849625 0.13737811 0.60547644
000140 f6 9d 5e 3d 54 8d bc be 1d 29 4c be 08 78 de bd
       0.054349862 -0.36826575 -0.19937558 -0.10862738
000150 de 0d cf be df e7 94 be b4 bf 9d be 69 4c d6 be
       -0.40440267 -0.29083154 -0.3081032 -0.4185517
000160 87 31 9c be 89 3c 88 be d2 53 95 3e 55 55 2b be
       -0.30506536 -0.26608685 0.29165512 -0.1673177
000170 92 d0 17 3e a6 c3 70 3e fc a6 0e 3e 95 35 e9 3e
       0.14825657 0.23512134 0.13930887 0.45548692
000180 02 42 02 bf ed 3f bc be 30 c9 a5 be b6 3d da be
       -0.5088197 -0.36767522 -0.32380056 -0.42625207
000190 7a c2 e9 3d 46 03 20 be b2 9c bd 3e 0b 5a ee 3e
       0.114140466 -0.15626249 0.37033612 0.46553072
0001a0 67 8e 26 be e9 db f5 bb f6 d0 4b bd 40 b2 d7 bd
       -0.1626526 -0.007503022 -0.049759828 -0.10532045
0001b0 cf 44 4c be 0d 78 50 bf 9d f9 ff 3d 5c ce 08 be
       -0.19948123 -0.8143318 0.12498782 -0.1335997
0001c0 c1 30 ba 3e 63 30 e5 3e c9 ee 13 3f 9a 3f 28 3f
       0.3636532 0.4476348 0.5778623 0.6572205
0001d0 e7 d1 36 3e 7a e1 9c bc 1f c6 b2 3e 42 92 ec 3d
       0.17853509 -0.019150484 0.3491678 0.11551334
0001e0 09 42 6b be 2a ad 8b be 2c 9f 45 bd c6 99 13 3d
       -0.22974409 -0.2728055 -0.0482475 0.03603532
0001f0 fd c4 39 3f 52 69 18 3f 6f 9e 67 3f 3a 3d 68 3f
       0.72566205 0.59535706 0.90476125 0.90718424
000200 f7 cf d0 3e 4e b1 e3 3d ef 19 bc 3e 1a 93 0e 3f
       0.40783665 0.111178026 0.36738536 0.5569321
000210 2b ff 62 3e 72 dc 8e 3d 0c 80 3d 3f c7 1e 6c 3e
       0.22167651 0.0697564 0.7402351 0.23058616
000220 fb 3b d5 3e 43 e5 1d 3e 09 45 c7 3e 78 e1 f9 3e
       0.41647324 0.15419488 0.38919857 0.48804832
000230 a4 a7 24 be c2 dd f2 be 28 02 dd be 36 28 7a be
       -0.16079575 -0.47434813 -0.43165708 -0.24429402
000240 54 c8 12 3f fc d6 37 3f d1 14 a3 3e 53 3d cc 3e
       0.57336926 0.71812415 0.3185182 0.39890537
000250 95 5f 8e 3d 8f 34 b5 bc 9a c7 a2 3e 64 ca 8d 3e
       0.069518246 -0.022119788 0.3179291 0.27693474
000260 8f 33 d3 3e 21 9c ad 3e b5 92 e4 3e 0a b3 fc 3e
       0.41250274 0.3390818 0.4464318 0.49355346
000270 92 6f c7 3e d2 14 d6 3d 6c c6 f7 3e 1a a7 08 3f
       0.3895231 0.1045319 0.4839357 0.53379977
000280 3c 84 cf be 62 80 1d be c3 5b ca bd 55 61 a2 be
       -0.40530574 -0.15381005 -0.098807834 -0.31714883
000290 c4 7e f3 bd 04 49 93 3d 1c 04 c9 3d cc 3b 23 3e
       -0.11889413 0.07191661 0.09815237 0.1594078
0002a0 4d a2 0e 3f bc cf 05 be 7d 14 09 3f 31 9f ec 3e
       0.557164 -0.13067526 0.5354689 0.46215203
0002b0 14 d1 2e be fd 48 7e be 3f a5 cd be 78 ba 0d be
       -0.17071944 -0.2483253 -0.40165135 -0.13840663
0002c0 c1 9d 5f be f2 ef 59 be 5f 41 19 be 7e 56 11 bd
       -0.21837522 -0.21282938 -0.14966343 -0.035482876
0002d0 4f 03 b6 be 94 ec 96 bd c8 f7 06 3f dd 8c c3 3d
       -0.355494 -0.073693424 0.52721834 0.09548352
0002e0 d8 38 07 bf fd 3c 08 bf 3f 96 94 be 64 e0 da bc
       -0.5282111 -0.5321806 -0.2902088 -0.026718326
0002f0 af e5 a5 be a3 32 ac be a2 f6 b7 bd 67 b6 6c be
       -0.32401797 -0.33632383 -0.08982588 -0.23116456
000300 e6 b7 e9 3e cd 45 92 be 42 2a d6 3e ff dc bd 3e
       0.45648116 -0.2856888 0.41829115 0.3708267
000310 e2 e7 f9 3c 00 b1 54 be 23 01 28 3e ee bc ce 3e
       0.030506078 -0.20770645 0.16406684 0.40378517
000320 7b bf 84 3e 3c 5e 39 be 30 3b ea 3d ad 3f 72 be
       0.25927338 -0.18102354 0.1143707 -0.23657103
000330 c3 de ad bd f6 a2 4c be 66 63 7d be 79 87 8a be
       -0.08489754 -0.1998404 -0.24744949 -0.27056482
000340 88 b9 22 3e cb 0d d1 3c d2 96 27 3f ed 0f aa 3b
       0.15891087 0.025519272 0.6546451 0.005189887
000350 c1 23 ed 3d a4 36 24 bd 6c 58 8f 3d e4 34 f4 3e
       0.11579085 -0.04009117 0.06999287 0.47696602
000360 ca 65 19 bf e2 bb 67 be 26 3e 7f be 03 b4 aa be
       -0.5992094 -0.22630265 -0.24926051 -0.33340463
000370 85 37 2e 3f a8 23 d5 3d cc ef 0c 3f e3 9e 40 3f
       0.68053466 0.104071915 0.550534 0.7524244
000380 42 90 f8 3b 75 6e ee 3d af 8a a5 3d b9 57 b5 3d
       0.0075855562 0.11642162 0.080830924 0.088546224
000390 c0 55 15 bf 9d 0e 9c be 30 df 08 3f de d1 8b bd
       -0.5833397 -0.304799 0.5346556 -0.06827138
0003a0 70 53 69 3e a8 85 0d 3f 11 c8 f1 3e 1e 6e 27 3f
       0.22785735 0.5528207 0.4722295 0.654024
0003b0 52 4f df 3e f4 b9 7e 3e fb 6c 50 3e 79 5d b8 3e
       0.43615204 0.24875623 0.20354073 0.36008814
0003c0 59 8b 36 3e 59 38 77 3b bd 40 ba 3d 80 5a cf bc
       0.17826594 0.0037722795 0.09094379 -0.025311708
0003d0 2a 98 2c be 63 25 90 3e 8d d9 6d be 0b 63 39 3f
       -0.16854921 0.28153524 -0.2322752 0.7241675
0003e0 a9 ab 11 3f 09 14 12 3f 37 44 1b 3f 0a 50 c7 3e
       0.5690256 0.5706182 0.6065096 0.38928252
0003f0 bd e7 b9 be f1 78 68 be 03 39 08 bf b8 b9 2d bf
       -0.36309615 -0.22702385 -0.5321199 -0.6786151

lstm.weight_hh_l0 f4 [120, 30]
000000 60 e7 c4 3d a9 2f 41 bf 54 e1 0d 3e 17 f1 41 be
       0.09614444 -0.7546335 0.13855487 -0.18939625
000010 3b db 26 3e b0 a4 a3 be 47 ae ae bd 38 63 3d be
       0.16294567 -0.31961584 -0.085293345 -0.1849488
000020 5c c6 bb be 7b dc c0 be 53 ff 17 bf db 57 bd be
       -0.36674774 -0.37668213 -0.5937397 -0.3698109
000030 c0 42 45 3e 3e 86 40 bf 26 22 e1 3e cc d9 8b be
       0.19263744 -0.7520484 0.43971366 -0.27314603
000040 4f 8f e5 3d 0c fe fe be 90 cc d9 3d 7a 6b 96 be
       0.112089746 -0.49803197 0.1063472 -0.29378873
000050 1b ac 5e be d7 b2 bd be 13 92 b0 3e 0d d2 91 3e
       -0.2174534 -0.37050506 0.34486446 0.2848057
000060 2a 48 fe be 53 6e 6a be b6 ad d5 be bf 27 ec be
       -0.49664432 -0.22893648 -0.41734093 -0.46124074
000070 94 f0 1c bf f0 a0 87 3f cd 3c 10 3d f6 98 4b be
       -0.61304593 1.0595989 0.035214234 -0.19882569
000080 49 42 ed be d1 45 bb 3e 0f d4 84 be 94 46 3d 3e
       -0.46339634 0.36576703 -0.25943038 0.18483955
000090 b7 07 9e 3e f5 b6 37 3d e9 1e 7e 3e f0 e7 c3 3e
       0.3086526 0.044852216 0.24816479 0.38262892
0000a0 43 43 6f be d3 95 ad be 05 96 58 be 6c 66 9b bd
       -0.23365502 -0.3390337 -0.21150978 -0.07587895
0000b0 91 4f 1b bc 50 64 7c 3e 66 ab 51 3e e3 ea 6a 3e
       -0.009479419 0.24647641 0.2047554 0.22941165
0000c0 27 82 48 be 28 fd 34 be fd 18 93 3e 43 f8 14 3f
       -0.19580899 -0.17674696 0.28730002 0.5819132
0000d0 af 6b 7f be 9f 0a e8 3e 78 8a 87 3e 13 be 4e 3e
       -0.24943422 0.45320603 0.2647283 0.20189695
0000e0 4a 48 77 3e 22 f5 8f 3e a9 48 2a be 2d b8 83 bd
       0.2414867 0.2811671 -0.1662928 -0.06431613
0000f0 48 94 e0 3e 57 46 8f 3d f4 9f e0 bd f2 1e bb 3d
       0.4386313 0.06995838 -0.10968009 0.09136762
000100 71 73 b4 be 1c b8 38 be 34 c3 55 3e 7d ee e5 3e
       -0.35244325 -0.18038982 0.20875245 0.44908515
000110 76 3c 5f 3e d7 22 18 3e 9d 97 8f 3e dc b8 e7 3e
       0.21800408 0.1485704 0.2804536 0.45258224
000120 f7 b0 6b bd 2e ce aa 3e 96 0d 51 be b9 a8 a7 3d
       -0.057541814 0.33360428 -0.20415339 0.08186478
000130 33 80 d6 be 17 c7 e8 3d b4 cd bc bc 05 74 ae 3d
       -0.41894683 0.113660984 -0.023047306 0.08518223
000140 d3 55 bc 3d be a9 bb 3e e1 94 ae be 59 0d b2 be
       0.09196057 0.3665294 -0.3409796 -0.34775808
000150 b7 a0 a3 3e 31 a2 ad 3e 6a 66 ba bd f1 97 c5 3d
       0.31958553 0.33912805 -0.09101565 0.09648121
000160 88 8c bf 3e af 43 51 be 7c b5 c4 3e 3a 1d ce 3d
       0.37411904 -0.20435975 0.38419712 0.10064168
000170 a0 4e 72 be 6d ca 25 3d e5 b9 7e be da 42 fd be
       -0.23662806 0.04047625 -0.248756 -0.49465066
000180 cc 8f 76 3e b9 71 87 3e 8f a0 9d 3d 91 38 9a 3e
       0.24078292 0.2645395 0.0769664 0.30121282
000190 ff 9c b8 3e d5 05 90 3e 16 9a a5 be 78 b0 0f 3f
       0.3605728 0.2812945 -0.3234412 0.56128645
0001a0 1e db 30 be 88 43 59 3e bc 6f 17 bf 4a a3 96 bc
       -0.17271087 0.21217167 -0.5915487 -0.01838841
0001b0 78 c6 57 bd 28 c3 b2 3e 81 db 24 3e 38 7f f6 3e
       -0.05267951 0.34914517 0.16099359 0.48143935
0001c0 b4 ef 4c be 8a a9 c5 be e1 90 7e 3e 67 13 a8 3c
       -0.20013314 -0.3860591 0.24859954 0.020517064
0001d0 f8 1d 93 be 84 34 83 3e e5 95 4f bd ac 6d 5a be
       -0.28733802 0.25626004 -0.05068006 -0.21330899
0001e0 44 9a 26 3e c6 45 85 bc 8d cd 3a bd 1b 63 bd 3e
       0.16269785 -0.016268622 -0.045606185 0.36989674
0001f0 d1 52 80 be 57 7d 5e be e2 38 b9 3c ba cf d6 3e
       -0.25063184 -0.21727501 0.022610132 0.41955358
000200 f3 9e 48 be 0d e9 ef 3d 77 e7 df 3e 4f 47 bb 3e
       -0.19591884 0.11714373 0.4373128 0.36577842
000210 f7 ce 5f be 35 b2 8f 3e 26 75 81 3d c9 30 ff 3d
       -0.21856295 0.2806565 0.063211724 0.12460477
000220 1c 47 a5 be bc 11 f4 3d dc d7 b0 be f9 2e ee 3d
       -0.32280815 0.11917445 -0.34539688 0.11630053
000230 1e 90 f4 3d c0 89 d4 3e e1 97 93 be 4f 98 cc be
       0.11941551 0.41511345 -0.28826812 -0.39959952
000240 3c 2b d6 3e 1e fe b9 3e 80 eb 8d be da 1e f9 3c
       0.4182986 0.3632669 -0.27718735 0.030410219
000250 2e 67 5e 3e 06 3b 7b be 9c 87 f6 3e 47 63 49 be
       0.21719047 -0.24534234 0.48150337 -0.19666778
000260 11 42 84 3d d0 b3 82 be 72 84 05 3e fd fc 26 be
       0.06457914 -0.2552781 0.13038805 -0.16307445
000270 99 d6 9c be 43 e3 80 3e a7 e1 e1 be 42 9c f4 be
       -0.30632475 0.25173387 -0.44117472 -0.47775465
000280 11 d1 57 bf 86 35 a4 3e 1a af bb 3e ec e5 84 bf
       -0.84303385 0.32072085 0.3665703 -1.0382667
000290 8d 97 d7 3e 8a c7 08 be 1f ca 05 be b5 9d ee 3e
       0.42107812 -0.13357368 -0.13065384 0.46604696
0002a0 1a 4b 95 3e 55 ff a1 3e 2b 1f a2 3c 4d 07 24 bf
       0.2915886 0.31640115 0.019790253 -0.6407364
0002b0 1c 5f b5 3e e3 46 c1 be 2f 97 64 bf d0 ee 94 be
       0.35424125 -0.37749395 -0.8929319 -0.2908845
0002c0 2c a8 90 be 35 b8 cc be ee 11 ae be 8b 64 32 3f
       -0.28253305 -0.3998429 -0.33998054 0.69684666
0002d0 f7 c7 34 3e d1 20 ef bd 63 e9 cc bd af 69 02 3e
       0.17654406 -0.11676181 -0.100054525 0.12735628
0002e0 ba 1b b6 be 6f 1f 69 be 62 2f 16 3e 30 31 27 3e
       -0.3556803 -0.22765897 0.14666513 0.16327357
0002f0 cc 7f 27 bd 17 b4 6b 3e 95 3a b5 3e 05 33 79 3e
       -0.04089336 0.23017918 0.35396257 0.24335869
000300 e1 66 8c be f9 c1 93 3e 25 a8 16 be 4e 75 cb 3d
       -0.2742224 0.28858927 -0.1471258 0.099344835
000310 4b cf b5 be d2 18 a3 3d 85 9d a3 be 65 aa 2c 3e
       -0.35509714 0.079637185 -0.31956115 0.16861875
000320 59 e2 90 3e 75 e3 9f 3e 49 45 25 be 29 a1 1b be
       0.2829769 0.31228223 -0.16139711 -0.15198196
000330 95 b7 25 3e cc 6c 4d 3e 03 76 80 be cd ab 19 3e
       0.16183312 0.20061034 -0.25090036 0.15006943
000340 27 9b 9b 3d 9b 88 04 bc 94 38 28 bd 70 b1 20 bf
       0.07597952 -0.00808921 -0.041069582 -0.6277075
000350 05 2d 42 3e 8b a3 96 be 65 9b 94 3e a9 ba 2d be
       0.18962486 -0.29421648 0.29024807 -0.16965736
000360 a0 d8 a9 be 4f 1b 97 be b4 75 5d be 61 22 4f be
       -0.33173084 -0.29513022 -0.21626931 -0.20227958
000370 31 49 c6 be 7b 08 cf be 70 1f 5c 3e 88 c7 02 bf
       -0.38727716 -0.40436158 0.21496367 -0.5108571
000380 0c 62 42 3e cc 85 aa be a2 7e 9c 3e ce a8 bd bd
       0.18982714 -0.33305204 0.30565363 -0.092607126
000390 4f 5f 2c 3e ab d5 ff 3d f8 12 30 be ce 4c 86 be
       0.16833232 0.12491926 -0.17194736 -0.26230472
0003a0 98 e9 98 3e ab 82 e5 3d f0 4e 3b be 6e 26 a1 be
       0.29865718 0.112065636 -0.18291831 -0.31474632
0003b0 db 3c 17 3e 3f 5f a6 be 08 4b a4 be a7 31 3b 3e
       0.14769308 -0.32494542 -0.32088494 0.1828066
0003c0 28 d3 6e 3e 9d c2 1c 3e 6e 35 23 bd 9e 20 c8 bc
       0.23322737 0.15308614 -0.039845876 -0.024429616
0003d0 54 cc 37 3d ce 4f 9d be 41 18 ac bd 95 3a 69 3e
       0.044872597 -0.3072495 -0.084030636 0.22776254
0003e0 86 9c e6 3d 3c 8e 04 3d 38 38 1d 3f c4 92 a3 3e
       0.11260323 0.032362208 0.6141391 0.3194791
0003f0 6f 09 20 3e f1 d2 6b 3f ff e9 59 bd 07 37 40 3e
       0.15628599 0.92118746 -0.05320167 0.18770991

lstm.bias_ih_l0 f4 [120]
000000 32 8e cb bc e4 34 85 be da a7 10 be 9a 0b e7 bd
       -0.024848077 -0.26016915 -0.1412653 -0.1128151
000010 44 3e 38 3d 6f a3 c4 bd 18 6d 88 be c6 88 9b 3e
       0.044981256 -0.09601485 -0.26645732 0.30377787
000020 23 dd 81 bd e9 8d 6e be 53 5f 45 3e 70 af dc 3e
       -0.063410066 -0.23296322 0.19274645 0.43102598
000030 56 96 8e be 1f 79 f0 bd 1d 5a db be 27 00 f7 be
       -0.27849072 -0.11741852 -0.42842188 -0.48242304
000040 ee a7 13 3e af 60 04 bf e6 67 0b be 0d e9 97 be
       0.14419529 -0.5171003 -0.13613853 -0.2966999
000050 ab 04 cb be 73 06 df bd f0 5e 92 be f0 69 16 be
       -0.39652 -0.10889902 -0.28588057 -0.1468885
000060 02 80 65 be 46 b4 98 be d0 5f 19 bf 27 19 be be
       -0.22412112 -0.29825038 -0.59911823 -0.37128565
000070 39 74 89 be 04 73 30 be 40 27 28 3e 38 ad 2c bf
       -0.26846483 -0.17231375 0.16421223 -0.6745181
000080 01 67 aa be 46 85 63 be 85 17 c0 be 4b a4 2b be
       -0.3328171 -0.22218809 -0.37517944 -0.16761892
000090 fb 7a a2 be ba 3a 22 3e 83 98 e2 be 90 59 64 be
       -0.31734452 0.15842715 -0.44256982 -0.2229979
0000a0 16 9f 12 bf 83 e4 f9 bd e5 90 7f be 51 a2 90 bd
       -0.57273996 -0.12201788 -0.24957617 -0.070622094
0000b0 9a c0 b6 be 23 6b 4b be a0 d2 72 bd 4c 8d 5c bf
       -0.35693818 -0.19865088 -0.0592829 -0.861531
0000c0 5a c6 92 be b8 bd 19 bf 5d c6 30 be 7d 0f ca be
       -0.28666955 -0.6005511 -0.1726317 -0.39464942
0000d0 e6 78 cc bd c4 88 1b bf b8 b0 c8 be f9 e0 ae be
       -0.09983997 -0.6075556 -0.39197326 -0.34156016
0000e0 69 51 3e bf e1 01 8d be de 44 be be ce c6 d5 be
       -0.7434297 -0.27540496 -0.37161916 -0.41753238
0000f0 79 13 90 be f6 4c 80 3e 61 55 83 bd 97 88 19 3d
       -0.28139856 0.25058717 -0.06412769 0.037483778
000100 1a 1d 43 bd 27 68 a9 3c 88 f3 bf 3c 5a 53 a5 be
       -0.047635175 0.020679547 0.023431554 -0.32290155
000110 0a a4 a9 3e d4 a5 80 3e d8 e5 07 bc 3f 85 d1 3d
       0.33132964 0.25126517 -0.008294545 0.10230493
000120 44 92 5b be 58 07 a9 3e 14 4b 83 be 1c d5 fe 3d
       -0.21442515 0.33013415 -0.25643218 0.12442991
000130 af dc d4 bd e8 f4 b8 3e 55 90 24 be a9 48 51 3e
       -0.103936546 0.3612435 -0.16070683 0.20437874
000140 25 ae 6a 3e b6 93 ce 3e 87 d7 ec bd cb 1d 10 3e
       0.22917993 0.4034707 -0.11564546 0.14073865
000150 fc aa e8 3e 90 1a 24 3d ed 25 a1 3d dd fe 02 3e
       0.4544295 0.040064394 0.07868562 0.12792535
000160 69 79 d0 3e 8f 62 32 be fd 53 d7 3c fe 7a 60 bc
       0.4071763 -0.1742041 0.026285166 -0.013701199
000170 a9 09 3f be 30 27 70 bd 03 bd 45 be 8e 04 a3 be
       -0.18656029 -0.058631122 -0.19310383 -0.31839412
000180 db c1 a6 bd e4 c7 7d 3e 78 42 3c 3e 18 e1 7c be
       -0.08142444 0.24783283 0.18384731 -0.24695241
000190 72 1c 01 3e a5 84 af 3e 34 77 3e be da 42 9b be
       0.12608507 0.34280887 -0.1860016 -0.3032444
0001a0 75 14 eb bd 2e d9 ad be 1b 7c 8f bd 4d b9 aa be
       -0.11478511 -0.33954757 -0.07006093 -0.33344498
0001b0 94 2d 77 be fe 11 cf be f0 00 ba be e2 68 62 be
       -0.2413848 -0.40443414 -0.3632884 -0.22110322
0001c0 c3 a7 7a bd e2 af e8 bd 8d 1a 05 bf 48 7f 8e be
       -0.061195146 -0.11361672 -0.5199364 -0.27831483
0001d0 38 48 07 bf e5 ed c9 be dd ab ba be 53 72 13 be
       -0.5284457 -0.39439312 -0.36459246 -0.1439908

lstm.bias_hh_l0 f4 [120]
000000 63 9d af 3d aa f8 41 be d0 7f 59 be e9 57 4c 3d
       0.08574941 -0.18942514 -0.21240163 0.049888525
000010 a5 61 48 be 5e e9 10 be c7 27 d8 bd 0b 33 8c 3e
       -0.19568498 -0.14151523 -0.10554462 0.27382693
000020 12 e0 72 3e 80 32 19 be 27 7a ca bd be c1 99 3e
       0.23718289 -0.1496067 -0.0988658 0.30030626
000030 37 77 f5 bd 44 c0 b4 be 09 c5 0d be 64 ff 87 be
       -0.11985629 -0.35302937 -0.13844694 -0.26562035
000040 f2 84 80 3c c2 2a 16 bf e3 00 72 be b6 85 9c be
       0.015688393 -0.58658993 -0.23633151 -0.30570763
000050 0d 67 cd bd 41 b0 74 be 21 03 87 be 0e 9f f7 bd
       -0.10029421 -0.2389536 -0.26369575 -0.12090884
000060 98 53 6c be 01 db 63 be 8b e9 17 bf c4 35 ad be
       -0.23078763 -0.22251512 -0.59340733 -0.33830082
000070 7e ac c4 be b6 d7 eb be 18 12 94 3d 89 25 3e bf
       -0.3841285 -0.46063012 0.072300136 -0.74276024
000080 80 bf 89 bd ff 0f ba be 16 78 33 bd 59 9a a3 be
       -0.06725979 -0.3634033 -0.043815695 -0.31953695
000090 27 ff 99 bd 47 3a c2 3d 39 b6 97 be 11 9d 3c be
       -0.075193696 0.09483772 -0.29631212 -0.18419291
0000a0 d7 94 02 bf 0f 55 d6 b9 31 a8 42 bd 8e 15 39 be
       -0.5100836 -0.00040880634 -0.04752368 -0.18074629
0000b0 1c 40 31 be 55 e9 8f be 89 91 49 3d e3 4a 7c bf
       -0.17309612 -0.28107706 0.04921106 -0.9855177
0000c0 49 cb 82 be 93 0d a7 be ba d0 db be 56 8b 84 be
       -0.2554572 -0.32627544 -0.42932683 -0.25887555
0000d0 02 ae 13 be 1d 10 d6 be 39 11 9d be 64 c8 b9 bd
       -0.14421847 -0.41809168 -0.30677202 -0.090714246
0000e0 e1 e8 2d bf 74 87 b0 be 8c cd 11 bf bc ba 86 be
       -0.6793347 -0.34478343 -0.56954265 -0.26314342
0000f0 09 96 3e be 29 90 34 3e c6 12 34 bc f9 eb d2 3d
       -0.18611921 0.17633118 -0.010990804 0.102989145
000100 27 58 ed bd be de 80 3e bd 2a d7 bd af c6 b3 bd
       -0.11589079 0.2516994 -0.105061986 -0.0877813
000110 0f 4f 42 3e 5a b4 da 3d 5b 48 a3 3e e2 f4 55 be
       0.18975471 0.106789306 0.3189114 -0.20894197
000120 5d 16 da bc ce aa fd 3e 81 2a 4b be 78 b8 11 3e
       -0.026621992 0.49544376 -0.19840433 0.14230525
000130 51 71 27 3e a1 47 a9 3e d5 4c 50 bd 02 7a 2c bd
       0.1635182 0.3306246 -0.050854523 -0.042108543
000140 3d fe d7 3d f5 62 4d 3e 2d db 0a be 28 ca e4 3d
       0.10546539 0.2005728 -0.13560171 0.11171371
000150 48 08 88 3e 49 f0 6e 3d ae 87 a6 3e 62 c2 53 3e
       0.26568818 0.058334623 0.3252539 0.2067962
000160 1e f6 e0 3e 86 88 56 be e5 2e 06 3b 79 99 51 be
       0.43937773 -0.20950517 0.0020474729 -0.20468701
000170 e9 80 3b bc d1 38 ac bc e4 5a 0c bc 8b 04 de be
       -0.011444309 -0.021023186 -0.008566592 -0.4336284
000180 42 87 81 be 75 35 e3 3d 83 2c 48 3c 2e dc 5d bd
       -0.25298506 0.110941805 0.012217644 -0.054165058
000190 5a 08 2c bd 0f f1 08 3f d3 15 86 be 04 37 ab be
       -0.042000152 0.53492826 -0.26188526 -0.3344041
0001a0 a3 e0 d4 be bc c2 fd be 38 7d cd bd d3 c0 a8 be
       -0.41577634 -0.49562633 -0.10033649 -0.32959613
0001b0 7f c1 80 be 83 8e 80 be 5d d6 61 be 62 4f a6 be
       -0.25147626 -0.25108728 -0.2205443 -0.3248244
0001c0 fa e2 99 bd c3 4a 9a be 0e eb 05 bf d4 fa 8f be
       -0.075139955 -0.30135164 -0.5231179 -0.28121054
0001d0 f2 0c d7 be 3b c1 b2 be 99 69 bd be 84 a6 f3 be
       -0.42002064 -0.34913048 -0.36994627 -0.4758798

linear.weight f4 [1, 30]
000000 78 ee c3 bd c9 87 fd 3e 70 fd 40 3d 63 35 ed bc
       -0.09566969 0.49517658 0.047116697 -0.02895612
000010 21 a4 63 3c c4 43 5b 3d 09 dd 8a bb 2a 4b 06 be
       0.013894112 0.053531423 -0.004237775 -0.1311461
000020 9c fd 05 3f e4 f7 9e bc 12 95 db bd ca 09 ff 3e
       0.523401 -0.019405313 -0.10721792 0.49812156
000030 48 bd 49 bd 1d 49 4d 3c 7a ce 82 be 50 a0 e6 3c
       -0.04925278 0.012529639 -0.25548154 0.028152615
000040 8d 95 b5 bd fb 82 e1 3e 5c 43 06 be 8d 35 6a 3e
       -0.08866415 0.44045243 -0.13111633 0.2287199
000050 e7 3e b6 3e e8 b1 b0 3c cf dd 8d 3d 20 38 37 be
       0.35594866 0.021569207 0.06927072 -0.17892504
000060 15 2d 08 bd 49 98 2b bd 70 75 3c 3e 4a df b7 bb
       -0.03324612 -0.041893277 0.18404174 -0.005611335
000070 69 8d d9 3e e9 d6 28 be
       0.424907 -0.16488232
