source/site/static/nets/30-10-20-1.pth (torch_old, 9395 bytes, 5 tensors)

lstm.weight_ih_l0 f4 [80, 4]
0.03844609 0.41013303 0.017423691 0.5401648 0.13315298 -0.27361524 -0.34206077 -0.2881864
-0.058348846 -0.093526095 0.019419735 -0.059052557 0.025100648 -0.26792288 -0.022960847 -0.13220297
-0.099194854 -0.08013237 -0.10592584 -0.27473173 0.33983982 0.8581014 -0.6576223 0.4249204
-0.08799845 0.31709588 -0.28431067 0.09876641 -0.1479533 -0.19312158 -0.23677753 -0.38654077
0.1481406 0.5284936 -0.45683265 0.42648506 -0.25082937 -0.20301221 0.06573337 -0.30137363
0.28887594 0.3839859 0.29699242 0.16191466 -0.11514014 0.5303169 -0.33158678 -0.6613794
-0.021265604 -0.27106184 -0.108334325 -0.10480993 -0.07456848 -0.07390257 -0.03906355 -0.52615905
-0.011157926 0.012843696 -0.0254698 -0.5251355 0.106384546 -0.29695892 -0.25007394 -0.25403374
0.11202255 0.076149 -0.24855204 0.056246568 0.30628198 0.113371424 0.009740046 0.1754831
-0.06820927 -0.08135008 -0.204462 -0.32113785 -0.08553302 -0.17192067 -0.13831347 -0.16154954
0.4246301 0.10001254 0.07738561 0.47096014 0.059379026 -0.08116665 -0.25384766 -0.16892327
-0.17707147 -0.15523814 -0.08519922 -0.17309289 -0.24811806 -0.10087132 -0.26418024 -0.21683043
-0.15129751 -0.06825056 -0.17358303 -0.3873516 0.23996332 0.091124795 -0.04654676 0.6744889
0.052068137 0.32523975 -0.14323293 0.22913297 -0.30006954 -0.14208838 0.031134767 -0.33293855
0.34444633 0.31199333 0.44741538 0.38669506 -0.19250576 -0.06881978 0.022421308 -0.0676582
0.30871692 0.20119244 0.15983374 0.2461863 -0.22658679 -0.19356762 -0.16812415 -0.65630674
0.06982571 -0.24143657 -0.22012497 -0.046127606 -0.28199512 -0.05765391 0.020332325 -0.162751
-0.24886599 -0.2973792 0.033988643 -0.18355356 -0.095893845 -0.21012084 0.03493626 -0.113414295
-0.0042555733 0.1095447 -0.21909073 -0.17191136 -0.002809771 0.19144112 0.033663448 0.06747512
-0.050940577 -0.06528095 -0.036371667 -0.14384912 -0.1924008 -0.14996661 -0.16184635 -0.38865137
0.09390104 0.34879464 -0.05859442 0.38933477 -0.10458565 0.24589811 0.30834845 0.31738123
-0.1169039 -0.25277433 0.05187132 -0.119379714 0.0721403 -0.16622779 -0.2718447 -0.4592197
-0.27343953 -0.25763193 0.02327152 -0.43392926 0.19419526 0.15231599 0.30078185 -0.9460834
-0.09290995 0.15108465 -0.060968354 0.5231722 -0.12844667 0.08212815 -0.31116566 -0.39744088
-0.08685279 0.23456168 0.116637334 0.6260935 -0.06089792 -0.022836557 -0.08919844 0.22932462
0.05442408 -0.044120222 0.12789834 0.22940128 -0.10113596 -0.17708345 0.19910507 0.655996
0.10675079 -0.030642958 0.25098994 0.17177494 0.21281166 -0.042592313 0.08107282 0.5132623
-0.32574856 -0.051252235 -0.0889975 -0.22641662 0.2717296 0.14271277 0.2882421 0.14761278
0.18816109 0.075354226 0.323517 0.13763365 0.08469114 0.3138855 0.16972475 0.19664575
0.037837215 0.17512561 0.18082783 0.06880574 0.23735021 -0.049282916 0.27669284 0.28954405
0.31731918 0.23992433 -0.0846542 0.4303118 0.062230144 -0.1585129 0.012588285 -0.3504317
-0.25615117 -0.35725492 -0.022036871 -0.10125751 -0.26983556 0.02220839 -0.2809235 -0.293244
00000000: a679 1d3d f5fc d13e 21bc 8e3c 3e48 0a3f
00000010: 4159 083e 4c17 8cbe 9722 afbe 2b8d 93be
00000020: 33ff 6ebd 9c8a bfbd 2316 9f3c 18e1 71bd
00000030: e09f cd3c 302d 89be 6318 bcbc 3760 07be
00000040: ac26 cbbd 711c a4bd a6ef d8bd a3a9 8cbe
00000050: 7cff ad3e 89ac 5b3f ef59 28bf 2b8f d93e
00000060: 8838 b4bd 645a a23e 2b91 91be 0b46 ca3d
00000070: 1281 17be aac1 45be cf75 72be ace8 c5be
00000080: 2bb2 173e 5b4b 073f f8e5 e9be 405c da3e
00000090: b56c 80be 6fe2 4fbe 389f 863d a54d 9abe
000000a0: 8ce7 933e cd99 c43e 640f 983e f5cc 253e
000000b0: 98ce ebbd d9c2 073f bec5 a9be 2950 29bf
000000c0: 3435 aebc 9ec8 8abe 63de ddbd 97a6 d6bd
000000d0: 5cb7 98bd 3b5a 97bd 1a01 20bd 5cb2 06bf
000000e0: bccf 36bc 5e6e 523c 0ba6 d0bc 486f 06bf
000000f0: 24e0 d93d 000b 98be b109 80be b610 82be
00000100: 146c e53d 02f4 9b3d 6d84 7ebe cd62 663d
00000110: fed0 9c3e 472f e83d b794 1f3c d7b1 333e
00000120: 4db1 8bbd df9a a6bd 7d5e 51be 2e6c a4be
00000130: f02b afbd f90b 30be 0ca2 0dbe 3e6d 25be
00000140: 1e69 d93e 60d3 cc3d 597c 9e3d b021 f13e
00000150: 6c37 733d b33a a6bd 52f8 81be 39fa 2cbe
00000160: 3952 35be bff6 1ebe ee7c aebd 433f 31be
00000170: a912 7ebe 9f95 cebd a242 87be cc08 5ebe
00000180: bced 1abe f3c6 8bbd c0bf 31be f352 c6be
00000190: f2b8 753e a39f ba3d d1a7 3ebd 4eab 2c3f
000001a0: 6645 553d d385 a63e a7ab 12be d5a1 6a3e
000001b0: b7a2 99be 9e7f 11be 570e ff3c ec76 aabe
000001c0: 455b b03e 97bd 9f3e a113 e53e e5fc c53e
000001d0: 3b20 45be 63f1 8cbd e4ac b73c 6290 8abd
000001e0: 2510 9e3e 6405 4e3e 75ab 233e 4318 7c3e
000001f0: 5e06 68be 9736 46be bd28 2cbe b803 28bf
00000200: c800 8f3d 263b 77be 7168 61be 4df0 3cbd
00000210: aa61 90be 8226 6cbd fa8f a63c 33a8 26be
00000220: bad6 7ebe 1642 98be ad37 0b3d 77f5 3bbe
00000230: fe63 c4bd eb29 57be 5319 0f3d c145 e8bd
00000240: 5672 8bbb f958 e03d 5259 60be 8809 30be
00000250: 2324 38bb 2409 443e afe2 093d 6530 8a3d
00000260: 11a7 50bd 05b2 85bd 75fa 14bd 2f4d 13be
00000270: b704 45be d990 19be 0dbb 25be 50fd c6be
00000280: 304f c03d 3695 b23e b400 70bd e356 c73e
00000290: 0031 d6bd b7cc 7b3e d9df 9d3e cb7f a23e
000002a0: 506b efbd a36b 81be 0577 543d 5a7d f4bd
000002b0: 4bbe 933d 9e37 2abe 3b2f 8bbe d81e ebbe
000002c0: 4400 8cbe 55e8 83be eaa3 be3c fa2b debe
000002d0: 1fdb 463e b9f8 1b3e 1400 9a3e 8632 72bf
000002e0: 9247 bebd efb5 1a3e f4b9 79bd 9dee 053f
000002f0: 8687 03be ce32 a83d 1b51 9fbe 5f7d cbbe
00000300: e0df b1bd f030 703e 8edf ee3d aa47 203f
00000310: 1970 79bd bb13 bbbc acad b6bd 13d4 6a3e
00000320: c9eb 5e3d 68b7 34bd c8f7 023e 2be8 6a3e
00000330: 5f20 cfbd 5d55 35be 33e2 4b3e 5bef 273f
00000340: 28a0 da3d f106 fbbc c181 803e c5e5 2f3e
00000350: 4deb 593e 4775 2ebd 8209 a63d 2865 033f
00000360: 84c8 a6be dded 51bd 5244 b6bd c2d9 67be
00000370: 2420 8b3e 4c23 123e 7894 933e ce27 173e
00000380: 4dad 403e 5153 9a3d 05a4 a53e d6ef 0c3e
00000390: 8c72 ad3d 9ab5 a03e 53cc 2d3e 815d 493e
000003a0: 32fb 1a3d 2154 333e ee2a 393e 06ea 8c3d
000003b0: ef0b 733e e2dc 49bd afaa 8d3e 1e3f 943e
000003c0: a977 a23e b9ae 753e 2e5f adbd d451 dc3e
000003d0: 09e5 7e3d 3551 22be 183f 4e3c c96b b3be
000003e0: 3f26 83be 1eea b6be ab86 b4bc 1960 cfbd
000003f0: e327 8abe 5fee b53c 34d5 8fbe 1424 96be

lstm.weight_hh_l0 f4 [80, 20]
0.18116282 0.019455567 -0.09567938 0.17144755 0.08369449 -0.41740704 -0.14739217 -0.12888569
0.10392428 0.0677117 0.14146423 -0.4508111 0.026629595 -0.06961042 -0.006088534 -0.05887348
0.11176663 0.0015249049 -0.19729693 -0.20120808 0.27139312 0.11316074 -0.1087522 0.1748098
-0.047465358 -0.1315433 0.18823536 -0.013656323 0.12743999 -0.099528104 0.0061085015 0.20452227
-0.0448041 -0.06338687 0.16832547 0.21952091 -0.19478507 0.12201285 -0.04487199 0.14634015
-0.19661258 -0.100155056 -0.020332253 0.12322174 0.13586992 0.08650119 0.08991333 0.12932783
-0.18225022 0.14157294 -0.19944277 -0.032477245 -0.11157708 -0.15353557 0.118784815 -0.037068218
-0.028390603 0.12992784 -0.14173062 -0.11652392 0.32572296 -0.2464651 0.1734818 0.053918727
0.085288554 -0.16225867 -0.022980554 0.06336228 0.008819849 0.0676078 0.18062179 0.19334817
-0.04315159 -0.17110114 -0.2198425 0.18951024 0.16116051 -0.051582165 0.08617754 -0.24270852
0.21118528 -0.19281387 0.10524309 -0.10629627 -0.08769312 -0.045838375 0.28221068 0.19443323
-0.062991306 -0.1287657 -0.046033587 0.036285132 -0.19322598 0.061777588 0.14065427 -0.05671701
0.0641534 0.16842324 0.079304144 0.10935478 0.77498674 -0.2851639 0.2262393 0.2643469
-0.0038370395 -0.17072482 0.79422575 0.16042328 0.42610464 0.17516337 0.6696521 -0.2997499
-0.10845086 -0.40225315 0.06006275 -0.08133166 0.006801799 0.5109904 -0.19389512 -0.5117587
0.15212186 -0.00096846395 0.18289942 -0.07899493 -0.0026072066 0.19758764 -0.15594666 0.24491173
0.2137065 -0.0043328567 0.14071365 -0.40052536 0.108302064 -0.061540756 0.12466225 0.04301687
0.033728875 0.16546439 -0.08417391 0.104618505 0.28111112 -0.0062831356 -0.16787392 -0.028641598
0.053951364 0.14932546 0.27188537 -0.11930247 0.12395976 -0.13523616 0.08009302 0.09686502
0.16457458 -0.010373387 -0.23399177 0.10240658 -0.05321476 0.14450428 0.16223714 0.13682203
0.471147 -0.35405305 -0.112000495 -0.050613172 -0.23960802 -0.07541014 0.31173363 0.2862956
0.2709835 -0.023282425 0.15603817 -0.2779134 -0.13676482 -0.27995524 0.0798469 -0.23341869
-0.08820136 0.42443344 -0.19193801 -0.2234794 -0.15702252 0.080067605 -0.011287859 0.03982063
0.12806518 0.086026885 -0.13504507 0.1313577 0.16678815 0.15174289 -0.1635413 0.25294137
-0.007464584 0.1884466 -0.0030623993 -0.09492428 -0.095281556 0.032892738 0.1364779 0.0838191
-0.09340126 0.21848214 -0.26330006 -0.043641966 -0.2595312 -0.1569841 -0.08023524 -0.059794728
0.13898778 0.048310522 -0.28296474 -0.02750082 -0.11000511 -0.031047026 -0.2049569 -0.1397483
0.0731347 -0.20116678 -0.15203923 0.19758344 0.44371018 -0.3602977 -0.009632412 0.07218133
-0.18684058 -0.008042231 0.5248439 -0.03723813 -0.008448996 -0.062008236 0.12434209 -0.12336378
-0.18359011 -0.050562244 0.31254807 -0.05172453 -0.16686656 0.38283265 -0.2362541 -0.07265983
0.21503793 -0.04663692 0.07008422 0.024805166 0.0045306077 0.3332001 0.03820916 0.058024943
-0.006770898 -0.034793857 0.09164397 -0.28877994 -0.058058307 0.03258209 -0.15444595 0.16599903
00000000: bf82 393e 4861 9f3c 8df3 c3bd f28f 2f3e
00000010: 0468 ab3d 60b6 d5be f9ed 16be 9cfa 03be
00000020: 41d6 d43d 6fac 8a3d 00dc 103e b6d0 e6be
00000030: 4f26 da3c e88f 8ebd 5382 c7bb 5125 71bd
00000040: e7e5 e43d 51df c73a 3508 4abe 7e09 4ebe
00000050: 0af4 8a3e d1c0 e73d 79b9 debd 5701 333e
00000060: 096b 42bd 49b3 06be c5c0 403e c5be 5fbc
00000070: a17f 023e 64d5 cbbd d329 c83b 496e 513e
00000080: 8184 37bd fad0 81bd 835d 2c3e 17ca 603e
00000090: bd75 47be e0e1 f93d b1cb 37bd 31da 153e
000000a0: cf54 49be 181e cdbd d38f a6bc ae5b fc3d
000000b0: 7c21 0b3e 8927 b13d 7b24 b83d 846e 043e
000000c0: cd9f 3abe 7ff8 103e ba3a 4cbe dc06 05bd
000000d0: 8682 e4bd 6e38 1dbe 7445 f33d d8d4 17bd
000000e0: 6993 e8bc ce0b 053e d521 11be 18a4 eebd
000000f0: 29c5 a63e 5961 7cbe 37a5 313e e2d9 5c3d
00000100: c4ab ae3d 2327 26be b741 bcbc 15c4 813d
00000110: 2181 103c f575 8a3d ebf4 383e 10fd 453e
00000120: b9bf 30bd 2335 2fbe 641e 61be f90e 423e
00000130: 4307 253e d247 53bd da7d b03d 9588 78be
00000140: f440 583e 0071 45be b089 d73d dcb1 d9bd
00000150: 7398 b3bd 05c1 3bbd eb7d 903e 8119 473e
00000160: 9601 81bd 28db 03be b78d 3cbd b89f 143d
00000170: 08dd 45be 7f0a 7d3d ac07 103e 1850 68bd
00000180: dc62 833d 2477 2c3e 366a a23d 66f5 df3d
00000190: 8865 463f 0101 92be 46ab 673e 7a58 873e
000001a0: d776 7bbb 7dd2 2ebe 6152 4b3f 0046 243e
000001b0: 632a da3e 075e 333e 526e 2b3f d278 99be
000001c0: 7c1b debd 20f4 cdbe 5c04 763d 3791 a6bd
000001d0: a0e1 de3b 44d0 023f 718c 46be 9e02 03bf
000001e0: d5c5 1b3e 84e0 7dba fc49 3b3e 18c8 a1bd
000001f0: abdd 2abb 6a54 4a3e 7bb0 1fbe 24ca 7a3e
00000200: e0d5 5a3e a3fa 8dbb 3d17 103e a911 cdbe
00000210: 79cd dd3d 2912 7cbd ec4e ff3d 7532 303d
00000220: 4a27 0a3d 7f6f 293e 5f63 acbd 3a42 d63d
00000230: cced 8f3e c3e2 cdbb 24e7 2bbe c9a1 eabc
00000240: 1bfc 5c3d c6e8 183e 8f34 8b3e da54 f4bd
00000250: 9dde fd3d 597b 0abe cf07 a43d 2b61 c63d
00000260: 3d86 283e 23f5 29bc 8a9b 6fbe 8aba d13d
00000270: b8f7 59bd eef8 133e 7e21 263e 131b 0c3e
00000280: 2e3a f13e 7146 b5be 8460 e5bd c24f 4fbd
00000290: ce5b 75be a270 9abd 8d9b 9f3e 5695 923e
000002a0: 59be 8a3e c9ba bebc 78c8 1f3e aa4a 8ebe
000002b0: 140c 0cbe 4b56 8fbe c686 a33d 4f05 6fbe
000002c0: eaa2 b4bd 574f d93e 668b 44be c9d7 64be
000002d0: 83ca 20be 7cfa a33d b6f0 38bc f51a 233d
000002e0: 8523 033e dd2e b03d 4149 0abe a282 063e
000002f0: 83ca 2a3e 7d62 1b3e 5f77 27be 8881 813e
00000300: 7899 f4bb 25f8 403e 89b2 48bb a967 c2bd
00000310: fa22 c3bd 89ba 063d ddc0 0b3e 59a9 ab3d
00000320: 2949 bfbd c8b9 5f3e 44cf 86be ebc1 32bd
00000330: 46e1 84be 71c0 20be 6052 a4bd 51eb 74bd
00000340: d052 0e3e 41e1 453d c1e0 90be 6649 e1bc
00000350: 5c4a e1bd 5556 febc 39e0 51be 2e1a 0fbe
00000360: a5c7 953d aafe 4dbe 2cb0 1bbe 5053 4a3e
00000370: fb2d e33e f178 b8be 44d1 1dbc ced3 933d
00000380: 2353 3fbe 90c3 03bc 2b5c 063f 0287 18bd
00000390: a86d 0abc 59fc 7dbd 11a7 fe3d 26a6 fcbd
000003a0: 0cff 3bbe 5b1a 4fbd 4d06 a03e 1add 53bd
000003b0: 11df 2abe a402 c43e 98ec 71be adce 94bd
000003c0: e732 5c3e 5b06 3fbd 5188 8f3d 3434 cb3c
000003d0: 7e75 943b 3499 aa3e 3581 1c3d 90ab 6d3d
000003e0: 69de ddbb 0184 0ebd d5af bb3d f7da 93be
000003f0: 8cce 6dbd cc74 053d 1427 1ebe a6fb 293e

lstm.bias_ih_l0 f4 [80]
0.036243528 0.2389174 -0.14833646 -0.047480807 0.115463704 0.27197498 0.061521247 0.2072231
0.075229995 -0.11969439 -0.2513474 0.06623094 0.15192573 0.23213053 -0.036998454 0.056345005
-0.23157464 0.19621208 0.009917185 0.21979102 -0.27256274 -0.20923118 -0.07551312 -0.035369825
0.12232113 -0.35442072 -0.2027703 -0.18043402 -0.3440273 0.14252363 -0.26282606 -0.3092118
-0.020203793 -0.08165662 -0.1403016 -0.14357822 0.105026856 -0.20649666 -0.20044246 -0.08028601
0.052481804 -0.21041907 -0.10085117 0.106136255 -0.05731114 -0.16313119 0.14929695 -0.12522843
0.03535587 -0.0063457866 0.092998415 0.13737147 -0.15268268 -0.0912149 -0.12342222 -0.19702947
-0.0033615236 0.15647279 -0.14281444 -0.23195262 0.014965367 0.12113942 -0.21833403 0.23197818
0.09905539 0.30400196 0.22235064 0.2071783 0.40791208 -0.21008798 0.075201705 0.14132476
0.010466938 0.10801404 0.15826252 -0.17308123 -0.18368019 -0.2174541 0.1755649 0.2138429
00000000: 1874 143d c3a6 743e 83e5 17be 3c7b 42bd
00000010: 3c78 ec3d 4e40 8b3e b4fd 7b3d 4b32 543e
00000020: 2f12 9a3d 5522 f5bd 9bb0 80be 16a4 873d
00000030: 6b92 1b3e a0b3 6d3e b18b 17bd 05ca 663d
00000040: e721 6dbe d2eb 483e b07b 223c e610 613e
00000050: 588d 8bbe b340 56be 9fa6 9abd f3df 10bd
00000060: 8083 fa3d a276 b5be 04a3 4fbe b2c3 38be
00000070: 5924 b0be b7f1 113e 2391 86be 0251 9ebe
00000080: 6d82 a5bc 963b a7bd 39ab 0fbe 2b06 13be
00000090: 5218 d73d dc73 53be ca40 4dbe fe6c a4bd
000000a0: 29f7 563d 1978 57be 0f8b cebd f75d d93d
000000b0: 16bf 6abd dd0b 27be 4de1 183e e23b 00be
000000c0: 51d1 103d 51f0 cfbb f475 be3d 1bab 0c3e
000000d0: d958 1cbe e1ce babd cac4 fcbd 18c2 49be
000000e0: 024d 5cbb 673a 203e f33d 12be fd84 6dbe
000000f0: 4c31 753c f217 f83d f592 5fbe b08b 6d3e
00000100: 8ddd ca3d 25a6 9b3e e3af 633e 8c26 543e
00000110: dad9 d03e 4e21 57be 5a03 9a3d 70b7 103e
00000120: 857d 2b3c 7736 dd3d 920f 223e 353c 31be
00000130: a916 3cbe 4aac 5ebe 49c7 333e a2f9 5a3e

lstm.bias_hh_l0 f4 [80]
0.028371545 0.04855765 -0.09900281 -0.16718043 -0.013703105 0.6375748 -0.040858977 0.19982517
0.051106896 0.1287575 -0.109355554 0.24242066 0.095708914 0.20376793 0.10879438 -0.15163916
-0.050547685 0.063400134 -0.005310989 0.16953987 -0.15115958 0.1283885 0.0938842 -0.033835877
0.0772236 -0.3726889 0.10940982 0.014460575 -0.31608465 0.06250815 0.12914184 -0.117114305
-0.17837602 -0.16844131 -0.14895953 0.036310673 -0.18543203 -0.12689298 -0.0693845 0.21831085
-0.016860502 -0.060686894 0.1825778 0.1234829 0.14552763 0.1947006 -0.079863586 0.17811099
-0.080601245 0.098745085 0.019283734 -0.16678743 0.11467682 -0.09980392 0.21533951 0.08347957
-0.038636457 0.0014292016 -0.107415475 -0.23116882 -0.12707733 -0.095128275 -0.0064756665 0.22099555
0.11360786 0.7032873 -0.08403525 0.20266895 0.08317406 -0.16307311 -0.25955752 0.24622566
0.068033464 0.20373411 0.13091937 0.16670804 -0.1846388 -0.2031456 -0.17328598 -0.03258349
00000000: 716b e83c 63e4 463d fcc1 cabd 5931 2bbe
00000010: fd82 60bc 1a38 233f be5b 27bd f89e 4c3e
00000020: 7755 513d 02d9 033e cef5 dfbd 1f3d 783e
00000030: 0903 c43d 8aa8 503e 97cf de3d 4c47 1bbe
00000040: 170b 4fbd eed7 813d ce07 aebb dc9b 2d3e
00000050: 94c9 1abe 4678 033e 5c46 c03d 7d97 0abd
00000060: 6827 9e3d 14d1 bebe 4112 e03d 0cec 6c3c
00000070: d9d5 a1be 4604 803d c23d 043e a0d9 efbd
00000080: 34a8 36be e17b 2cbe d988 18be 80ba 143d
00000090: e5e1 3dbe 3cf0 01be 7619 8ebd e18c 5f3e
000000a0: 091f 8abc d292 78bd adf5 3a3e 9ae4 fc3d
000000b0: 3205 153e 985f 473e 858f a3bd ba62 363e
000000c0: 4412 a5bd dd3a ca3d ecf8 9d3c 53ca 2abe
000000d0: aedb ea3d ff65 ccbd f681 5c3e 56f7 aa3d
000000e0: 4341 1ebd 0c54 bb3a a5fc dbbd 85b7 6cbe
000000f0: 8f20 02be 9dd2 c2bd d431 d4bb a84c 623e
00000100: 3dab e83d a30a 343f ac1a acbd 7388 4f3e
00000110: 2957 aa3d a3fc 26be b9e4 84be 9422 7c3e
00000120: 2155 8b3d ad9f 503e ba0f 063e 83b5 2a3e
00000130: f411 3dbe 6605 50be e171 31be 4476 05bd

linear.weight f4 [1, 20]
0.24426764 0.26369974 -0.17466198 -0.2320005 -0.22124888 -0.5373366 0.15876663 -0.23867452
0.38501006 0.003904658 0.12807822 0.44981855 0.14623371 0.28279668 -0.15820064 0.1126396
0.03339853 0.14379928 0.040216103 0.24303871
00000000: 4c21 7a3e a703 873e 97da 32be 8a91 6dbe
00000010: 118f 62be e48e 09bf b893 223e 1867 74be
00000020: 0a20 c53e 4ae5 7f3b f026 033e 9e4e e63e
00000030: 4abe 153e baca 903e 59ff 21be 97af e63d
00000040: e6cc 083d 1e40 133e a4b9 243d 24df 783e
