source/site/static/nets/30-30-15-2.pth (torch_old, 14172 bytes, 9 tensors)

lstm.weight_ih_l0 f4 [60, 4]
0	0x405b8c6e	3.4304461
1	0x4053189b	3.2983768
2	0x404a521a	3.161261
3	0x405a74a2	3.4133687
4	0x3f06af9f	0.52611727
5	0x3f895b26	1.0730941
6	0xbd7f380a	-0.062309302
7	0x3eb0f4fc	0.34561908
8	0x40355bb4	2.833722
9	0x406e91ac	3.727641
10	0x401111f5	2.266721
11	0x40446b2f	3.069042
12	0x3f9ca1d7	1.223689
13	0x401bf945	2.4370892
14	0x3fa608d2	1.2971442
15	0x4031e9d5	2.779897
16	0xc049ad50	-3.1512032
17	0xc04639ca	-3.0972772
18	0xc0648df5	-3.5711644
19	0xc05b4592	-3.4261212
20	0xbf0ac7d9	-0.54211193
21	0xbed34c3f	-0.4126911
22	0x3f0fc678	0.56162214
23	0xbce79106	-0.028267395
24	0xbe2d3d1b	-0.16917841
25	0xbeffa72c	-0.4993223
26	0x3ee707ed	0.45123234
27	0x3e4a8b11	0.19779612
28	0xc09c2b2b	-4.8802695
29	0xc0a736d4	-5.225443
30	0xc0844df1	-4.1345143
31	0xc09faaed	-4.989615
32	0xbf735808	-0.950562
33	0xbfaaa8be	-1.3332746
34	0xbf2e7df9	-0.6816097
35	0xbf58c1ec	-0.846709
36	0xc097ae55	-4.740031
37	0xc0b07f06	-5.515506
38	0xc029de7b	-2.6542041
39	0xc056c714	-3.3559008
40	0xc02e2c25	-2.7214444
41	0xc019b255	-2.4015095
42	0xc0358f38	-2.8368664
43	0xc032ed22	-2.7957234
44	0xbfc5e345	-1.5459982
45	0xc000821b	-2.007941
46	0x3f068f88	0.5256276
47	0xbf9085cc	-1.1290832
48	0xbebb0a9b	-0.3653153
49	0xbee3a3a7	-0.44460794
50	0x3f34926e	0.70535934
51	0x3d65a1ff	0.056062695
52	0x402db7fa	2.714354
53	0x403a2387	2.9084184
54	0x4039d859	2.9038298
55	0x4052f4a4	3.2961817
56	0xc02b9119	-2.680731
57	0xc00b310c	-2.1748686
58	0xc005433e	-2.0822291
59	0xbff4111e	-1.9067724
60	0x40644da4	3.5672388
61	0x4050a9fc	3.260375
62	0x406c0712	3.6879315
63	0x4066266b	3.5960948
64	0xc01b4260	-2.4259262
65	0xc0158149	-2.336016
66	0xc010a786	-2.2602248
67	0xc012be79	-2.2928755
68	0x405c55be	3.4427333
69	0x4078c32a	3.8869119
70	0x404e2236	3.220838
71	0x4060ab8e	3.5104709
72	0x40724710	3.7855873
73	0x404a46d7	3.1605737
74	0x4087dd70	4.245781
75	0x407000ea	3.7500558
76	0xbf293134	-0.66090703
77	0xbfaa39f4	-1.3298936
78	0xbee5b22e	-0.44862503
79	0xbf5a7255	-0.85330707
80	0x406614ca	3.5950189
81	0x408884a5	4.266192
82	0x4052b617	3.292364
83	0x406aff0f	3.6718175
84	0x3f379e8f	0.71726316
85	0x3e2b1c75	0.16710074
86	0x3fb7e381	1.4366304
87	0x3f572609	0.8404241
88	0xbdb3ad16	-0.08773248
89	0x3d7f2a69	0.062296305
90	0x3f1c0aaa	0.6095377
91	0x3ec92dc3	0.39292726
92	0xbfca25e0	-1.5792809
93	0xc01e8305	-2.4767468
94	0xbfaf0d36	-1.3675907
95	0xbfcf65b7	-1.6202916
96	0xbee7f279	-0.4530218
97	0xbf5d64e5	-0.8648208
98	0x3f5068ea	0.81410086
99	0x3e4226cb	0.18960111
100	0x3e42347e	0.18965337
101	0xbe1a450b	-0.150654
102	0xbe1459c6	-0.14487371
103	0x3e9234fa	0.28556043
104	0xbe9520a3	-0.29126462
105	0xbf7aa9cf	-0.9791536
106	0x3fc5ba4b	1.5447477
107	0x3da89a72	0.08232583
108	0x3eb16ad4	0.34651816
109	0x3d8f5a86	0.06999688
110	0x3f57fcbc	0.8437002
111	0xbd74e950	-0.059792817
112	0x406af65a	3.671286
113	0x4063bb80	3.558319
114	0x408493c4	4.143038
115	0x407decf4	3.9675875
116	0xbfb38d02	-1.4027407
117	0xbfd63212	-1.673403
118	0xbfd1ec73	-1.6400284
119	0xbfb5af1e	-1.4194067
120	0xbf6a8e7f	-0.9162368
121	0xbe55879f	-0.20852517
122	0xbf91abc3	-1.1380543
123	0xbebe003d	-0.37109557
124	0x3ffdeb75	1.9837481
125	0x3ff5d2e4	1.9204984
126	0x3fea06ee	1.8283365
127	0x40015785	2.0209668
128	0xbfb729e6	-1.4309661
129	0xbf71ffd8	-0.9453101
130	0xbfe0ece5	-1.7572294
131	0xbf964587	-1.1739968
132	0xbf418fe9	-0.75610214
133	0xbe9df8e7	-0.3085396
134	0xbf418896	-0.7559904
135	0xbec8a5b0	-0.3918891
136	0xc00951dc	-2.1456213
137	0xc00ba021	-2.1816485
138	0xc0305d67	-2.7557008
139	0xc02bde68	-2.6854496
140	0xbec1ce2d	-0.37852612
141	0x3efa6660	0.4890623
142	0xbf3c6f5d	-0.73607427
143	0x3dcf44a0	0.10120511
144	0xc005a626	-2.088266
145	0xc02da695	-2.7132924
146	0xc005486c	-2.0825453
147	0xc00ac86a	-2.1684823
148	0x3f277a94	0.65421414
149	0x3dbadb30	0.09123838
150	0x3f571cb7	0.8402819
151	0x3e666ce9	0.22502483
152	0x404044f0	3.0042076
153	0x405e4d54	3.4734697
154	0x403c65d0	2.9437141
155	0x404a8370	3.1642723
156	0x3ff3652f	1.9015254
157	0x400848e3	2.1294487
158	0x400e11aa	2.2198281
159	0x4014634e	2.318561
160	0x3fdb00ea	1.7109654
161	0x4015d27b	2.3409717
162	0x3fb64f7c	1.4243007
163	0x3fef60c9	1.8701411
164	0xbffe9aea	-1.9891026
165	0xc00666b4	-2.1000185
166	0xc0080bec	-2.1257277
167	0xc02184cd	-2.5237305
168	0x3f2f759c	0.6853883
169	0x3f81301b	1.0092806
170	0x3f0f7893	0.56043357
171	0x3f19deaf	0.60105413
172	0xbeb6f684	-0.35734951
173	0xbd4b895c	-0.049691543
174	0xbf664692	-0.8995143
175	0xbebbb68f	-0.3666272
176	0xc022caef	-2.543636
177	0xc04077fa	-3.0073228
178	0xc02135f5	-2.5189183
179	0xc0437516	-3.0540214
180	0x3ff0e8e4	1.8821073
181	0x4016662f	2.3499868
182	0x40250619	2.5784972
183	0x408520e6	4.160266
184	0xc01d35f9	-2.4564192
185	0xbfabf503	-1.3434147
186	0xc03f0dbb	-2.985213
187	0xbff6f96f	-1.9294871
188	0x3e569b4c	0.20957679
189	0x3fa5c2db	1.295009
190	0x4020acb0	2.51054
191	0x40963aca	4.6946764
192	0x3fe54f6e	1.7914865
193	0x400b14ea	2.1731515
194	0x402b763c	2.6790915
195	0x4076bd45	3.855302
196	0xbfc186c9	-1.5119258
197	0xc0044521	-2.0667193
198	0xc0013eb0	-2.0194511
199	0xc0512343	-3.2677772
200	0x404b043f	3.1721342
201	0x40607112	3.5069013
202	0x405afe45	3.4217694
203	0x4068799e	3.632423
204	0xbf042b1a	-0.5162827
205	0xbf88779e	-1.0661504
206	0x3e7e46d3	0.24831705
207	0x3d67a06e	0.056549482
208	0x3f329ef2	0.6977378
209	0x3deb0193	0.1147491
210	0x3fa1ee8a	1.2650921
211	0x3f753c9c	0.9579561
212	0xc0643e17	-3.5662897
213	0xc0560e28	-3.344614
214	0xc0188d6f	-2.3836324
215	0xc025c052	-2.5898633
216	0xbf83fae5	-1.0310942
217	0xbfdfe0c8	-1.7490473
218	0x3eef7671	0.4677005
219	0x3e26ed0e	0.16301367
220	0x3f6b6062	0.91943944
221	0x3fc12b38	1.5091314
222	0x3fd43fbd	1.6581951
223	0x40afdf3d	5.496001
224	0xc0070b28	-2.110056
225	0xc01becff	-2.43634
226	0x3e02c1f6	0.12769303
227	0xbf908afe	-1.1292417
228	0xbfdf5c62	-1.7450068
229	0xc0040836	-2.0630012
230	0xbf48d4b3	-0.78449553
231	0xbfb5bda3	-1.4198498
232	0x402e40f1	2.7227137
233	0x403b3a59	2.9254363
234	0x402116d0	2.5170174
235	0x40a9438a	5.2894945
236	0xbf911c53	-1.1336769
237	0xbfa20cb7	-1.266013
238	0xbfa11813	-1.2585472
239	0xbfc230fc	-1.5171199

lstm.weight_hh_l0 f4 [60, 15]
0	0x3b898582	0.0041968236
1	0xbfa267a7	-1.2687882
2	0x3f04379d	0.5164736
3	0xbf88996e	-1.0671823
4	0x3ec2833c	0.3799075
5	0xbf9861dc	-1.1904864
6	0x40257184	2.5850534
7	0x4014f1a6	2.327249
8	0x401b2d5a	2.424643
9	0xc00c57af	-2.1928518
10	0x3f082f4d	0.53197175
11	0x404cc645	3.1996014
12	0xbfe58661	-1.7931634
13	0xbf7a0029	-0.97656494
14	0xbf8fd25f	-1.1236075
15	0x3fea1486	1.8287513
16	0xc0787ec3	-3.882737
17	0x40020d1c	2.0320501
18	0x3f8ebe8e	1.1151903
19	0xbf835635	-1.0260683
20	0x3faee41f	1.3663367
21	0x4034474e	2.816852
22	0xc0429d7e	-3.0408626
23	0xc00d74f7	-2.210264
24	0xc027198d	-2.6109345
25	0x408badf5	4.364985
26	0x4000b0ea	2.010798
27	0xc0304f94	-2.754857
28	0x401510ff	2.3291624
29	0x3fb23695	1.3922907
30	0x3faa4890	1.3303394
31	0xc03ed6c7	-2.981859
32	0x3ff41f9a	1.9072144
33	0x3f295608	0.661469
34	0x3d9c8c5f	0.07643961
35	0xbf405d5b	-0.7514245
36	0x3ff53b89	1.9158794
37	0xc05a5082	-3.4111638
38	0x3f9835a1	1.1891366
39	0xc0210f88	-2.516573
40	0x404cffda	3.203116
41	0x40152273	2.3302276
42	0xbf53e829	-0.82776123
43	0x3eed9ef0	0.46410322
44	0xbf72428b	-0.94632787
45	0x3fb879d7	1.4412183
46	0xbf8add7a	-1.0848839
47	0x3fc254f6	1.5182178
48	0x3f2f4b11	0.6847392
49	0xbfe4fa31	-1.7888852
50	0x3fbbb5d8	1.4664869
51	0x4043e711	3.0609782
52	0x40314b7d	2.7702324
53	0x3fc749d5	1.5569407
54	0xc015539d	-2.3332283
55	0xbc0ee7f5	-0.008722295
56	0x40602625	3.5023282
57	0xc0679636	-3.6185431
58	0x3f8def2a	1.1088612
59	0x3f599033	0.84985656
60	0xbfb6c58d	-1.4279038
61	0x400d2c5f	2.2058332
62	0xbfc69a52	-1.5515845
63	0x3f74aeb4	0.95579076
64	0xbf9c6543	-1.2218403
65	0x3f97de45	1.1864706
66	0x4031574c	2.7709532
67	0x40231957	2.5484216
68	0xc056a3b7	-3.3537424
69	0xc038b3db	-2.8859775
70	0xc07d1970	-3.9546776
71	0x4000b3a2	2.010964
72	0xc03ce331	-2.9513667
73	0x3fa21c6b	1.2664922
74	0x403c6986	2.9439406
75	0xbfa8959a	-1.3170655
76	0x402d5f46	2.70894
77	0xbfb7183d	-1.4304272
78	0x3f8c41a9	1.0957538
79	0xc05f293e	-3.4868922
80	0x3eba90fa	0.36438733
81	0x40481ba2	3.1266866
82	0x401a8789	2.4145224
83	0xc0127e3f	-2.2889555
84	0xc04b6c4f	-3.1784856
85	0xc04d6845	-3.209489
86	0x406f0b4b	3.7350643
87	0xc03824f3	-2.8772552
88	0xc022bb01	-2.5426638
89	0x404e3a0e	3.2222934
90	0x3eaa43f4	0.3325497
91	0x401ac369	2.418177
92	0x3f8400d5	1.0312754
93	0x3ef3ac34	0.47592318
94	0xbf104e46	-0.56369436
95	0x3f8186fb	1.0119318
96	0xc01c5d15	-2.4431813
97	0x400f9bf7	2.2438943
98	0x407b841a	3.9299378
99	0x3fb769dc	1.4329181
100	0xc03bc6e7	-2.934015
101	0x3f1c8196	0.6113523
102	0x40891d92	4.2848597
103	0x3fbf63f7	1.4952382
104	0xc00b59f4	-2.1773653
105	0x3faadc8b	1.3348554
106	0x400a64af	2.1623952
107	0x3fbe9117	1.4888028
108	0x3fc8eb47	1.5696801
109	0xbfdc6b1b	-1.7220186
110	0x3fe92e44	1.8217244
111	0xc0320f70	-2.7821922
112	0x3facffdc	1.3515582
113	0xbffcd98f	-1.9753894
114	0x4009deb0	2.1542168
115	0xc000d8e8	-2.013239
116	0xbfa86e10	-1.3158588
117	0x3f7e36cb	0.9930236
118	0x40083536	2.1282477
119	0x40045a99	2.0680296
120	0x3f7ee1b3	0.9956314
121	0x4062a242	3.5411534
122	0x3f39075d	0.7227686
123	0x3fc0fa93	1.5076469
124	0xbfdc4087	-1.7207192
125	0x3fd5ea24	1.6712079
126	0xc06c4bf7	-3.6921365
127	0x3faa4151	1.3301183
128	0xbf3dc88d	-0.7413414
129	0x404e9259	3.2276824
130	0xbff1ff2a	-1.8905995
131	0xc007f9f3	-2.1246307
132	0x407817af	3.8764455
133	0x3fdcc895	1.7248713
134	0x3fae9a40	1.3640823
135	0x3f9f78e6	1.245877
136	0x40140b2c	2.3131819
137	0x3fcfeb93	1.6243767
138	0x3fbc2a3e	1.4700391
139	0xbfa39c36	-1.2782047
140	0x3fde2cd7	1.7357434
141	0xc08ec65e	-4.4617147
142	0x3ff60267	1.9219483
143	0x3f2be83d	0.6715124
144	0x40400119	3.000067
145	0xbff4a24b	-1.9112028
146	0x3dd94d06	0.10610394
147	0x408cb6fd	4.3973374
148	0x3ff20da0	1.8910408
149	0xbec9b8d7	-0.39398834
150	0x4016a2f1	2.3536952
151	0x3fd7b9d0	1.685358
152	0x403aaed8	2.9169216
153	0x4011ee0b	2.280154
154	0xc0256268	-2.5841312
155	0x401449f6	2.3170142
156	0xbfb25ada	-1.3933976
157	0xc00e9911	-2.2280924
158	0xc02d4df7	-2.7078836
159	0xbfdde751	-1.7336217
160	0x40434206	3.0509048
161	0x3f815452	1.0103858
162	0x3fcb6497	1.5890073
163	0x40264b76	2.5983558
164	0x403a9332	2.915234
165	0xbe131951	-0.14365126
166	0x4015b05e	2.3388896
167	0xbe936374	-0.28786814
168	0x3f8df745	1.1091086
169	0xbefed263	-0.49769887
170	0x3ef8a037	0.48559734
171	0x3e9594a8	0.29214978
172	0x3f9bc478	1.2169333
173	0x4000ab20	2.0104446
174	0xbf6ab129	-0.91676575
175	0xc0681d5a	-3.6267915
176	0x3fb091f3	1.379454
177	0x408e6b53	4.450601
178	0x3f82633d	1.0186535
179	0xc0254678	-2.582426
180	0x3e38ad5c	0.18034881
181	0x407a6537	3.9124277
182	0x3ed848fc	0.42243183
183	0xbdcb6e4b	-0.09933146
184	0xbe7d5dd4	-0.24742824
185	0x3f32cae3	0.6984083
186	0xc081119d	-4.0334
187	0x3fd2f266	1.6480224
188	0x4091fe17	4.562267
189	0x4086530d	4.197638
190	0xbe72c31b	-0.2370724
191	0xc0903ff0	-4.507805
192	0x40683494	3.628209
193	0x3fbf5b80	1.4949799
194	0xc068d16d	-3.6377823
195	0xc021cdcd	-2.528186
196	0x3efe5cfc	0.49680316
197	0xc0275086	-2.6142898
198	0xbfefb5d9	-1.872737
199	0x3fff5e5e	1.9950674
200	0xc00642ee	-2.097835
201	0x3fff7e62	1.9960444
202	0x401bdb23	2.43525
203	0x400e2e3a	2.2215714
204	0xbf75eb98	-0.9606261
205	0xc02769f3	-2.6158416
206	0x402acecb	2.6688716
207	0x3f528e66	0.8224853
208	0xc0258c62	-2.5866933
209	0xbfca9e3f	-1.5829543
210	0x3f6989d9	0.91225964
211	0x402bee7a	2.6864305
212	0x3f4c84a7	0.7988991
213	0x3fbd939e	1.4810674
214	0xc0023e5b	-2.0350559
215	0x40074450	2.1135445
216	0xc01dcdc6	-2.4656844
217	0x4000e37f	2.0138853
218	0xbff8619d	-1.9404789
219	0x3ef96e8c	0.48717153
220	0xc02c49ae	-2.691997
221	0xbfc038e6	-1.5017364
222	0x3f154109	0.5830236
223	0x40115dd0	2.2713509
224	0x40046653	2.0687454
225	0x3f148236	0.58011186
226	0xbfb8dd2a	-1.4442494
227	0x3eff6ccd	0.49887696
228	0xbf460091	-0.77344614
229	0x3df3dd01	0.119073875
230	0xbd9b3293	-0.07578006
231	0x3f646c9a	0.8922821
232	0xbde74d89	-0.112940855
233	0x40022462	2.0334706
234	0xbf679979	-0.90468556
235	0x3fd61459	1.672496
236	0x3f74fda2	0.9569951
237	0xbf6d8fb9	-0.9279743
238	0x3d886ffe	0.06661986
239	0xbfa67ea7	-1.3007401
240	0x3f796c8e	0.97431266
241	0xc0473b2a	-3.112986
242	0x3f92b2a0	1.1460762
243	0x3fe113c4	1.7584157
244	0x3ffd9943	1.9812397
245	0xbf1ce64d	-0.6128891
246	0x40012cab	2.0183513
247	0xc053157e	-3.2981868
248	0xc02bab73	-2.6823394
249	0xc006651f	-2.099922
250	0x40925af6	4.5736036
251	0x406f403c	3.7382956
252	0xbfdeb0b4	-1.7397676
253	0xbe770136	-0.24121556
254	0x4027bd58	2.6209316
255	0x3fb17493	1.3863701

lstm.bias_ih_l0 f4 [60]
0	0x4027f631	2.6244013
1	0x409a84ea	4.828725
2	0x407dca28	3.9654636
3	0x3fedd7df	1.8581504
4	0xc01ba834	-2.4321413
5	0xbfad839a	-1.3555787
6	0xc04c86e3	-3.1957328
7	0xc03c8cb1	-2.9460871
8	0xc0450428	-3.0783787
9	0xc01a81de	-2.4141765
10	0xbf9b0468	-1.211072
11	0xc063d179	-3.5596602
12	0xc08c35a4	-4.381548
13	0x3fbff910	1.4997883
14	0xc0516b1b	-3.2721622
15	0x400307ac	2.0473433
16	0x40494017	3.1445367
17	0x4039f6f7	2.9056985
18	0x3ef09dca	0.46995384
19	0xc0448102	-3.070374
20	0x3f55446c	0.8330753
21	0xc0676290	-3.6153908
22	0xc00cdf26	-2.20112
23	0xc05f056f	-3.4847066
24	0xc074a968	-3.8228397
25	0x4004599d	2.0679696
26	0xc06050f9	-3.5049422
27	0xc04e287d	-3.2212212
28	0x3fd66a57	1.6751202
29	0xc07cb640	-3.9486237
30	0x403f8400	2.9924316
31	0xc03890c9	-2.883837
32	0x4015c80b	2.3403347
33	0x40093e5b	2.1444309
34	0xbfe6cafc	-1.8030696
35	0x402a0977	2.6568277
36	0x3f8a656e	1.0812204
37	0xc02dce0c	-2.715701
38	0x405fe250	3.498188
39	0xbf7a9ad3	-0.97892493
40	0x4079914e	3.8994937
41	0x3f916ec1	1.1361924
42	0x3fed899b	1.8557619
43	0x3fd13839	1.6345283
44	0xc035dfbc	-2.8417807
45	0xbf9e2df3	-1.2357773
46	0x3ed07dae	0.40720886
47	0x3fb0c167	1.3809022
48	0xbec2c665	-0.38041988
49	0xc03be19a	-2.9356446
50	0x3fb52f21	1.4155008
51	0xc0616103	-3.5215461
52	0xc0198f6b	-2.3993785
53	0xc05e7ddb	-3.4764316
54	0xc03c0914	-2.938054
55	0xbf11a619	-0.5689407
56	0xc0608e03	-3.5086677
57	0xc0799ffb	-3.9003894
58	0x3f088ef2	0.5334312
59	0xc062cc0b	-3.5437038

lstm.bias_hh_l0 f4 [60]
0	0x4029063a	2.641005
1	0x4098c288	4.7737465
2	0x4064eb29	3.576853
3	0x3fb5214c	1.4150786
4	0xc01e8398	-2.4767818
5	0xbf713c18	-0.9423232
6	0xc048a1d3	-3.134877
7	0xc037f578	-2.8743572
8	0xc044b297	-3.0734003
9	0xc035b269	-2.8390143
10	0xbfa9bca0	-1.3260689
11	0xc0617ca8	-3.5232334
12	0xc07abb63	-3.9176872
13	0x3fa6c47a	1.302871
14	0xc0427186	-3.038179
15	0x40130d23	2.2976768
16	0x4058d837	3.3881967
17	0x40417b8a	3.0231652
18	0x3eb8c50f	0.36087844
19	0xc04dcf53	-3.215779
20	0x3f2da16f	0.67824453
21	0xc0724c65	-3.7859128
22	0xc0202fbf	-2.5029142
23	0xc05a7521	-3.413399
24	0xc06e78d0	-3.7261238
25	0x4013b64c	2.3080015
26	0xc06827e7	-3.6274354
27	0xc0498c44	-3.1491861
28	0x3fc16684	1.510941
29	0xc0773683	-3.8627021
30	0x40311b4b	2.7672908
31	0xc02b784d	-2.6792176
32	0x40138681	2.3050845
33	0x4010179a	2.2514405
34	0xbfc9c478	-1.5763083
35	0x4018899b	2.3833988
36	0x3f31a1b2	0.6938735
37	0xc017b8f8	-2.3706646
38	0x4049273e	3.1430202
39	0xbf45d524	-0.7727835
40	0x4087398a	4.225774
41	0x3f77997d	0.9671858
42	0x3ff8e1df	1.944393
43	0x3fdfb7b6	1.7477939
44	0xc04df2aa	-3.217936
45	0xbfbc0e26	-1.4691818
46	0x3f3c38fe	0.73524463
47	0x3fe7efc2	1.8120043
48	0xbedd7ccc	-0.43259275
49	0xc03bc3e0	-2.9338303
50	0x3f897fab	1.0742086
51	0xc06ef4fa	-3.7337022
52	0xc01f9f9c	-2.4941168
53	0xc058a7c2	-3.3852391
54	0xc0289fb7	-2.6347482
55	0xbf67db4b	-0.9056899
56	0xc0560f05	-3.3446667
57	0xc076b03a	-3.854506
58	0x3eebc3f7	0.46047947
59	0xc0662a0a	-3.5963159

lstm.weight_ih_l1 f4 [60, 15]
0	0x407aa5bd	3.9163659
1	0x3e2bb528	0.16768324
2	0x407cbe68	3.9491215
3	0x4064193f	3.564041
4	0xc063ec44	-3.5612955
5	0x40895602	4.291749
6	0x400673cb	2.1008174
7	0x3d588d2e	0.052869014
8	0xbfdeb612	-1.7399313
9	0xc0177c8a	-2.3669763
10	0x3f2a1861	0.6644345
11	0x4016a0eb	2.3535717
12	0xbf84fdf5	-1.0390002
13	0x4093681b	4.606458
14	0x402485de	2.5706706
15	0x407c6008	3.9433613
16	0x3f79062a	0.9727503
17	0x40527d9a	3.288916
18	0x40843d9c	4.1325207
19	0xc052ff86	-3.296846
20	0x4052fa77	3.2965372
21	0x3f1cfa17	0.61319107
22	0x3f2859ec	0.6576221
23	0xc006b1e8	-2.1046085
24	0xbf36db30	-0.71428204
25	0xbe9952b3	-0.29945907
26	0x3fbfe13b	1.499061
27	0x3fa1c867	1.2639283
28	0x4085f493	4.1861053
29	0x3fdfaff7	1.7475575
30	0xbfedeaa0	-1.8587227
31	0xbe8ba497	-0.2727401
32	0xbfed9731	-1.8561765
33	0xbf8d60b9	-1.1045142
34	0xbf0449db	-0.51675195
35	0x3e21f36c	0.15815514
36	0xbdf66a88	-0.12032038
37	0xbf164061	-0.58691984
38	0xc0017af2	-2.023129
39	0x3f07d134	0.53053594
40	0xbea26efa	-0.31725293
41	0xbfed3735	-1.8532473
42	0xc0376034	-2.8652468
43	0xbf1ef19f	-0.62087435
44	0x400320b1	2.0488703
45	0x3d918aa0	0.07106519
46	0x4022b6fd	2.5424187
47	0xbd5ea7c0	-0.054359198
48	0x3eea22e0	0.45729733
49	0xbfcd88b9	-1.605735
50	0x3fbe065e	1.4845693
51	0x3bc0467f	0.005867779
52	0x4005c1ad	2.089946
53	0xbd21daf6	-0.039515458
54	0x3e1e86e7	0.15481149
55	0xc0111882	-2.2671208
56	0x3ed93219	0.42421034
57	0xbf9ff043	-1.2495197
58	0x3febe7a3	1.8430065
59	0x3f7ebdd6	0.99508417
60	0xc02d295f	-2.70565
61	0x3ff146a2	1.884968
62	0xc03160d7	-2.7715356
63	0xc04efba3	-3.2341087
64	0x3fe47dfb	1.7850946
65	0xc0061458	-2.0949917
66	0x3f9a7900	1.2068176
67	0x400c7e3a	2.1952043
68	0x40144ab0	2.3170586
69	0xbf867879	-1.0505515
70	0xc01a3c47	-2.409929
71	0x3f9e588d	1.2370774
72	0xbff1431b	-1.8848604
73	0xbfe83985	-1.8142554
74	0xbf5728da	-0.8404671
75	0x3e1d0c2f	0.15336679
76	0x3fd2fe39	1.6483833
77	0xbd8f58f3	-0.069993876
78	0x3f86d4c8	1.0533686
79	0xc01629b3	-2.346295
80	0x3ffad24a	1.9595425
81	0x3fb86bcd	1.4407898
82	0x3fa6b7fe	1.30249
83	0xbfb6518f	-1.424364
84	0xbfc0eace	-1.5071657
85	0xc005c35a	-2.0900483
86	0x3fca3fe7	1.5800751
87	0xbf61d0e6	-0.8820938
88	0x3f900e8b	1.1254438
89	0x3fe58288	1.793046
90	0x4071eccf	3.7800786
91	0xbf349708	-0.70542955
92	0x40839633	4.112085
93	0x407063f0	3.7560997
94	0xc0579382	-3.3683782
95	0x406f4b78	3.7389812
96	0x3ff14b16	1.885104
97	0xbeba0726	-0.3633358
98	0xbff2e2c2	-1.8975451
99	0xc00b386b	-2.1753185
100	0x3faeff99	1.3671752
101	0x4020bf1a	2.511664
102	0x3deb305f	0.114838354
103	0x4084b94c	4.1476192
104	0x402b4101	2.6758425
105	0xbf130586	-0.57430303
106	0xbf97c5d1	-1.1857244
107	0xc00aab0a	-2.1666894
108	0x3fb0d5e3	1.3815273
109	0xbfc0b9fa	-1.5056756
110	0x3fb43831	1.4079648
111	0xbf82c9dc	-1.0217853
112	0xbfc41380	-1.5318451
113	0xc03ad8a1	-2.919472
114	0x3f8e5e8c	1.1122603
115	0x3fa87a45	1.3162314
116	0xbfbd2222	-1.4776042
117	0xc048ffa9	-3.1406043
118	0x3f0e20d5	0.5551885
119	0x40241dd9	2.5643218
120	0xbf8a48c1	-1.0803453
121	0x4040fee9	3.0155585
122	0xbfb86be6	-1.4407928
123	0xbe843381	-0.25820544
124	0xbfab8c48	-1.3402185
125	0x3f0e872d	0.5567501
126	0xbf7a85b8	-0.9786029
127	0x3ffd3b4a	1.9783719
128	0x3fb52b7c	1.4153895
129	0x3f7f0db9	0.99630314
130	0xc011d3fa	-2.278563
131	0xbf353769	-0.70787674
132	0x3ef32945	0.47492424
133	0x3f109feb	0.56494015
134	0x3dd2812c	0.10278544
135	0x4069c4b6	3.6526313
136	0x3f273ab4	0.6532395
137	0x405b5597	3.427099
138	0x4066f8ce	3.6089358
139	0xc0238e8f	-2.555576
140	0x403d32bf	2.9562223
141	0x3fe4b671	1.7868177
142	0x3f3db192	0.74099076
143	0xc00a59d3	-2.1617324
144	0xbff96bcf	-1.9486026
145	0x3e112fea	0.14178434
146	0x3fdf77d1	1.745844
147	0xbfc674f7	-1.5504445
148	0x404d8d0e	3.2117343
149	0x3fe3eeb3	1.780722
150	0x3c29dcd6	0.010367593
151	0x4014c78e	2.3246799
152	0xbdb88271	-0.09009255
153	0x3f142189	0.5786367
154	0xc002daf0	-2.044613
155	0x3fdf096b	1.7424749
156	0x3e23f41b	0.16011088
157	0x401a6e12	2.4129682
158	0x3e6ae333	0.22938232
159	0xbd63d3b8	-0.055621833
160	0xc0154766	-2.3324828
161	0x3f46215c	0.7739465
162	0xbf6b75ab	-0.9197642
163	0x3ff744ef	1.9317912
164	0x3f45e4c3	0.7730219
165	0xbfb60788	-1.4221048
166	0xbf8f57f9	-1.1198722
167	0xc0088785	-2.1332715
168	0x3f34be99	0.7060333
169	0xbffe6e7e	-1.987747
170	0x3fa168fd	1.2610165
171	0x40180c53	2.3757522
172	0xbfb0ee52	-1.382273
173	0xc0564831	-3.3481562
174	0xbff541f9	-1.9160758
175	0x3f8aa08b	1.0830244
176	0xbf8788ce	-1.0588624
177	0xc0358bc3	-2.8366554
178	0xbec58e3c	-0.3858508
179	0x40305f50	2.7558174
180	0xbf180ab1	-0.59391314
181	0xbf9afcb6	-1.2108371
182	0xbef61767	-0.4806473
183	0x3f63a9eb	0.8893115
184	0xbfc487b5	-1.5353914
185	0x3f5791f0	0.8420706
186	0x3ec67055	0.38757578
187	0xbfae9985	-1.36406
188	0xc048b9b2	-3.136334
189	0xbdbcbd17	-0.092157535
190	0x3f916efb	1.1361994
191	0xbf963d15	-1.1737391
192	0xc01a64d3	-2.4124038
193	0xbf7a692e	-0.9781674
194	0x403ed2cf	2.9816167
195	0xbfba8553	-1.4571937
196	0xbfb81ff5	-1.4384753
197	0xbfff09a9	-1.9924823
198	0x3f874a80	1.056961
199	0xbfe40b4c	-1.7815948
200	0x3f90c768	1.1310854
201	0x3f62f5ac	0.88656116
202	0xbf97fd4f	-1.1874179
203	0xc0519c4e	-3.275165
204	0xbf085020	-0.5324726
205	0x3fc60fc3	1.547356
206	0xbf69c367	-0.91313785
207	0xc031e145	-2.7793744
208	0xbf369716	-0.7132429
209	0x4048a68a	3.1351647
210	0xbf6cc943	-0.924946
211	0xbf54cd94	-0.8312619
212	0xc0041ab3	-2.0641296
213	0x3f8fce4e	1.1234834
214	0xbfedb6b2	-1.8571379
215	0x3fb70198	1.4297361
216	0xbfd50b72	-1.6644118
217	0xbfa96aac	-1.3235679
218	0xc0315795	-2.7709706
219	0x3fde152e	1.7350214
220	0x3f6706da	0.9024483
221	0xbfe3a2cf	-1.778406
222	0xc02741c2	-2.6133885
223	0x3f483786	0.7820972
224	0x40263009	2.5966818
225	0x406eabef	3.729244
226	0xc0983869	-4.756886
227	0x408dcae5	4.4310174
228	0x407153ac	3.770732
229	0xc08e2d96	-4.4430647
230	0x40936b3c	4.60684
231	0xbf0ad069	-0.5422426
232	0xc083e3f2	-4.1215754
233	0xbfd30c7d	-1.6488186
234	0x3eeba64e	0.46025318
235	0x4086c910	4.212044
236	0xbe38e427	-0.18055783
237	0x3fdc8c06	1.7230232
238	0x4094bb61	4.6478734
239	0x4005d5c2	2.0911717
240	0x406a78ef	3.6636312
241	0xc0558290	-3.336094
242	0x405dd301	3.4660037
243	0x4083047a	4.0942965
244	0xc07010e9	-3.751032
245	0x4083c643	4.117952
246	0xc0303c3d	-2.7536767
247	0xc054179d	-3.3139412
248	0xbfb70a25	-1.4299971
249	0x403eed09	2.9832175
250	0x406c54ea	3.6926827
251	0xc00bc7eb	-2.184077
252	0x4011efef	2.2802694
253	0x40887b38	4.2650414
254	0x3fe89c67	1.817273
255	0xc03f87ba	-2.992659

lstm.weight_hh_l1 f4 [60, 15]
0	0x3f134c37	0.5753817
1	0xbfed4eb3	-1.8539642
2	0xbebd105a	-0.36926538
3	0xbda9e1af	-0.08294999
4	0xbdd4d572	-0.10392274
5	0x4005217f	2.0801694
6	0x3ebaafb0	0.36462164
7	0x3eaabe20	0.3334818
8	0xbe07c300	-0.1325798
9	0xbfb0e300	-1.3819275
10	0xbf0c5841	-0.54822165
11	0x3db5e8da	0.088823035
12	0x3fb7b9f8	1.4353628
13	0x3f66a09b	0.90088814
14	0x3f385194	0.7199948
15	0xbfa3a084	-1.278336
16	0xc0395829	-2.8960059
17	0x3f81c324	1.0137677
18	0x3f7fccec	0.9992206
19	0x3f9818b0	1.1882534
20	0x3fc317b7	1.5241612
21	0xbfa4622d	-1.2842461
22	0xbf9a8578	-1.2071981
23	0x3f2a1707	0.66441387
24	0xc0060da5	-2.0945828
25	0x3f1cb9bb	0.612209
26	0x3f7d3a77	0.98917335
27	0xbf4991c8	-0.7873807
28	0xbf647766	-0.8924469
29	0x3fcc096e	1.5940378
30	0xbf2762c4	-0.6538508
31	0xbf1062f3	-0.56400985
32	0xbf685fd6	-0.90771234
33	0x3f8e5544	1.1119771
34	0x4073a016	3.8066459
35	0xbfd095b4	-1.6295686
36	0xbeb738da	-0.35785562
37	0x3f8041df	1.0020102
38	0x4080c1e4	4.0236683
39	0x3f249ecc	0.64304805
40	0xbf56435f	-0.8369655
41	0xbfe6e24e	-1.8037813
42	0xbe019051	-0.12652709
43	0xbc8bfb1e	-0.017087515
44	0xbfee5df2	-1.862242
45	0xc071ebd5	-3.780019
46	0xc050447d	-3.2541802
47	0x404eb55f	3.22982
48	0x400ec16f	2.2305562
49	0x402318b6	2.5483832
50	0xc05bf093	-3.4365585
51	0xc07d9650	-3.9622993
52	0xc03ec52a	-2.980784
53	0x4014c982	2.324799
54	0x40643b30	3.5661125
55	0x400accd4	2.1687517
56	0x403bebbc	2.936263
57	0xc035136a	-2.82931
58	0xc0498f59	-3.1493742
59	0x403138ec	2.7690992
60	0xc0671c68	-3.6111088
61	0xc0427876	-3.0386024
62	0x3f802c9d	1.0013615
63	0x3ff5d754	1.9206338
64	0x3fac2f6f	1.3451976
65	0xc040eaa1	-3.0143206
66	0xc06e4a32	-3.7232785
67	0xbfe9e0bd	-1.827171
68	0x40026550	2.0374336
69	0x405f6fd5	3.4912007
70	0xbefacdfc	-0.4898528
71	0x3cf2e983	0.029652363
72	0xbfe23a35	-1.7674013
73	0xbfb8ce1a	-1.4437897
74	0xbef32932	-0.47492367
75	0xc088c917	-4.274547
76	0xc08ade0b	-4.339605
77	0x4033a6e3	2.807061
78	0x3fbcc15f	1.4746512
79	0x3f9ca404	1.2237554
80	0xbf0126a5	-0.5044959
81	0xc091c04f	-4.554725
82	0xc03ccb27	-2.9498994
83	0x3fa8b01a	1.3178742
84	0x407d6796	3.9594474
85	0x3fb14914	1.3850427
86	0x403d8e91	2.9618266
87	0xc073f0ba	-3.8115678
88	0xc027de3d	-2.6229393
89	0x4023ad3d	2.5574486
90	0x3e37d544	0.17952448
91	0xbfe1299f	-1.7590827
92	0xbfb5af71	-1.4194165
93	0xbeef7d96	-0.46775502
94	0xbf4c859e	-0.79891384
95	0x3fb01b56	1.3758342
96	0x3f100334	0.5625489
97	0x3fb5ac6f	1.4193248
98	0xbf07c6dd	-0.53037816
99	0xbf9a9e30	-1.2079525
100	0xbf935785	-1.1511084
101	0xbf63f63e	-0.8904761
102	0x3fd09d96	1.6298091
103	0x3fd9689a	1.6985047
104	0xbedbab4a	-0.4290412
105	0x4049b1e6	3.151483
106	0x403ee29a	2.9825807
107	0xc03e8905	-2.977113
108	0x40377e48	2.8670826
109	0x403d2ded	2.955928
110	0xbfbb811d	-1.4648777
111	0x4054e317	3.3263605
112	0x4044d749	3.07564
113	0xbfbb19de	-1.4617269
114	0xc038c32f	-2.886913
115	0xbeabb00e	-0.33532757
116	0xc02fab54	-2.744832
117	0x4031252c	2.7678938
118	0x40396cbc	2.8972616
119	0xc02ed61c	-2.7318182
120	0xc049152d	-3.1419175
121	0xc064322e	-3.5655627
122	0x40505b75	3.255582
123	0x401febe4	2.4987726
124	0x40181813	2.3764694
125	0xbfff16ca	-1.992883
126	0xc0561ede	-3.345634
127	0xc04c251b	-3.1897647
128	0x400ad4c6	2.1692367
129	0x40254d4c	2.5828428
130	0x4002cdc0	2.043808
131	0x4050c003	3.2617195
132	0xc033558e	-2.8020968
133	0xc02d0170	-2.7032127
134	0x4038cc89	2.8874838
135	0x3f187850	0.5955858
136	0xbffae378	-1.9600668
137	0x3f9d4c14	1.2288842
138	0x3f13af63	0.57689494
139	0x3f1b63ba	0.60699046
140	0x400dcd54	2.2156572
141	0x3f2b3ec7	0.66892666
142	0xbf6113d9	-0.8792091
143	0x3ef097cb	0.4699081
144	0xc003bb21	-2.0582964
145	0x3f17fe16	0.5937208
146	0x3fa64947	1.2991112
147	0x3c26f0a2	0.010189207
148	0xbea8ed1b	-0.32993397
149	0x3fa5526a	1.2915776
150	0xc06dca7c	-3.7154837
151	0xc059c344	-3.402543
152	0x403603a3	2.843972
153	0x3ff3d3a3	1.9048961
154	0x3ffc31f1	1.9702741
155	0xbf9a3872	-1.2048476
156	0xc0807a4b	-4.0149283
157	0xc04d4217	-3.2071588
158	0x400cbb61	2.1989367
159	0x4053c848	3.3090992
160	0x401a50b3	2.4111755
161	0x402e04d7	2.7190454
162	0xc04b1e7b	-3.1737354
163	0xc0431283	-3.0480049
164	0x403937a3	2.8940208
165	0x3fbab5cf	1.4586734
166	0x4031c66f	2.7777364
167	0xc049dec8	-3.1542225
168	0x40432e87	3.0497148
169	0x4038cab1	2.8873713
170	0xbf3b3d02	-0.73139966
171	0x3fd69ea4	1.6767163
172	0x40429aaf	3.0406911
173	0x40654a4d	3.58266
174	0xbfa8dda6	-1.3192642
175	0x401abeac	2.4178877
176	0xc0410370	-3.0158348
177	0x402df96b	2.7183483
178	0x404a7b37	3.1637704
179	0xc034acd9	-2.8230498
180	0x404828b3	3.127484
181	0x404fd7db	3.2475498
182	0xc0494a72	-3.1451688
183	0x402fb1c8	2.745226
184	0x403c22a6	2.9396148
185	0x403c43ca	2.9416375
186	0x404cba90	3.1988869
187	0x404c0941	3.1880648
188	0xbf6ecec7	-0.9328427
189	0xc038a357	-2.8849695
190	0x404f9b55	3.2438557
191	0xc04be146	-3.1856246
192	0x40371b45	2.8610394
193	0x40486c6e	3.131618
194	0xc03961a3	-2.8965843
195	0x3fa32277	1.2744893
196	0x40256871	2.5844996
197	0xc03e0668	-2.969141
198	0x4037d619	2.8724425
199	0x40365645	2.8490155
200	0xbf47e806	-0.78088415
201	0x3faa4414	1.3302026
202	0x404b94d3	3.1809585
203	0xbea0b2db	-0.31386456
204	0xbf9738ab	-1.1814169
205	0x3d2be6f9	0.04196832
206	0xc0424101	-3.0352175
207	0x4057a122	3.3692098
208	0x404236e0	3.0345993
209	0xc04be0bd	-3.185592
210	0xc00791e1	-2.1182787
211	0xbfdfa642	-1.7472613
212	0xbfd7b0f3	-1.6850876
213	0x4040f2ca	3.0148187
214	0x4047bfd5	3.1210835
215	0xbfd6dfa8	-1.6787004
216	0xbfef4963	-1.8694271
217	0x3fd7a530	1.6847286
218	0x3fd31199	1.6489745
219	0x40057012	2.0849652
220	0xbf83bc84	-1.0291905
221	0xbff3d678	-1.9049826
222	0x3f1a3047	0.60229915
223	0x3fc06ab3	1.5032562
224	0xbffeb16c	-1.9897895
225	0x4032d299	2.7941039
226	0x3fe95c39	1.8231269
227	0xbffcbda3	-1.9745373
228	0xbff09f78	-1.8798666
229	0xc017c925	-2.371652
230	0x3ffcf4bc	1.9762187
231	0x40382d32	2.8777585
232	0x3fe25112	1.7680991
233	0xc059fa0e	-3.4058871
234	0xc0330b8b	-2.7975795
235	0xbfb45d6f	-1.4091014
236	0xbfeeccf4	-1.8656297
237	0x401ad618	2.4193172
238	0x3fffb28b	1.9976362
239	0xbfa192e4	-1.2622952
240	0x3f0c598d	0.54824144
241	0x3f3d2bca	0.7389494
242	0xbf6a4c2d	-0.91522485
243	0xbf772190	-0.9653559
244	0xbf1eb0e4	-0.61988664
245	0x3fd857fa	1.6901848
246	0x3eac8aa8	0.33699536
247	0x3eadd3f1	0.3395076
248	0xc074b888	-3.823763
249	0xc003cbce	-2.0593143
250	0xbfa14626	-1.2599533
251	0xbf8ced01	-1.1009828
252	0x3f6a96f7	0.91636604
253	0x3f89edda	1.0775712
254	0xbfb99085	-1.4497229
255	0xbf318498	-0.69342947

lstm.bias_ih_l1 f4 [60]
0	0xbf5177ef	-0.8182363
1	0xc0285aa1	-2.6305315
2	0x3e25c449	0.16188158
3	0xc05221bb	-3.2833087
4	0xc029d556	-2.653646
5	0xc03ea284	-2.9786692
6	0x3d3bb82f	0.045829948
7	0x403b2eb4	2.9247255
8	0xc051981f	-3.2749097
9	0xbfeccb8d	-1.8499619
10	0xc0538282	-3.3048406
11	0x4024d4a3	2.5754783
12	0x40475228	3.1143894
13	0x4050d413	3.262944
14	0x3e300f2b	0.17193286
15	0x40177c8c	2.3669767
16	0x3f4d9ad0	0.8031435
17	0xc0498668	-3.1488285
18	0xc06b87a9	-3.680155
19	0xc029781d	-2.6479561
20	0xc04f00c8	-3.2344227
21	0x3fbfae62	1.4975092
22	0xc03b12a3	-2.9230125
23	0xc0250176	-2.5782142
24	0x3fe9bd2a	1.8260853
25	0xc0372748	-2.8617725
26	0xbf838e93	-1.0277885
27	0x40332477	2.7991006
28	0x400cf520	2.2024612
29	0xc02b8671	-2.6800807
30	0x4014b4c9	2.3235343
31	0x3edd4153	0.432139
32	0xc04b5a8f	-3.1774023
33	0xbfbef32a	-1.4917958
34	0xbfd47ea8	-1.6601152
35	0xbf360e50	-0.7111559
36	0x3ff7aa22	1.9348795
37	0x405b3a10	3.4254189
38	0xc032159e	-2.7825694
39	0xbf906d2d	-1.1283318
40	0x3ed75220	0.42054844
41	0xc020b7c5	-2.5112164
42	0x4051243f	3.2678373
43	0x4054e567	3.3265016
44	0x4010bdba	2.26158
45	0xbe944e47	-0.2896597
46	0xc064b899	-3.573767
47	0xc01bf502	-2.436829
48	0xc034e9ed	-2.8267777
49	0xc04229fe	-3.033813
50	0xc0334245	-2.8009198
51	0xbf921ef4	-1.1415696
52	0xc0170890	-2.3598976
53	0xc057cc46	-3.3718429
54	0xc032c0b6	-2.7930121
55	0xc05debec	-3.4675245
56	0xc0304a13	-2.7545211
57	0x3f9eca12	1.2405417
58	0xbf9acbc0	-1.209343
59	0xc04853fa	-3.1301255

lstm.bias_hh_l1 f4 [60]
0	0xbf463b56	-0.7743429
1	0xc0297ce1	-2.648247
2	0x3e74b4bb	0.23897068
3	0xc03adb93	-2.9196517
4	0xc025f377	-2.592985
5	0xc050f3b5	-3.2648747
6	0x3ccd8acf	0.025090603
7	0x403f9663	2.9935539
8	0xc064e70a	-3.5766015
9	0xbfbfd4bc	-1.4986796
10	0xc060246e	-3.5022235
11	0x40252419	2.5803282
12	0x404ed798	3.2319088
13	0x405a0930	3.4068108
14	0x3e91ad5e	0.2845258
15	0x4025b6cd	2.5892823
16	0x3f365075	0.7121652
17	0xc03375ae	-2.8040576
18	0xc063cdf1	-3.5594447
19	0xc02eafce	-2.7294803
20	0xc068569f	-3.630287
21	0x3fcef019	1.6167022
22	0xc0371854	-2.8608599
23	0xc02af38e	-2.6711154
24	0x400f0a51	2.2350047
25	0xc03a992d	-2.915599
26	0xbf72804f	-0.94727033
27	0x402ee752	2.7328687
28	0x4012caee	2.2936358
29	0xc03410f8	-2.8135357
30	0x4017b0b8	2.370161
31	0x3eca89c9	0.39558247
32	0xc03c8112	-2.9453778
33	0xbf8d52b3	-1.1040863
34	0xbfb93d92	-1.4471915
35	0xbe5c07a0	-0.21487284
36	0x4003b955	2.0581868
37	0x40563330	3.3468742
38	0xc03a3c26	-2.9099212
39	0xbf513422	-0.81720173
40	0x3d95703a	0.07296796
41	0xc030e919	-2.7642272
42	0x404d682e	3.2094836
43	0x4050a780	3.2602234
44	0x402db7f5	2.7143528
45	0xbe8cc72f	-0.27495715
46	0xc05b02de	-3.42205
47	0xc00eb635	-2.229871
48	0xc03b06be	-2.9222865
49	0xc0452354	-3.0802813
50	0xc034cc89	-2.8249838
51	0xbf9c54cf	-1.2213382
52	0xc004d9f3	-2.0758026
53	0xc0520438	-3.2815075
54	0xc0148513	-2.3206222
55	0xc05bceda	-3.4345002
56	0xc01947ab	-2.3949993
57	0x3f9a67c7	1.206292
58	0xbf64248e	-0.8911828
59	0xc049e7ca	-3.1547723

linear.weight f4 [1, 15]
0	0x3f826c04	1.0189214
1	0x3f8e2169	1.1103946
2	0x3fa1c110	1.2637043
3	0xc0123eca	-2.2850823
4	0xc011d784	-2.278779
5	0xbf608d2a	-0.877154
6	0x3f5400c3	0.8281366
7	0xbfa1dc35	-1.2645327
8	0xbece6dea	-0.40318233
9	0xbf08257e	-0.5318221
10	0xc00a4fdc	-2.1611242
11	0x3fc39e8d	1.5282761
12	0xbf259ad2	-0.6468936
13	0xbf7aab33	-0.9791748
14	0x3fd5c5a8	1.6700945
