source/site/static/nets/480-90-30-1.pth (torch_old, 18395 bytes, 5 tensors)

lstm.weight_ih_l0 f4 [120, 4]
000000 55 ec 41 3f 8d 0f 76 3f 10 28 0e 3f 94 ee 87 3f
       0.7575124 0.9611748 0.5552988 1.0619683
000010 9c 2e 2f 3e 22 97 dd 3a 14 db 04 3e 7c 6f ee 3d
       0.17107624 0.0016906003 0.12974197 0.11642358
000020 36 9d c2 3e 98 77 f9 3d 78 07 d5 3e 26 26 a5 3e
       0.38010567 0.12181014 0.4160726 0.32255667
000030 3c ba 06 3e 71 74 83 be 18 e9 36 be 6d c4 1c be
       0.1315698 -0.25674775 -0.17862356 -0.15309305
000040 53 74 1c be 0b c0 82 bf 28 54 c2 be 8f c2 49 3e
       -0.15278749 -1.0214857 -0.3795483 0.19703124
000050 7f e2 21 be db 06 36 3e 15 25 26 bf 23 d3 00 bf
       -0.15809058 0.17776053 -0.6490033 -0.5032217
000060 8e 90 6d bd cc db a3 3d 1c 07 ef be a4 7b 2b 3f
       -0.057999186 0.08000907 -0.46685112 0.66985536
000070 67 61 be bd 14 a6 2e bf 19 8a 4e 3a 96 47 ab be
       -0.09295922 -0.68222165 0.00078788545 -0.33453053
000080 99 9a 8a bb 1e 2e a7 3d 2d ea ad 3e 41 10 f7 3b
       -0.0042298553 0.08163093 0.33967724 0.0075397794
000090 ea a8 05 bc 26 db ff be 60 7a d8 be 04 97 25 be
       -0.008157948 -0.49971884 -0.42280865 -0.16170889
0000a0 3e 11 ab be 88 ff 32 be e6 fc 47 bf da 2b d1 be
       -0.33411592 -0.1748029 -0.7812027 -0.4085377
0000b0 33 91 ce be d5 d7 49 be 4c a5 0d bf 18 ae 2e bf
       -0.40345153 -0.1971124 -0.5533035 -0.68234396
0000c0 41 6a a7 bd a7 2d 70 be 78 88 9f 3e 32 d1 1b be
       -0.08174563 -0.23454915 0.31158805 -0.1521652
0000d0 bf 3c 06 3f f9 e3 eb 3d 82 ac 01 3f 58 25 7c 3e
       0.5243644 0.11518092 0.5065385 0.2462362
0000e0 a1 6f 89 3d e1 60 64 3e 15 27 99 bd c2 35 a3 be
       0.06710745 0.22302581 -0.074781574 -0.3187695
0000f0 07 c4 49 3f 37 42 9b 3f 5f 26 4a 3f 8b 02 c1 3f
       0.7881474 1.2129582 0.789648 1.5078901
000100 f8 e3 d6 3e 1e 7a 6f 3f b3 0d 1f 3f 02 2e 21 3f
       0.419708 0.9354571 0.6213028 0.6296083
000110 7b 9a b4 3d b8 6e 38 3f 8d 03 3c bf b2 30 3a be
       0.08818527 0.72043943 -0.7344292 -0.18182638
000120 27 3d 54 be 2a 93 0b bf 91 d6 8f 3e 81 eb e4 be
       -0.20726453 -0.5452143 0.2809339 -0.44710925
000130 7b 74 46 bf 6f 15 15 bf a3 f5 59 bf a0 a1 85 bf
       -0.77521485 -0.5823583 -0.85140437 -1.0439949
000140 8e 97 64 3d ab 3d ab 3e 83 9c 32 3e 36 9d 03 3f
       0.055808596 0.33445486 0.17442517 0.5141176
000150 ca 7d 79 3e 1a 5e 04 bc 13 bf 43 3f 8c f6 ca 3e
       0.24364391 -0.008079076 0.7646343 0.39641225
000160 7f f1 0c bf 5e 22 19 bf 31 1a 77 bf 58 b8 84 bf
       -0.55055994 -0.59818065 -0.9652434 -1.0368757
000170 00 82 07 3f b2 75 50 3f 9b 40 0f 3f 2b ac 4c 3f
       0.5293274 0.8142959 0.55957955 0.7995021
000180 27 57 d3 3e d4 b7 fe 3e 24 06 84 3e bc f9 58 3f
       0.4127743 0.49749625 0.25785935 0.84756064
000190 04 d8 c2 bf 28 ca de bf e8 e4 15 bf 36 6f c6 bf
       -1.5222173 -1.7405443 -0.5855241 -1.5502689
0001a0 19 ef 9b be 12 56 17 bf ae e0 63 be f6 8d 26 bf
       -0.30455855 -0.5911571 -0.22253677 -0.65060365
0001b0 6b 61 5d 3d ba 68 88 be 31 80 9d 3d c4 27 dd bd
       0.054047983 -0.266424 0.07690466 -0.107986
0001c0 5e 5e ef be 18 3d b8 be 47 e3 09 3e 00 16 ab be
       -0.46751684 -0.3598411 0.13465606 -0.33415222
0001d0 be a6 65 3e 39 1f 0c bb 34 76 08 3f 8d 0c e3 3e
       0.22426888 -0.0021380915 0.53305364 0.44345513
0001e0 f1 43 91 bc 33 85 94 bd a1 0f ad 3b a1 a0 84 3d
       -0.017732592 -0.07251968 0.005281404 0.0647595
0001f0 68 76 fa 3b 75 b8 42 be f5 c3 bb 3e e4 e1 97 bd
       0.0076435097 -0.19015677 0.3667294 -0.07416132
000200 33 3a 9f 3e ff c1 40 bd 21 ca 8d 3e 58 ce 86 3e
       0.3109909 -0.04706001 0.27693275 0.26329303
000210 0b 84 ce bd 3e 2d a8 be fa 28 9f 3e 56 80 0c 3d
       -0.10083779 -0.32847017 0.3108595 0.03430208
000220 dd ee 4a 3e 02 1b 4d bf 7d d4 06 3f 15 a7 cb 3e
       0.19817682 -0.80119336 0.5266798 0.3977591
000230 37 3f 47 bf 58 fe 27 bf 49 15 4b bf e1 47 79 bf
       -0.77830833 -0.6562247 -0.79329354 -0.97375304
000240 8c 0a 27 be b1 31 ec be 83 8e ca be 0a be 13 3f
       -0.16312617 -0.46131662 -0.39561853 0.5771185
000250 29 c4 ab be 7f 49 f8 be d8 be 08 be d9 8c 0b bf
       -0.33548096 -0.48493573 -0.13354051 -0.5451179
000260 ec c8 0f bd 9b b0 a3 be 29 d1 ea bd 9f 2c 4d be
       -0.035103723 -0.31970677 -0.114656754 -0.20036553
000270 cf a4 77 be e9 3f 02 bf dc f6 03 3c 88 0f d3 be
       -0.24183963 -0.5087877 0.008054461 -0.41222787
000280 30 6b b0 be ac 49 f0 be 36 de 36 be fc a4 2d bf
       -0.34456778 -0.46931207 -0.17858204 -0.6782987
000290 71 a1 e1 be 07 41 08 bf b2 db d8 be 9f a6 46 bf
       -0.44068483 -0.53224224 -0.42355114 -0.77597994
0002a0 59 4a 26 be e0 31 a6 be df 61 ab 3e 9e 3c 88 bd
       -0.16239299 -0.32459927 0.33473107 -0.06652187
0002b0 b1 ef 27 3e 20 50 a9 bb cb da d6 3e 34 1d 6d 3e
       0.16400029 -0.0051670223 0.419638 0.23155671
0002c0 23 ca 8e be c7 38 b0 be 83 90 54 3e 00 ef dc be
       -0.27888593 -0.34418318 0.20758252 -0.43151093
0002d0 95 1d 8a 3f 6e 7b 87 3f c7 d4 48 3f 85 be 85 3f
       1.0790278 1.0584543 0.7844967 1.0448767
0002e0 88 2f 01 3f 72 e2 1b 3f 76 50 b4 3e 2b 71 0d 3f
       0.5046315 0.60892403 0.35217637 0.55250806
0002f0 bb 15 5d be 9b a3 6b be 51 ef 14 be 78 eb 11 bf
       -0.21590321 -0.2301163 -0.14544417 -0.5699992
000300 09 14 4c be b8 73 ef be 41 04 3d 3e ef 3d f9 bd
       -0.19929518 -0.46767974 0.18458654 -0.12170016
000310 36 76 c7 be 81 44 0e bf d4 05 01 bf 39 fd 6a bf
       -0.38957375 -0.5557328 -0.5039952 -0.9179264
000320 42 82 23 3e 47 36 f8 bc ee 40 22 bc 60 41 12 3e
       0.15967658 -0.030299319 -0.009903176 0.14282751
000330 29 90 bb 3d e9 20 92 be 4b 8b ee 3e ee 55 c2 bd
       0.09158356 -0.28540733 0.46590647 -0.09489046
000340 99 95 71 bd c9 d6 b7 bd b9 94 30 3e 51 2f e5 be
       -0.058980558 -0.08976514 0.17244233 -0.44762662
000350 fd 80 5c 3f 6b ba 2d 3f 2f 6d 7f 3f 8d 4a 46 3f
       0.8613432 0.67862576 0.99775976 0.77457505
000360 4c 19 84 bc 50 ec 2c be ee 53 70 3d 50 59 31 be
       -0.016125344 -0.16887021 0.05867379 -0.17319226
000370 58 52 1c 3e 9f 3d 03 bf fa 8b 1f 3f 65 42 e7 3d
       0.15265787 -0.512659 0.6232296 0.112919606
000380 c6 01 bb 3d 7e d9 14 be 8b 3d 8c 3d 07 49 fe 3d
       0.09131198 -0.14536092 0.06847676 0.124162726
000390 7a 02 e5 bd 5d 09 d0 be a9 b9 ae bd 6c f0 6f be
       -0.11182113 -0.40632144 -0.085315056 -0.23431557
0003a0 d0 33 53 be 1a 21 f8 be f8 fc 92 bd 06 97 b3 bd
       -0.20625234 -0.48462754 -0.07177156 -0.0876904
0003b0 ad e9 63 3e 33 54 b6 bd 68 26 be 3e 0e 8b 78 3e
       0.22257109 -0.089027785 0.37138677 0.24271795
0003c0 71 24 57 3f 47 c2 87 3f 81 f2 fc 3e 31 b3 80 3f
       0.8403998 1.0606164 0.49403766 1.0054685
0003d0 95 19 0f be 48 75 da be f7 d6 a3 be 00 71 2c be
       -0.13974603 -0.42667603 -0.31999943 -0.16839981
0003e0 35 66 1b bf 4a 1b 2d bf 51 85 fa bd a4 39 05 bf
       -0.6070283 -0.67619765 -0.12232459 -0.5204108
0003f0 1d a4 8f bd 87 c9 d9 3e 3a c6 9a bd 47 89 34 bf
       -0.07013724 0.42536566 -0.0755734 -0.7052197

lstm.weight_hh_l0 f4 [120, 30]
000000 7d 2f b8 be a0 f1 03 bf a0 a1 32 3e 59 f3 21 3f
       -0.3597373 -0.51540565 0.17444468 0.63261944
000010 8e 6b 73 3f 43 a5 a6 3e 7e d9 6d 3f ba e8 f9 be
       0.9508599 0.3254796 0.9290999 -0.4881037
000020 10 dc ba bd 1f 7e 49 3f 12 90 88 bf b0 3f 1c bf
       -0.09124005 0.7870807 -1.0668967 -0.6103468
000030 e1 93 99 be e1 49 50 be 03 1c 32 3d aa 45 a3 3e
       -0.29995635 -0.20340683 0.043483745 0.31889087
000040 3c ec 34 bf f2 31 e7 bf be 63 35 3f fa 50 8d bf
       -0.70672965 -1.8062117 0.7085532 -1.1040337
000050 e1 d7 01 3f cc 4c 13 3e 86 5a af 3f 0f 1c 5c be
       0.5072003 0.14384764 1.36995 -0.21495079
000060 4e 21 83 3f 10 58 f1 bd 22 d2 60 3d 34 fa a2 bd
       1.0244539 -0.11784375 0.0548879 -0.07957879
000070 67 31 6f 3e 21 fd ee 3e 00 1c ab bf b3 53 0b bf
       0.23358689 0.46677497 -1.336792 -0.5442459
000080 81 08 37 3f bd 68 07 3f 02 64 d8 3f 06 47 9a 3f
       0.7149735 0.5289419 1.690552 1.2052925
000090 31 f2 83 3f b4 d7 be be b7 40 56 be d9 c6 46 3f
       1.0308286 -0.37273943 -0.20923124 0.7764717
0000a0 f6 57 37 bf ce c8 0e 3f 92 ff 1a bf fe 0e 1e be
       -0.7161859 0.55775154 -0.6054622 -0.15435407
0000b0 00 ef 11 3f cb e0 ae 3f 93 4f 41 bf 2b dc 14 3e
       0.5700531 1.3662351 -0.75512046 0.14537112
0000c0 f9 4c 1e bd c5 1b f8 bf a1 22 b3 3e e1 16 af bd
       -0.038647626 -1.9383475 0.34987357 -0.08549286
0000d0 5f 11 86 3f be bc 8b bf aa 96 ae 3f 59 6a c3 be
       1.0474051 -1.0916975 1.3639729 -0.38167074
0000e0 10 d6 38 bf f2 b0 23 be 5d 17 03 bf c8 77 ba 3e
       -0.72201633 -0.15985468 -0.51207525 0.3641951
0000f0 fb ed f7 be e9 6d 36 bf 66 1b ca 3e c0 57 5d 3f
       -0.48423752 -0.7126146 0.39474028 0.8646202
000100 8c 71 8f 3f 9b 2f 0a 3f fe e6 70 3f e3 e2 38 bf
       1.1206527 0.5397889 0.94102466 -0.722212
000110 23 5f a2 be aa fe 48 3f 35 24 0c be 5e ed b1 3e
       -0.3171321 0.78513587 -0.13685687 0.3475141
000120 75 eb 0a bf 1e 1e 7d bd ca 0a 2c bd 69 b1 67 3f
       -0.5426553 -0.0617963 -0.042002477 0.9050508
000130 3b da 2a bf 63 64 a1 bd 3f e8 46 3d ea d5 91 bf
       -0.66739243 -0.07880475 0.04856133 -1.1393406
000140 64 72 06 3e 49 a8 15 bf 32 b9 c8 3e 64 9d 3d bf
       0.13129574 -0.5845991 0.39203793 -0.74068284
000150 23 1e ab 3e c2 4c 0e 3f 4e d0 66 bf bb da c0 be
       0.3342143 0.55585873 -0.901616 -0.37666878
000160 d7 60 ff be 09 1f ac 3e 67 4c 22 be 3d 31 d3 3e
       -0.4987857 0.33617428 -0.15849458 0.41248503
000170 cd fb da be ff b6 eb 3e f8 44 60 3f ad 61 a9 3f
       -0.42770234 0.46038052 0.8760524 1.3232933
000180 04 9c b3 3d 3b 8f 01 bf da 5e 6a bf 39 9f 29 3f
       0.08769992 -0.5060918 -0.9155098 0.6625858
000190 77 04 06 3f 92 cb 85 3f 8e 96 00 bf b6 b5 0d bf
       0.5235056 1.045275 -0.5022973 -0.55355394
0001a0 61 59 d0 3e f4 dc ba bd fd 17 2a 3e 2a f8 1b be
       0.4069319 -0.09124175 0.16610713 -0.15231386
0001b0 b6 c5 65 3f 61 01 8d bf 53 6f 07 bf ff d9 c6 bc
       0.8975481 -1.1016046 -0.5290424 -0.02427387
0001c0 3e a1 f5 3e ed 5e 8e bf 9d 71 a8 3d 25 7d 37 3f
       0.4797458 -1.1122719 0.08224795 0.7167533
0001d0 3c dd 70 bf f1 3e 5e be e1 f0 9b bf bf b0 f2 bd
       -0.94087577 -0.21703698 -1.2182885 -0.11850118
0001e0 2e 3f ac 3c e2 e4 4d 3e 6f 02 22 bf d2 e0 2f 3f
       0.02102622 0.20106843 -0.63284963 0.68702424
0001f0 5e fc 20 3f d9 4b d5 3f 0b 2e 4c 3f 67 21 fc be
       0.6288508 1.6663772 0.79757756 -0.49244234
000200 af 90 1d bf 3f a9 29 3f c0 5a a1 3f b7 0d 71 3f
       -0.61548895 0.66273874 1.260582 0.9416155
000210 67 89 c4 be 6e b6 e3 be 24 d4 c2 3e 3b 11 88 3e
       -0.3838608 -0.4447512 0.38052475 0.26575646
000220 3d 5a 40 bd ed 3b 1a 3f a8 4d 7f 3f 71 67 97 bf
       -0.046961058 0.6024769 0.9972787 -1.1828443
000230 9b 5a 37 3d 56 91 00 bf 9d 0a 57 3f 41 11 91 3c
       0.044764142 -0.50221765 0.8400057 0.017708423
000240 e1 3d 0e bf 06 29 e3 bd 0f 66 6b bf c7 b3 15 bf
       -0.5556317 -0.11091809 -0.91952604 -0.58477443
000250 7c 42 51 bf 03 b3 98 3e d4 f0 6b 3f b0 85 ce 3e
       -0.8174207 0.29824075 0.9216435 0.4033637
000260 2d f3 80 bf 06 7d c1 bd b6 97 86 3e 48 93 72 3f
       -1.0074211 -0.094476745 0.2628762 0.94755983
000270 78 7d a8 be 0d de ea be 26 85 eb 3d 27 fe 1a 3f
       -0.32908225 -0.45872536 0.115000054 0.60544056
000280 65 6e b2 3d 15 26 4a 3f df f2 29 3f 6f 5d 9b be
       0.08712462 0.7896436 0.66386217 -0.30344722
000290 70 d4 60 3e dc 5e 29 bf 95 7f eb 3f cd f9 64 3f
       0.21956038 -0.6616037 1.839831 0.89443666
0002a0 ad 01 4d 3f 73 08 59 bf b9 ff 0e bf fc 93 51 bf
       0.8008068 -0.8477852 -0.5585895 -0.8186643
0002b0 9c 20 94 3e c2 07 e5 be d5 1e a0 be c0 bc 8d 3e
       0.2893113 -0.4473248 -0.31273523 0.27683067
0002c0 d0 a0 41 bf ce 63 82 3f d4 fd 07 3d 0d de 24 3f
       -0.75636005 1.0186708 0.033201054 0.6440132
0002d0 9c 6c 92 3f d9 9e fe be 46 46 ca 3e 8a cb e2 3d
       1.1439395 -0.49730566 0.3950674 0.11073978
0002e0 68 3b 07 3e ea e4 9a 3d fc 07 24 3f ff c2 a9 bd
       0.13206255 0.07563193 0.64074683 -0.08289146
0002f0 f3 0c 56 3e 3c 25 0c 3e 0a b0 40 3f 29 cb 34 3e
       0.20903377 0.13686079 0.75268614 0.17655624
000300 74 8b 7d be e9 7f 1c 3e 82 7e d5 3e 9e ae 61 bf
       -0.24760228 0.15283169 0.4169808 -0.8815707
000310 d9 cd 49 3f b9 6e 68 3f be 27 13 3e f8 0e 4e bd
       0.78829724 0.9079395 0.14370629 -0.050307244
000320 06 5d f0 39 f3 ea 0a bd 7c 78 29 bf 31 94 81 bd
       0.00045845675 -0.03391547 -0.6619947 -0.063270934
000330 2b 15 83 bf 73 e2 44 be 57 d1 49 be 94 17 26 bf
       -1.0240835 -0.19227009 -0.19708763 -0.6487973
000340 74 16 ed bd d8 12 1b 3d 19 f4 30 bf 42 d9 a6 bf
       -0.11576548 0.037859768 -0.69122463 -1.3035052
000350 79 71 8d 3f 43 04 02 bd ef 98 37 3f e0 7f b7 3f
       1.1050254 -0.031742346 0.71717733 1.4335899
000360 86 ab 1b 3f ae f9 0c bf 5d 5a be be 27 bb bd 3e
       0.608086 -0.5506848 -0.37178317 0.37056848
000370 d3 da ef 3b 89 46 61 3f bc b6 4a bf 26 14 ae be
       0.007319787 0.87998253 -0.7918508 -0.33999747
000380 dc f6 34 3f e5 36 87 3f 53 5c 18 bf c6 6d 37 b9
       0.7068918 1.0563627 -0.59515876 -0.00017493134
000390 56 67 d2 3e 1e dd e5 bf 5d 29 7d 3e 07 3f 5b 3d
       0.41094464 -1.7958105 0.2472281 0.053526904
0003a0 f4 a3 b5 3f 00 c7 43 bf e8 88 52 3f 81 2f 9b 3e
       1.419066 -0.76475525 0.8224015 0.3030968
0003b0 b2 fa 96 bf cb 9d 90 bf 60 96 3d bf f2 b8 64 3f
       -1.1795256 -1.1298155 -0.7405758 0.89344704
0003c0 3e f1 e3 be 69 63 53 bf 38 74 4d 3f 28 6f a6 3e
       -0.4451999 -0.8257356 0.8025546 0.3250668
0003d0 22 c6 8f 3f 17 77 0d 3f 9b 4d a5 3f 7e 96 90 bf
       1.123234 0.5525984 1.2914308 -1.1295927
0003e0 4e 7f 92 bf 98 79 16 3f ac eb fd bd 56 13 ed 3e
       -1.14451 0.5877929 -0.123984665 0.46303815
0003f0 df 19 bd be 2a 9b 14 3e a3 02 06 3e fd c4 74 3f
       -0.369338 0.14512315 0.13086943 0.9561308

lstm.bias_ih_l0 f4 [120]
000000 f8 75 60 bf bd e7 02 c0 90 cf fb bf fc 55 b5 bf
       -0.87680006 -2.0453942 -1.9672718 -1.4166865
000010 fa 41 94 bf 7e 6b dd be 79 e2 b1 3d 90 1b f2 bf
       -1.1582634 -0.43246073 0.08685774 -1.8914661
000020 40 7b e7 bf 0e 6a b4 bf 4f 9d c9 bf c5 69 36 bf
       -1.8084488 -1.4094865 -1.5751132 -0.7125514
000030 9c 61 d0 bf 2a d1 1a c0 12 f0 d7 bf 40 26 20 bf
       -1.6279788 -2.4190164 -1.6870139 -0.62558365
000040 08 ef 64 bf b9 27 8f 3c 8c 59 12 c0 be 6d fa be
       -0.8942723 0.017474996 -2.2867155 -0.48911852
000050 7d 69 bd bf 91 68 1d c0 fb c7 b8 bf e5 f2 97 bf
       -1.4797817 -2.4595072 -1.4436029 -1.1871
000060 d6 b4 23 bf cd 7b 8f bf ea 1f 97 bf dc 5b ac bf
       -0.6394781 -1.1209656 -1.1806614 -1.3465533
000070 23 3a c2 bf 68 59 e2 bf 1a dd 9f bf cd a3 ca bf
       -1.5173992 -1.7683535 -1.248935 -1.5831238
000080 e1 d2 e4 bf 16 8f dd bf bb 5e bf bf 5d fe bf be
       -1.7876855 -1.7309291 -1.4950784 -0.3749875
000090 67 4e a1 bf 52 66 ca bf 3e 58 c9 bf ce d0 b7 bf
       -1.2602051 -1.5812476 -1.5730054 -1.4360597
0000a0 cc 7e 8a bf 26 c7 7b bf 65 a9 bd bf 0b 98 ed bf
       -1.0819945 -0.9835075 -1.481732 -1.8562025
0000b0 6c a7 a1 bf db 83 33 bf d7 fe 91 bf 5c 08 45 bf
       -1.2629218 -0.7012307 -1.1405896 -0.7696588
0000c0 88 ac e9 bf 75 0b 9a be ca ec b1 bf bd 91 dd bf
       -1.8255777 -0.30086866 -1.3900387 -1.7310101
0000d0 8c 59 a5 bf 4d 4a 90 bf e2 ac 99 bf cf 22 ac bf
       -1.2917953 -1.1272675 -1.2005885 -1.3448123
0000e0 64 6d 94 bf 57 26 79 bf 54 25 ac bf d4 19 bb bf
       -1.1595883 -0.97324127 -1.3448892 -1.4617257
0000f0 fd 11 a6 3e 3e 9b 04 3e 03 2b 9f bd 1f 66 74 3d
       0.324356 0.12949845 -0.07771876 0.059667703
000100 74 c3 fc be bc 93 92 bd 5a 97 20 be 53 09 98 3e
       -0.4936787 -0.07157084 -0.15682736 0.29694614
000110 bd a2 dc 3d 3f 24 80 be 45 74 9a 3c f6 7d 92 bc
       0.10773227 -0.25027654 0.01885427 -0.017882328
000120 70 63 a5 be fa ec 74 3a 1c 40 b1 3d 3b 6e 22 bf
       -0.32302427 0.00093431736 0.08654806 -0.6344945
000130 27 67 ec bd 6d e1 95 bb a7 d5 86 be 18 3f 8e 3e
       -0.11543112 -0.004573992 -0.2633488 0.27782512
000140 61 a7 59 bd 1a 2e 03 3e 94 93 57 be 98 1c e4 3e
       -0.05313814 0.12810555 -0.2105239 0.44553065
000150 6a 0e 18 3d 61 10 8c 3e ad a3 ad 3b af bd 95 be
       0.03712312 0.27356246 0.0052990527 -0.2924628
000160 d6 73 8b be e6 d6 34 3d ba 90 4e bf 58 ca e8 bf
       -0.27236813 0.044150256 -0.80689585 -1.818675
000170 13 65 16 c0 e7 cf c5 bf eb 6c b7 bf b1 37 c8 be
       -2.349919 -1.5454072 -1.4330114 -0.3910499
000180 5c 77 81 bf 2c 68 e2 bf 2e cb 00 c0 e7 39 b3 bf
       -1.011455 -1.7688041 -2.012401 -1.4002045
000190 3e 0e bb bf 3d 29 65 bf b1 f7 e2 bf bd f5 15 c0
       -1.4613721 -0.8951605 -1.773184 -2.3431237
0001a0 07 23 be bf c6 a0 85 bf 9d 59 66 bf 50 26 d2 3e
       -1.485444 -1.0439689 -0.8998049 0.41044855
0001b0 d3 0b 21 c0 98 b4 1e bf 2d bd f1 bf ab 7b 0f c0
       -2.5163467 -0.61994314 -1.8885857 -2.241923
0001c0 1f ab 6f bf fd 3a ba bf 9a fc 82 bf d4 ec 8f bf
       -0.93620485 -1.4549252 -1.0233338 -1.1244149
0001d0 1f 5a 95 bf 9e cc b3 bf d4 38 c4 bf e3 ee de bf
       -1.1668128 -1.4046819 -1.5329843 -1.7416652

lstm.bias_hh_l0 f4 [120]
000000 ba 16 77 bf 93 30 e9 bf 42 2f fc bf cb 93 ca bf
       -0.96519053 -1.8217949 -1.9701922 -1.5826353
000010 03 d9 97 bf d2 19 06 bf 03 aa 9b 3d d2 b6 07 c0
       -1.1863102 -0.5238315 0.076007865 -2.1205335
000020 dc c1 eb bf ff 78 b6 bf 2f 3f b0 bf b0 48 2b bf
       -1.8418536 -1.4255675 -1.3769282 -0.6690779
000030 d0 ed f7 bf 15 4f 18 c0 5e 27 c3 bf 7e d7 2d bf
       -1.936945 -2.3798268 -1.5246389 -0.6790694
000040 df 2c 5c bf 13 46 3a 3e 15 f2 11 c0 01 bc 07 bf
       -0.8600597 0.18190794 -2.2804005 -0.53021246
000050 01 b3 c6 bf 39 7a 15 c0 f3 68 a5 bf 87 f2 96 bf
       -1.5523378 -2.3355849 -1.2922653 -1.1792763
000060 07 77 1e bf 43 6f a1 bf 80 6d 88 bf 67 a5 b8 bf
       -0.6190037 -1.2612079 -1.0658417 -1.4425477
000070 d8 e4 bd bf e2 4f df bf 3c 0a a4 bf c1 4d ec bf
       -1.4835463 -1.7446253 -1.2815623 -1.8461229
000080 d7 22 d6 bf 6f 2c d3 bf d9 50 9f bf 44 70 db be
       -1.6729382 -1.6497935 -1.2446548 -0.4285909
000090 aa 0b 95 bf 22 96 e1 bf 4c 0e c7 bf bd 7b a5 bf
       -1.1644185 -1.7623942 -1.5551238 -1.2928387
0000a0 0a 04 9c bf 67 ac 80 bf c2 31 c7 bf cb 0e f7 bf
       -1.2188733 -1.0052613 -1.556206 -1.930139
0000b0 0e 13 96 bf f5 d7 15 bf e4 50 63 bf 3a ef 1d bf
       -1.1724565 -0.5853265 -0.88795304 -0.61693156
0000c0 a2 00 ee bf 40 c7 cd be 1c f5 c1 bf 47 0c d5 bf
       -1.8593943 -0.40191078 -1.5152926 -1.6644372
0000d0 2f 58 a2 bf 23 e5 9a bf 38 f1 9d bf cc f2 aa bf
       -1.2683161 -1.2101177 -1.2339239 -1.3355346
0000e0 43 ee 8d bf e8 43 9b bf 5a 7f c5 bf 8f df c5 bf
       -1.1088337 -1.2130098 -1.542949 -1.545885
0000f0 f8 4c 4b 3e f3 8a a4 3d be d2 c8 bd b9 96 b6 3d
       0.1985358 0.08034315 -0.09805821 0.08915467
000100 d2 4b 87 be 3c 12 24 be 31 4a b2 be 96 f4 99 3e
       -0.26425034 -0.16022581 -0.3482223 0.30069417
000110 8b 46 28 3e d3 c8 87 be 66 11 1e be f5 de d1 bc
       0.1643316 -0.26520404 -0.15436324 -0.02561901
000120 31 31 93 be 96 8f 16 3c 52 27 a8 3e c6 78 2d bf
       -0.28748468 0.009189507 0.328425 -0.6776241
000130 76 c1 53 be e5 5c ac bb 7c 90 58 be 89 f3 45 3e
       -0.20679268 -0.0052600973 -0.21148866 0.19331183
000140 53 67 08 be b0 9f 08 3e 13 79 70 be ee e1 8a 3e
       -0.13320665 0.13342166 -0.23483686 0.27125496
000150 e2 49 bc 3d ca bd 7c bc fc c8 a9 3c 2a 1e 79 be
       0.091937795 -0.015426109 0.02072572 -0.24327913
000160 a9 75 d9 be 9f a3 0f 3e 53 d8 8e bf 53 46 f6 bf
       -0.4247258 0.1402726 -1.1159767 -1.9240211
000170 73 c0 19 c0 0f 1c b1 bf db db be bf b7 7f 8d be
       -2.4023712 -1.3836688 -1.4910845 -0.276365
000180 ac 41 9e bf 31 1c e2 bf 32 06 ed bf 44 c5 b0 bf
       -1.2363791 -1.7664853 -1.8517516 -1.3810201
000190 bb e9 b2 bf c6 e1 5b bf cd 4d d2 bf 49 79 16 c0
       -1.3977579 -0.8589138 -1.6429993 -2.3511527
0001a0 74 9d e6 bf 53 0c 6e bf d5 2e 71 bf a9 23 0a 3f
       -1.8016801 -0.92987555 -0.94212085 0.53960663
0001b0 a6 c9 15 c0 27 bf 19 bf ad 9f c4 bf dc e2 1d c0
       -2.3404326 -0.600573 -1.5361229 -2.4669714
0001c0 1e b5 9d bf ad 95 a6 bf 0c 47 8d bf cd 4c 90 bf
       -1.2320898 -1.3014427 -1.1037307 -1.1273438
0001d0 1c 98 ad bf 13 61 bd bf 66 0d c2 bf 37 51 e9 bf
       -1.3562045 -1.479525 -1.5160339 -1.822791

linear.weight f4 [1, 30]
000000 60 38 04 3f 5b 6d 30 be b5 67 20 be 8f b6 4b be
       0.5164852 -0.17229216 -0.15664561 -0.1989386
000010 69 81 86 be c8 22 0e 3f 3c 5e 92 be 1c a1 88 be
       -0.26270607 0.5552182 -0.2858752 -0.26685417
000020 40 d4 4a be 57 14 e7 3d 21 f3 02 3f 17 e2 cd 3e
       -0.1980753 0.112831764 0.51152235 0.40211555
000030 4b 48 cb 3e df f2 04 3e f0 2b 34 be b9 dd 20 bf
       0.39703593 0.12983273 -0.17594886 -0.6283832
000040 87 c3 80 3e 1d cf 12 3f 5e c2 57 3e 53 c6 28 bf
       0.25149176 0.5734728 0.21070239 -0.6592762
000050 80 d0 9d be 52 29 0a be 7e 12 c8 3e ba 47 13 3f
       -0.30823135 -0.13492325 0.39076608 0.5753132
000060 6a 40 9f be 4d f5 30 3e 45 9c 6b be 35 5b bc 3e
       -0.31103832 0.17281075 -0.23008831 0.36788335
000070 b8 55 da 3d a8 e3 65 be
       0.10660881 -0.22450125
