source/site/static/nets/60-20-30-1.pth (torch_old, 18395 bytes, 5 tensors)

lstm.weight_ih_l0 f4 [120, 4]
000000 ef b1 59 bd d4 e1 a7 3a 01 cb 80 3d ac 94 dc be
       -0.053148206 0.0012808391 0.0628872 -0.43082178
000010 62 a2 72 be 7f cc 0b bd 5d 39 39 be fa 1c 70 be
       -0.23694757 -0.03413057 -0.18088289 -0.23448554
000020 bd 6e 6c 3a 4f 0b 75 bd fd 77 9f be 95 10 58 be
       0.0009019187 -0.059825238 -0.3114623 -0.21100076
000030 c4 8a 18 3e 49 b6 07 bd 08 87 e0 3d 04 43 d8 3e
       0.14896685 -0.033132825 0.10963255 0.4223863
000040 58 ba f4 3c b1 c2 7a 3d 60 8f d8 bd 16 06 3f be
       0.029874012 0.06122083 -0.105742216 -0.18654665
000050 77 24 73 3e a1 ac da 3d 4c 3a d7 be 19 38 2e bf
       0.23744379 0.106774576 -0.42036664 -0.6805435
000060 a0 dd b2 3d e8 99 a6 3e 81 58 d3 3c ba 5f 1c 3e
       0.08733678 0.32539296 0.025799038 0.15270892
000070 1d 86 39 bc b1 e4 f0 3e 51 82 d2 be a8 f3 20 be
       -0.011323479 0.47049478 -0.4111505 -0.15717947
000080 33 74 6b bd 20 f2 4c be dd f4 84 bd ca a1 c9 3d
       -0.057483863 -0.20014238 -0.064920165 0.09845312
000090 67 e2 e7 3d 0b db 89 3e 6c 3b a4 3c 03 b0 b0 3e
       0.1132248 0.2692493 0.020047866 0.34509286
0000a0 25 9f 17 be d4 e7 84 3e 3c b3 d8 be 2b 20 87 be
       -0.14806803 0.2595812 -0.42324245 -0.2639173
0000b0 80 39 48 bc 16 61 00 bd 42 a9 57 3e 5a 58 27 3d
       -0.01222074 -0.03134259 0.2106066 0.040855743
0000c0 b0 08 f7 3d e0 74 27 be 77 28 28 bd c8 31 88 3e
       0.12062204 -0.16353178 -0.041054215 0.2660048
0000d0 2b 71 49 3a 89 96 6c bd 9c 7f 24 be 35 f6 24 be
       0.0007684405 -0.05776075 -0.16064304 -0.16109546
0000e0 78 70 0c 3e 85 13 75 bd 97 09 09 bf 02 f3 de be
       0.13714778 -0.05983307 -0.5353026 -0.43544775
0000f0 fb 43 8c 3d de 2d 64 3d de b5 12 be b8 66 0a be
       0.06848904 0.055707805 -0.1432719 -0.13515747
000100 50 5b 11 3d 90 c2 76 3e 80 eb e9 bd ad f2 c8 3e
       0.035487473 0.24097657 -0.11421871 0.39247647
000110 bb 2a 18 be b8 c4 73 3e d7 28 71 be 91 1d 8f 3e
       -0.1486005 0.23805511 -0.23550735 0.27952245
000120 86 d6 31 be 6a 6f 72 3e fb 61 54 bf 13 8e ce bd
       -0.1736699 0.23675314 -0.82962006 -0.10085692
000130 73 8f a5 bd 3b c6 9b bc df 49 0c 3e 3e d6 79 3e
       -0.080840014 -0.019015422 0.13700055 0.24398133
000140 25 3b 61 3e 19 9e 41 3f b0 72 a1 be 2d 20 15 bf
       0.21995218 0.7563186 -0.31532812 -0.5825222
000150 c4 8a dd 3c 2a 1f 8d be ab 8e 58 be bd 0a 2e be
       0.027043708 -0.2756284 -0.21148174 -0.16996284
000160 52 86 1d 3d 55 78 23 3e 50 da f4 be d7 db 4b bc
       0.038458176 0.15963872 -0.4782281 -0.012442551
000170 ef 5a 21 3d ea aa 5e 3d b4 54 29 be 41 4a cd 3e
       0.03939336 0.054362215 -0.16536218 0.40095714
000180 9f 47 1a 3e e9 8b 96 3e a3 d8 b8 3b 31 60 0f 3e
       0.15066384 0.29403618 0.0056410595 0.14001538
000190 0e 3e ee bd aa 3e a6 3d d1 3d 47 be 40 80 52 3b
       -0.1163293 0.08117421 -0.19457175 0.00321199
0001a0 e2 65 19 3d 6d 24 5c bc 3d ab 83 bd d3 0d 99 3e
       0.03745068 -0.013436419 -0.064291455 0.2989336
0001b0 09 72 07 3e 44 97 92 3e 7b d9 59 be 58 13 d7 3e
       0.13227095 0.28631032 -0.21274368 0.42006946
0001c0 42 cf 12 be 10 01 8a 3e 13 9f 07 be 9a be dc be
       -0.14336875 0.26953936 -0.13244276 -0.43114167
0001d0 d0 8e 33 be 96 40 08 3e 27 46 47 be 84 1c f0 3d
       -0.17534947 0.13305888 -0.19460355 0.11724189
0001e0 68 65 32 be cf d9 23 ba e3 41 30 3c 91 a1 22 be
       -0.17421496 -0.00062504126 0.010757896 -0.15881945
0001f0 83 b4 70 3d 06 50 60 bd fa 54 44 bc 1e 96 b7 be
       0.0587659 -0.054763816 -0.011983151 -0.35856718
000200 83 c9 85 be 33 e4 3c be b6 8e e7 bd 51 8f c8 be
       -0.26130304 -0.18446426 -0.11306517 -0.39171842
000210 4e 29 44 3d 90 49 19 3e 9c c6 8d 3e 76 a5 07 3f
       0.047890954 0.14969468 0.2769059 0.5298685
000220 fd 65 91 bd 4f 37 4a 3d e8 70 33 bd 6a 84 51 3b
       -0.07099531 0.049369153 -0.043808848 0.0031969794
000230 a5 ff 29 be f1 81 62 bc 09 03 25 be 4a 4a 15 bf
       -0.16601427 -0.013824926 -0.16114439 -0.5831648
000240 4a 3b 3e 3e 1b c9 80 bd 31 c5 14 3e cb ed 42 3e
       0.18577304 -0.06288358 0.14528348 0.19036023
000250 89 3a 37 bd 68 af 31 be 51 46 54 bd 94 cf 15 be
       -0.044733558 -0.17352068 -0.05182487 -0.14629966
000260 50 a4 bf bd 8f ad 98 3d 43 90 bb bd 2e 8d 2a 3e
       -0.09357512 0.07454979 -0.09158375 0.16655418
000270 ca 90 82 bd e2 6e 61 3e 1e f4 97 3e 4f 7a ae 3e
       -0.063752726 0.22014955 0.29678434 0.3407769
000280 f1 bd bd 3d 15 7f 26 3c b9 9e f7 bd 8f f6 07 be
       0.09264744 0.010162135 -0.12090821 -0.13277648
000290 9a f7 0c be 72 42 27 be f3 0f ee 3d cb 7a 4a 3e
       -0.13766328 -0.1633394 0.11624136 0.19773404
0002a0 94 71 9f 3d bd b2 6b 3c 2a 76 57 3d f9 81 96 3e
       0.07785335 0.014385876 0.052602924 0.29396036
0002b0 7f 7a aa bd ae f7 f4 bd b0 05 95 bc 72 b0 70 bd
       -0.083241455 -0.11961304 -0.018191189 -0.05876202
0002c0 a7 19 28 be dd ba 89 be 2e 08 8c bd fb 37 f1 be
       -0.16416036 -0.26900378 -0.06837498 -0.47113022
0002d0 4a 2b f3 bb cd a3 16 bc 15 ce fa bd da e7 01 be
       -0.007420932 -0.009194327 -0.12246338 -0.126861
0002e0 5f 54 f0 bc ae eb 32 3d 13 37 0e 3e 2d 7c c0 3d
       -0.029337106 0.043681793 0.13888197 0.09398685
0002f0 e4 07 c8 bc 31 bd e0 bc dd 03 22 bd d9 65 80 3e
       -0.024417825 -0.027433963 -0.039554466 0.25077704
000300 1e 5c b2 be b5 74 33 be cd 20 21 be e3 8b 2f 3e
       -0.34835905 -0.17524989 -0.15735169 0.17143206
000310 38 a3 2a bd 98 00 a0 bd fd 8e 6d 3d e8 59 23 3e
       -0.041659564 -0.07812613 0.057997692 0.15952265
000320 a2 46 6a 3e 3a 6e b6 3e 88 6f 29 3e f6 df 03 bf
       0.22878507 0.3563097 0.16546452 -0.5151361
000330 6b 24 81 be 56 79 53 be d4 5a bf bd 90 e5 b6 bd
       -0.25223097 -0.20651755 -0.09343496 -0.08930504
000340 8d 7e 8e bd 13 93 ab bc 81 65 b3 3c 1d 4a c2 3d
       -0.069577314 -0.020944154 0.021898987 0.09486792
000350 7a e9 70 3d 40 45 34 3e 8b 00 18 3e b9 70 e8 3e
       0.05881641 0.17604542 0.14843957 0.453985
000360 60 c7 0d 3e 01 6e 86 bd e3 cd 48 ba e7 30 9c 3e
       0.13845587 -0.0656395 -0.0007660074 0.3050606
000370 06 aa 0e bd db 19 19 3e 46 ef 26 be 85 d6 99 3d
       -0.034830116 0.1495127 -0.16302213 0.075116195
000380 55 7e 2e 3d ce ff a4 3d 0d d2 f2 bc c1 bf 0f 3e
       0.04260095 0.08056603 -0.029641176 0.14037992
000390 c3 74 ce bd 6a 6e 81 3e 08 c4 e3 3d e6 14 03 3f
       -0.10080864 0.25279552 0.11121374 0.51203763
0003a0 b7 98 32 be e2 c7 29 be 71 ce d7 bd a5 e1 62 be
       -0.17441069 -0.16580155 -0.105374224 -0.22156389
0003b0 87 ea e9 bd ac f4 be bd 6b 07 bc bc 6f fa 5f 3b
       -0.11421686 -0.09324011 -0.022952756 0.003417637
0003c0 f9 03 d8 bc ef 55 08 be 54 55 00 3d 8f 3f 20 3e
       -0.026369082 -0.13314031 0.031331375 0.15649246
0003d0 56 6e 3f 3e e2 45 24 3e 24 ee dd 3d aa e8 43 3e
       0.18694434 0.16042283 0.10836437 0.19131723
0003e0 05 d6 37 3b 5b 25 b9 bc 8a 58 3b bd 0e 48 28 be
       0.002805115 -0.02260082 -0.045738734 -0.16433737
0003f0 b7 c0 e1 bd 82 2b 02 3d e0 c6 4b be 8b db aa bd
       -0.110230856 0.031779774 -0.19900084 -0.08342656

lstm.weight_hh_l0 f4 [120, 30]
000000 36 2a f4 3a 23 d0 31 3e 8f 13 e9 bc cf c5 3e 3c
       0.0018628302 0.17364554 -0.02845171 0.011643841
000010 04 53 d2 bc d2 26 c5 3d fc 62 3c be cf c4 2f 3e
       -0.02567435 0.09626545 -0.18397135 0.1716492
000020 26 9a 94 3e 9b 6b 7b be e1 ce a3 be 82 ed a7 bd
       0.29023856 -0.24552767 -0.31993774 -0.08199598
000030 34 d5 80 3c 89 3d 24 3a f8 52 a6 be 69 b9 d3 bd
       0.015726663 0.0006265273 -0.32485175 -0.103380986
000040 49 8c f8 bd bf 5a 45 3e 16 1e 11 3e 94 a8 1f 3e
       -0.12136132 0.19272898 0.14171633 0.15591651
000050 74 da 17 be 80 15 42 bd 54 b4 4f bd 63 4b 1c 3c
       -0.14829427 -0.047383785 -0.050709084 0.009539458
000060 d0 8d 8e bc 2b b5 00 be b5 59 5b be c5 16 bc 3b
       -0.017401606 -0.1256911 -0.2142094 0.005740019
000070 8e fc c4 bd bb 12 0f be 5b 4f f3 bd 40 2e f7 3d
       -0.096184835 -0.13971989 -0.1188037 0.12069368
000080 49 79 20 bd 34 05 4c 3d 22 a9 0b bc 71 01 fb 3d
       -0.039178167 0.04980965 -0.008524211 0.12256134
000090 da 37 fb bd a7 14 87 3d 89 70 0d 3e c3 05 30 be
       -0.12266512 0.06595736 0.1381246 -0.17189698
0000a0 b7 e6 86 3d b9 a3 ce 3c b4 6e 77 3e b8 df 9c 3d
       0.06586974 0.025224553 0.24163324 0.076598585
0000b0 8d be b0 bd d4 9a 55 3e a3 5d 24 be 34 98 cf 3d
       -0.08630095 0.20859843 -0.16051345 0.10136452
0000c0 28 2e 0f 3e 5c 36 f2 bd 96 4f 51 3d 05 45 f7 bb
       0.13982451 -0.118267745 0.05110129 -0.0075460696
0000d0 bd 23 a3 bc fc b2 04 bb 31 e1 25 3e 0f 05 46 be
       -0.019914502 -0.0020248285 0.16199185 -0.19337867
0000e0 ff 98 1d bc dc ca 03 be bf 66 36 3e 19 9c 32 be
       -0.009618997 -0.12870353 0.17812632 -0.17442359
0000f0 fd ea 66 be d0 1e aa 3d f3 5b ad bd a1 24 36 bb
       -0.22550578 0.08306658 -0.084648035 -0.0027792829
000100 53 49 d5 bd d1 92 4d bd 55 8f 59 be 61 45 1b 3e
       -0.10414376 -0.050188843 -0.21246083 0.15163185
000110 8c e9 69 bd 6d 76 ad 3d 08 23 2a be 69 0e e4 bd
       -0.057107493 0.084698536 -0.16614926 -0.11135561
000120 25 0b 44 3d cb 9d b6 3d 5b e7 0b 3e 7e 43 44 3e
       0.04786219 0.08916815 0.13662474 0.19166371
000130 a7 8a 48 3e f8 81 2d 3e ca 49 ee bd 2f a8 62 3d
       0.19584142 0.1694411 -0.11635168 0.055336174
000140 66 50 c5 bd c3 33 6f bd 1e b6 21 3d ca d7 bb bd
       -0.096344754 -0.058398973 0.03948032 -0.09172018
000150 d1 46 38 bd 5c 81 15 be 94 a1 0b be c3 a4 59 bc
       -0.04498941 -0.14600128 -0.13635856 -0.013283911
000160 6b ea 04 be e4 76 5e be 98 14 38 3d d4 a5 5e 3e
       -0.12980048 -0.2172504 0.044941515 0.21742946
000170 30 e5 8d bd fd 3a 0a 3e 34 ed 01 bd 66 66 b1 3d
       -0.0692848 0.13499065 -0.031720355 0.08662109
000180 95 d7 35 3d b5 7d 29 3e 53 c6 9c 3d f4 c2 85 bd
       0.04439505 0.1655186 0.07655015 -0.06531325
000190 d9 08 33 bc 2c 89 b7 bd b9 07 81 be ad 49 28 3c
       -0.010927402 -0.0896171 -0.25201204 0.010271472
0001a0 7f c4 30 3e f6 ef 57 be fc 15 c6 3c 5b 7b 8d 3d
       0.17262457 -0.21087632 0.024180405 0.06908294
0001b0 35 0a a0 be 0b 67 83 bc 94 51 a5 be 2f 31 2a 3d
       -0.31257787 -0.016040346 -0.32288802 0.04155081
0001c0 38 b5 bc bd f6 33 82 be aa e7 66 3d f4 1a fa 3d
       -0.09214252 -0.25430268 0.056373276 0.12212172
0001d0 c0 d9 93 be 8b b3 33 bd cb 87 3e be 25 c7 83 3e
       -0.28877068 -0.043872397 -0.18606488 0.25737873
0001e0 b6 06 1b bd 4e f8 bc 3d df b3 93 be 9c 19 e8 bd
       -0.037848197 0.09227048 -0.28848168 -0.113330096
0001f0 c4 35 82 3e d3 3f 28 bd a5 9f 5a 3e b4 74 ab 3e
       0.25431645 -0.041076493 0.21349962 0.33487475
000200 f4 98 69 3d 56 e8 17 be 41 41 5b be 6a 7d f5 3b
       0.057030633 -0.14834723 -0.21411611 0.007491757
000210 c2 a5 45 3d 92 6f 28 be 06 57 98 bc 27 30 e5 bd
       0.048253782 -0.1644881 -0.018596184 -0.11190825
000220 d8 06 82 bd c7 d1 1c 3e 8c 08 ee 3d 9d 58 21 3e
       -0.063489616 0.15314399 0.11622724 0.1575646
000230 5c 55 ab 3d 77 62 3f be e7 aa 90 bd 73 21 04 3e
       0.083658904 -0.18689905 -0.07063847 0.12903385
000240 e3 01 db bd 7b c9 f7 3c 2c bc 1b be 5c da 7a 3d
       -0.10693719 0.03024744 -0.152085 0.0612434
000250 bd 5e b1 bd 17 ab d8 3d 99 24 28 bc a6 50 b9 bd
       -0.08660648 0.10579508 -0.010262632 -0.090485856
000260 63 38 94 3d 9f da 93 3d 33 90 55 be c0 23 a7 3e
       0.072373174 0.07219433 -0.20855789 0.32644463
000270 23 8c 13 be 2f f7 8a 3e 5c cf 02 3d ab 4a 1d bc
       -0.14408927 0.2714171 0.031936035 -0.009600322
000280 fe a9 2d be 64 0a 01 3e b8 21 00 bd cd 87 1f bd
       -0.16959378 0.1260162 -0.031282157 -0.03894787
000290 5d f0 b9 3e db 7c 28 3e e4 e4 2d 3e ce 00 9a bc
       0.36316195 0.16453879 0.16981846 -0.018799212
0002a0 9c ad fb bd 23 43 0b 3d 22 05 d1 bc 9e 21 07 be
       -0.12288973 0.033999573 -0.025515143 -0.13196418
0002b0 d7 61 17 be b9 df 2e 3e ab e7 98 bc a9 49 95 bd
       -0.14783417 0.17077531 -0.018665155 -0.0728944
0002c0 54 bf 17 be 66 14 8a 3d e4 b2 38 3d 55 51 3a be
       -0.1481908 0.06742172 0.04509248 -0.18195088
0002d0 74 2f b3 3d 60 f4 86 be 83 04 8b 3e d5 8c 2a bc
       0.08749285 -0.26358318 0.2715188 -0.010409554
0002e0 09 10 a8 bb ca ed 54 3e 07 7d c1 bd 83 1e 12 3e
       -0.0051288647 0.20793834 -0.09447675 0.14269452
0002f0 96 a0 fd bd 22 04 b3 3d 0f 07 21 bd a9 6d 4e 3d
       -0.12384145 0.08741023 -0.039313372 0.05039755
000300 da 68 4a 3e 2b e2 9e bd 41 a7 95 3e 7d 08 30 be
       0.1976656 -0.07757982 0.29229167 -0.17190738
000310 fd 97 44 3d 2c 8e f3 3d 2b fe d2 bd 48 b6 ff bd
       0.04799651 0.118923515 -0.10302385 -0.12485939
000320 f3 b8 cd be e0 6d bc 3e c2 1b 7b 3d 6c 88 5d 3d
       -0.40180168 0.36802578 0.06130577 0.05408518
000330 c9 c1 00 be 28 05 c6 3d b8 4b df bd 1e 4c 18 be
       -0.12573923 0.09668952 -0.10903114 -0.14872786
000340 78 75 77 3e 2f 9a 67 3c 27 bf 2e be 67 aa 35 be
       0.24165905 0.014135881 -0.17065106 -0.17740785
000350 a0 75 f5 3d 7b 08 52 3d df fd 5b be af 39 ac 3e
       0.11985326 0.05127762 -0.21483563 0.3363776
000360 a7 31 12 3d 00 f5 10 be 82 3b 39 be 55 d2 54 3e
       0.035691883 -0.1415596 -0.18089107 0.2078336
000370 7c 8e 5c 3e c8 26 a4 3e 42 42 3c 3e 1a 8f 94 3e
       0.21538728 0.32060838 0.1838465 0.29015428
000380 51 a4 72 3e ca 38 c7 be cc bb 0e bd 43 bf 01 3e
       0.23695494 -0.38910514 -0.034847066 0.12670617
000390 3d 9b f6 3c ca 8f 9a bd 4e f1 b3 bd 66 1f 8c 3e
       0.03010332 -0.07546957 -0.087862596 0.27367705
0003a0 25 77 39 3d 8d ec 48 3e 84 f5 92 bc 39 c8 ad 3e
       0.04527964 0.19621487 -0.017939337 0.3394182
0003b0 ca 2c 34 bd a7 06 9f 39 7e 50 14 3e 72 1e b2 3b
       -0.043988027 0.000303318 0.1448383 0.0054357583
0003c0 43 aa 5a be 85 d7 d0 3d a6 17 ca 3d d8 b6 ef 3d
       -0.21354012 0.10197357 0.09867792 0.117047966
0003d0 e4 d0 08 bd 45 8d a1 3d 03 77 a6 3d b9 16 14 be
       -0.03340234 0.07888273 0.081281684 -0.14461793
0003e0 72 21 e6 bd fe 09 49 3b 55 2e 48 3e 98 85 e6 3d
       -0.11236848 0.0030676122 0.19548924 0.1125595
0003f0 ed ac 8f 3d dd 41 56 3c 51 8c bb 3e 19 7c 1f bd
       0.07015405 0.0130772265 0.3663049 -0.038936708

lstm.bias_ih_l0 f4 [120]
000000 d2 7d cc 3c ff ed 9a bd bd dc 6b be 63 b0 d8 bd
       0.02496234 -0.075649254 -0.23033424 -0.10580518
000010 d6 fe 1d be 56 00 17 bd 12 ca 27 bc 22 21 8c 3e
       -0.15429243 -0.036865555 -0.010241048 0.27369028
000020 35 0e c0 bd 9b 7d 5b 3e f6 e3 35 3e 3a 61 a0 bd
       -0.0937771 0.21434633 0.17762741 -0.078310445
000030 36 cf 18 be e2 09 fc bd f6 e7 13 3e f8 f1 27 bd
       -0.14922795 -0.123065725 0.14443955 -0.041002244
000040 8e d6 34 3e 02 11 e1 3d 37 78 d7 3e 38 a8 8f bd
       0.17659971 0.10989572 0.42083904 -0.07014507
000050 dd 0e e9 3e 95 33 05 3e ca 55 47 bd ba e6 05 be
       0.45519152 0.13007958 -0.0486658 -0.13076296
000060 00 0f c7 3b 41 6a f0 bd e1 32 98 3d 9f d0 1c 3e
       0.006074786 -0.11739016 0.074315794 0.15313958
000070 c4 39 48 3e eb 9d 32 be cf 14 91 be 92 34 af 3c
       0.19553286 -0.17443053 -0.28336188 0.021387372
000080 ed 33 75 bd d3 ec 78 be 97 a2 b8 bd 75 22 75 be
       -0.059863973 -0.24309091 -0.090153866 -0.23938926
000090 ef 8c 2d 3d 7b c0 33 3d 39 11 89 be 78 c4 b5 3b
       0.042370733 0.043884736 -0.26770952 0.0055471025
0000a0 78 60 d2 bd 45 92 08 be 5c b0 44 be f9 a5 56 3d
       -0.10272306 -0.13337047 -0.19207901 0.052404378
0000b0 39 ec 4f bd dc 22 57 be 70 a4 af bd 53 1e d5 3d
       -0.05076239 -0.21009392 -0.08576286 0.104061745
0000c0 ab 9d 70 be c5 ed 1c be 53 4c 22 be dd 23 d2 3d
       -0.23497646 -0.15325077 -0.15849428 0.10260747
0000d0 0a 9d 4a 3d 5f 9f 0a be 20 f4 05 3e 1d 6d 93 3b
       0.04946617 -0.13537358 0.13081408 0.0044990913
0000e0 37 53 17 be 5b 28 48 be f4 10 c0 3d 64 f6 a8 bd
       -0.14777838 -0.19546644 0.093782336 -0.0825012
0000f0 b5 cd 16 bd 79 d6 f9 bd 3a 78 c4 3d 4f 3b a2 bd
       -0.03681727 -0.121991105 0.09593244 -0.079214685
000100 1f cf 2c bd b5 34 1c 3d 5c 9b db 3d f1 f3 1c be
       -0.042189714 0.038136203 0.10722992 -0.15327431
000110 f3 70 04 be b5 32 d8 3d ad 34 aa 3d 0d c6 97 bd
       -0.12933712 0.105565466 0.08310828 -0.07410822
000120 9b 1e c9 3c 80 63 6a bd fa 64 f7 3d 70 3c 96 bd
       0.024550727 -0.057223797 0.120798066 -0.07335746
000130 38 a2 55 bd 15 00 a1 bd 35 62 75 3d 6c 92 cf bd
       -0.052156657 -0.07861344 0.05990811 -0.1013535
000140 5a 81 f0 bc 56 31 1c 3d ee e3 c5 bc 91 56 49 3d
       -0.029358555 0.038132988 -0.024156537 0.04915482
000150 4d c3 4a be 96 d8 e2 bd f8 e1 fe 3c a9 53 15 be
       -0.19801064 -0.11076467 0.03111361 -0.14582695
000160 64 5c 1f 3e 2e e4 5c bd 5e 1b 52 be 5d 6e 41 be
       0.15562588 -0.053928547 -0.20518252 -0.18889757
000170 a5 64 39 be 05 8f 69 3c 74 9f 73 3d 42 4f fd 3d
       -0.18104799 0.01425529 0.05947824 0.12368633
000180 c6 6d f2 3d cb f5 41 3e 6f a7 4b bd 5d f9 1f 3e
       0.11837344 0.18941419 -0.049720224 0.15622468
000190 d3 2e b1 3e da ef 97 bd 2c d0 60 be 3c f1 33 bd
       0.34606037 -0.07418795 -0.21954411 -0.04393123
0001a0 0f ec 5a bd 59 97 69 be 26 3d b3 3c e2 21 84 3d
       -0.05344778 -0.22811641 0.021879744 0.06451775
0001b0 94 bf 1b 3e db b0 75 bd 0b 8a 21 3f 6c 2d 7d 3d
       0.152098 -0.059983116 0.6310126 0.061810896
0001c0 cf 7d 06 bd 0b df fe bd 01 15 23 be c7 a2 3d 3d
       -0.032834824 -0.12444886 -0.15925981 0.046297815
0001d0 b6 74 df 3d 61 07 08 3d d7 6e 21 3e b1 4e bc 3b
       0.10910933 0.033210162 0.15764938 0.0057466854

lstm.bias_hh_l0 f4 [120]
000000 63 18 1f bb 89 87 01 bd 5f b7 f0 bd 22 db 6d 3c
       -0.002427601 -0.031623397 -0.11753725 0.014517577
000010 8b 37 0d be ef 31 ad 3d 0a 2d 44 bd 5f ff 6c 3e
       -0.13790719 0.0845679 -0.047894515 0.23144291
000020 8b 07 5c bd c7 97 02 3e 4d e6 4f 3e 0f 70 53 bd
       -0.05371813 0.12753211 0.20302697 -0.05162054
000030 24 9f 8a be ab 99 01 be 6c 9a 66 3d f0 c9 62 be
       -0.2707454 -0.12656276 0.056299612 -0.22147346
000040 8b 64 e4 3c ee 2f c6 bc 64 48 40 3e cf 8c f0 bb
       0.027879974 -0.024192777 0.18777615 -0.0073410044
000050 9c 71 0c 3f 9c a9 1b 3d 03 35 1f 3e 38 db 3d 3e
       0.54860854 0.03800355 0.15547566 0.18540657
000060 76 84 3e 3e a9 68 72 be 84 d0 a6 bd 8b 61 db 3d
       0.18605217 -0.23672737 -0.0814524 0.10711964
000070 aa b5 df 3c ea 79 15 bd 3b ba 24 be 63 7a 14 be
       0.027308304 -0.03649322 -0.16086666 -0.14499812
000080 86 5e 78 be 00 30 87 be 27 7e 8f 3d 98 bf 5b be
       -0.24254808 -0.2640381 0.070064835 -0.21459806
000090 2e 87 ae 3d af 39 2b be 5f d8 1e bc cf f1 14 3d
       0.08521877 -0.16721223 -0.009695142 0.03636342
0000a0 28 dc ce bd 69 7c 34 be 25 98 53 be 40 af 4c be
       -0.10100585 -0.17625584 -0.20663507 -0.19988728
0000b0 37 ba e5 3d 7a ee d4 bc 4d 23 5e bd 8a 6e 0a 3e
       0.11217158 -0.02599262 -0.054232884 0.1351873
0000c0 d7 df cf bc 0d 00 1e be c8 48 c5 be 71 bf 19 be
       -0.02537529 -0.15429707 -0.3853209 -0.15014435
0000d0 12 a6 22 be ef 97 aa bd 55 af a6 3d 3a 85 80 be
       -0.15883663 -0.0832976 0.08138911 -0.25101644
0000e0 fc 1c 01 bd 24 f3 cb bc 9d f6 a5 3d e5 70 55 be
       -0.031521782 -0.024896212 0.081036784 -0.20843847
0000f0 dc 32 d7 bd 70 ce bd bd dd d6 78 3d 19 87 63 bd
       -0.105077475 -0.092678905 0.060751785 -0.05554876
000100 e7 bc 42 be 9c 7a 6c bc 2f 26 18 bd 66 a8 14 3e
       -0.19017373 -0.014433529 -0.03714579 0.14517364
000110 1d 6d 2b 3e f8 3f 0b 3e c8 df 50 bd 5c 3e b5 3d
       0.16740842 0.13598621 -0.050994664 0.08849785
000120 49 2b e8 3d 67 45 df 3d 77 eb 0f be 10 9f 42 b9
       0.11336381 0.10901909 -0.14054666 -0.00018560537
000130 c3 63 d1 bd fc ee 3b 3e f6 d4 09 bd b6 5d df bc
       -0.10224106 0.18352884 -0.03365036 -0.027266365
000140 8b 82 a1 3c 8f 12 55 bd 1b 36 86 3d 23 bb 61 3d
       0.019715568 -0.052019652 0.065532885 0.055110108
000150 32 5f 07 be 04 73 d4 3d 03 a2 f8 3d 7c 7e fb bd
       -0.13219908 0.103735 0.12140276 -0.12279984
000160 a5 cc 0e 3d 7e 95 83 3d 00 20 c7 3d 7e fb fe 3d
       0.034863133 0.06424998 0.097229004 0.12450312
000170 06 9c 3a be 5b 8e 6e be 60 a5 1d bd 3d a3 4d be
       -0.1822358 -0.23296492 -0.038487792 -0.20081802
000180 76 19 c6 bd e5 20 97 3e 81 56 f8 bd 8f 14 95 3e
       -0.09672825 0.29517284 -0.12125874 0.29117247
000190 9f 8a a4 3e 43 98 a6 bd 5b f6 75 bd a8 4e cd 3d
       0.3213701 -0.0813451 -0.060049396 0.10024768
0001a0 64 c1 ac bd 2e 23 47 bd 2f 10 fd 3d ff 8e 1c 3e
       -0.08435324 -0.048617534 0.123566024 0.15288924
0001b0 f3 af e6 3e 2a e0 95 be bf 76 01 3f e9 72 29 bd
       0.45056114 -0.29272586 0.5057182 -0.041369352
0001c0 ff ff e1 bd 35 60 17 be f0 08 75 3d b5 c5 13 be
       -0.110351555 -0.14782794 0.059822977 -0.14430888
0001d0 09 a0 05 3c 75 a8 5f 3c e4 fa 90 bd e8 24 2f 3e
       0.008155831 0.013651003 -0.070791036 0.17103922

linear.weight f4 [1, 30]
000000 d7 1d bc 3d b5 e1 3e 3e 98 2d c4 bd 63 e0 07 be
       0.09185379 0.18640788 -0.09579009 -0.1326919
000010 3d 37 a0 3d 06 7c 1e be 43 06 26 3e 52 fc d9 3e
       0.07823036 -0.15476999 0.16213326 0.42575318
000020 d5 a7 10 3e 89 c4 84 3e e0 34 be be d3 cd 96 3d
       0.14126523 0.25931194 -0.37149715 0.073634766
000030 ae 11 6f 3d 1f 0e c5 bd 9b 58 2d be 22 55 b3 3d
       0.05836647 -0.09621834 -0.16928332 0.08756472
000040 01 62 97 be 03 d6 b2 3e 24 b6 4c 3e 80 f8 03 bd
       -0.2956696 0.34928903 0.19991356 -0.03221941
000050 86 eb 95 3e b0 58 b0 bd 30 60 80 be 68 f2 26 3e
       0.29281253 -0.08610666 -0.25073385 0.16303408
000060 36 b4 2b be 7f f6 80 bc 93 8b fa 3d f6 54 8a be
       -0.16767964 -0.015742538 0.12233653 -0.27017945
000070 db e7 9d be f9 75 13 be
       -0.30840954 -0.14400472
