source/nets/trainedNets/test.pth (torch_old, 12351 bytes, 9 tensors)

c1.weight f4 [2, 4, 1]
00000000: 97af e33e 044e 70be 94a0 86be 6937 213f
00000010: 1f6a 413c b3fe 9dbd 71f4 fcbe 714c 323f
0.44469902 -0.2346726 -0.26294386 0.62975174 0.011805086 -0.07714596 -0.49405244 0.6964789

c1.bias f4 [2]
00000000: 5a4d 943e 1b7e 1c3e
0.28965265 0.1528248

c2.weight f4 [1, 2, 1]
00000000: d5cf 153f fa6f 1b3f
0.5852025 0.6071774

h1.weight f4 [64, 24]
00000000: a9fe 833d b7fd 553e 8c69 1a3e 782a 70bd
00000010: d95c 673e 3545 6c3e 3c92 693c 71cd 923e
00000020: bd84 583d f887 0cbc 8bd8 09bd 2140 cd3d
00000030: 6c63 29bc 865c 6ebc f703 413e 8e94 67bd
00000040: 884e 7a3c 0e2f 073d afa6 ab3d 366c 123e
00000050: a631 09bd 4e2d ea3d cd6d f03c 95e5 d83d
00000060: 7b91 233e 152d 7f3e 482b 5dbd bec1 803e
00000070: 1563 033e cb5c 903e d574 5e3d 6edc 013c
00000080: 8176 693e 0239 453e 81ce eabc 5161 2c3d
00000090: 99e0 b8bd 6026 acbd e5aa 303e 5ad3 27be
000000a0: f15e 933d 9e51 0a3e fc42 dabd 819b 223d
000000b0: 9139 0b3e 037f 363c 122d 703e 39bb ef3d
000000c0: d8c5 8ebe 8efe 123e bb1e 73bd 7fea 47be
000000d0: f076 58be 4b64 403d c69f 05be 41d4 37be
000000e0: 501b c4bd 6078 62bd 2bfc 2c3e bffe 48be
000000f0: 5d31 693e 782c c03d f119 17be 33e2 b33d
00000100: 63ac 3d3d df1a 4f3e 4176 9d3e 080b 983d
00000110: d381 64be 800d 853e f487 0dbe 42db 393e
00000120: c2ca f6bd 793e 52bd 2932 13be 38bd 2b3e
00000130: 8600 113e 26dc 82bd df4f 223e 3fd3 4dbe
00000140: d269 c4bd b107 bfbd 0930 0abd 72b3 17bd
00000150: 8786 b8bd 0aba 2bbe 953e ed3d b462 1bbd
00000160: c2c8 d93c 31ee 9bbd c8be 793d 8bc5 043c
00000170: de42 383e 5cd1 1fbe 185b c93d fbb8 9fbd
00000180: c546 cebd 8fe8 55bd f680 26be 8931 22be
00000190: d2cd 5abc 5bcf 3ebd 885d b53d 38c1 dd3d
000001a0: 070f 1abe 1282 8b3e 3ef9 ddbd 9bc3 6e3d
000001b0: 23d6 143d 3bb6 de3d ee8b b7bd e17e 2ebe
000001c0: b149 a13d 2b12 87bd 802b ebbc 855e 05be
000001d0: 5c08 89bc 7baf 7f3e ac09 013d 6c87 f1bd
000001e0: 4151 fe3d 195c 093e 5ce8 013e 7d32 d63d
000001f0: 584a 0a3e f390 3fbe 21ca b5bd 1565 443d
00000200: 7420 06be 991a 09be d874 bdbd 7ebc 65be
00000210: 15dd 043e 9724 60be b15a 223d db5d 3e3d
00000220: d71e d3bd 563d adbd 5406 1a3e 9858 f3bd
00000230: 3ab8 e43d 7db0 3fbd e791 433e 3cee 143e
00000240: 17b3 ebbd a021 3bbe 1dfd 02be 5978 c53d
00000250: 28f9 133e d11e ccbc 3ac0 02be ff55 813d
00000260: 0dd9 1c3e b438 2a3e 6feb 0bbe 078c 3cbd
00000270: a91d 20be a19d 1bbe 7fd8 19be 0b7a 263e
00000280: 81b8 1cbe fd29 f83d 73c6 363d 5730 31be
00000290: 657e 77bd 2c37 03bc 2070 243e 0bb9 f1bd
000002a0: fa5d 503e f619 423e 31df 293e 63eb e13d
000002b0: ddcf 833e f530 b33e 9ca8 7c3e 76ca 0e3e
000002c0: 919b 9d3d 38a6 17be 2e96 aebc a2e1 673e
000002d0: eeb8 81bd 32da 12bb c3fe 633b 2860 783e
000002e0: 12f2 56bd 8024 cdbc 260e 6cba ffef 253e
000002f0: 938e 733e 9ffe 753e 70f4 623e 15f7 7cbd
00000300: e0be c73c 20bb 1c3d ca30 173e 8a8e 0e3e
00000310: 4449 883d e065 0c3e 888e 1fbe 1002 203e
00000320: 90c0 093c 6f33 2dbe 4c92 8d3d d03e 033d
00000330: 08a6 d9bc 2e84 85bd 20aa a1bc 0dfb ecbd
00000340: 43dd 11be 662c 03be 5434 43bd 20a2 03be
00000350: c494 21be bc4c 133e 1052 8bbc b07f 11bc
00000360: e626 5bbd 63ea ec3d cb47 013e 294f 28bd
00000370: 08f5 213e a66c 933d 1f0c 25bd d960 4a3e
00000380: 06ab 2a3e 9c97 c63d d15b 5a3e 9b45 b63d
00000390: a096 863d 6827 04be 709b 153d 58b5 d63d
000003a0: be96 a8bd a2a9 03be 71a7 cc3d 591c ef3d
000003b0: 21ab 913e df65 373e 9c5f 243e 9c92 b2bd
000003c0: f91f be3e 0423 f93c 007f 93bd 09b2 803e
000003d0: 0b6d 5e3e 02bc 603d f504 993e 444a 2d3d
000003e0: d1f8 213e 0f5b 1e3e 4929 b2ba f271 853d
000003f0: 03df 99bd 0891 11bc 25b6 5f3e 6dcf 77bd
0.06445057 0.20897566 0.15079325 -0.05863425 0.22594012 0.23073275 0.014256056 0.28672364
0.052860964 -0.008577339 -0.033653777 0.10021997 -0.010338645 -0.0145484265 0.18849169 -0.056538157
0.015277512 0.03300386 0.08381402 0.14299092 -0.033494614 0.114344224 0.029349232 0.10590664
0.15973465 0.24919541 -0.053996354 0.25147814 0.12830766 0.28195795 0.05431064 0.00792609
0.22799112 0.19260028 -0.028662922 0.042084996 -0.090272136 -0.08405757 0.17252691 -0.16389218
0.07195843 0.13507697 -0.106573075 0.03969908 0.13596179 0.01113868 0.23454693 0.11705632
-0.27885318 0.14354917 -0.05935548 -0.19523047 -0.21139121 0.046970647 -0.1304923 -0.17952062
-0.09575522 -0.05529058 0.1689307 -0.19628428 0.22772737 0.09383482 -0.1475599 0.087833785
0.04630698 0.20225094 0.30754283 0.07423979 -0.22315149 0.25986862 -0.13821393 0.18150046
-0.12050392 -0.05132911 -0.14374603 0.167714 0.14160356 -0.06389646 0.15850781 -0.20100115
-0.09590496 -0.09327639 -0.033737216 -0.037036367 -0.09010034 -0.16770187 0.11584202 -0.037935928
0.026584987 -0.07613791 0.06097296 0.008103739 0.17994258 -0.15607208 0.09831828 -0.07798954
-0.10072092 -0.05222374 -0.16260132 -0.15839209 -0.013354735 -0.04658447 0.0885573 0.10827869
-0.15044795 0.27247673 -0.10838555 0.058292013 0.03633703 0.108746015 -0.08962236 -0.17040588
0.07875384 -0.06595262 -0.028707266 -0.13024338 -0.016727619 0.24969284 0.031503364 -0.11793408
0.12417842 0.13414039 0.12686294 0.104588486 0.13504922 -0.18707637 -0.08876444 0.04794796
-0.13098317 -0.13389052 -0.09250802 -0.22435185 0.12974961 -0.21888958 0.03963727 0.046476226
-0.103086166 -0.084589645 0.15041476 -0.11882132 0.11167951 -0.04679917 0.19098626 0.14544004
-0.11508768 -0.18274546 -0.12791868 0.09642095 0.14450514 -0.024917038 -0.12768641 0.063152306
0.15317173 0.16623193 -0.1366403 -0.046031978 -0.15636314 -0.1519685 -0.15023993 0.16257493
-0.15304758 0.12117384 0.04462285 -0.17303596 -0.060423274 -0.0080087595 0.16058397 -0.11802872
0.20348349 0.18955216 0.16589047 0.110312246 0.25744525 0.3499829 0.24673694 0.1394442
0.076956876 -0.14809501 -0.021311846 0.22644666 -0.06334101 -0.0022407887 0.00347893 0.2425543
-0.05247695 -0.025041819 -0.0009004794 0.16204832 0.23784856 0.24022911 0.22163558 -0.061759073
0.024383008 0.038264394 0.14764705 0.13921562 0.06654599 0.13710737 -0.15581715 0.15625787
0.008407727 -0.16914152 0.069126695 0.032042325 -0.026568428 -0.06519352 -0.019734442 -0.11571322
-0.14244561 -0.12809905 -0.047657326 -0.12854815 -0.15779406 0.1438474 -0.017006904 -0.008880541
-0.053503893 0.11568143 0.12625043 -0.041091118 0.15816128 0.071984574 -0.040294763 0.19763507
0.16666803 0.09696886 0.21324088 0.08899995 0.06571698 -0.12905657 0.03652519 0.10483807
-0.08231877 -0.12857679 0.099928744 0.11675329 0.28450873 0.17909954 0.16052097 -0.0871937
0.37133768 0.030412205 -0.07201958 0.2513583 0.21721284 0.0548668 0.29886594 0.042307153
0.15817572 0.15464424 -0.0013592626 0.06515874 -0.07513239 -0.008884676 0.21846826 -0.06050055

h1.bias f4 [64]
00000000: b377 cdbd 2005 cabd ed1b 273e 0f26 eabd
00000010: e7c5 3f3c 7327 2dbe 0ea9 453d 6267 813d
00000020: bbb1 06be 573c 8f3d d82c 853d 3fd8 563e
00000030: a009 3bbe 2f80 25be 46ef a93d 9023 8cbb
00000040: 7dc2 c1bd 6ada e1bd f2dc 5a3e a8e6 ecbc
00000050: dc82 b8bd 22f1 fe3d 5838 18bd 4b08 6f3e
00000060: 096a 583e 39c7 0abe 98e6 fdbd bd95 f5bd
00000070: d687 98be e1af b23e e9fb 813e ef05 aa3e
00000080: 22cf 4cbe abb5 243e 2b0f 6bbe 04a9 49be
00000090: 5bd4 ffbd 7f78 4fbe 4c55 b93e 0da7 1fbe
000000a0: e7ae b33e d279 813e e699 ca3e 3e4d 1b3c
000000b0: 2320 4a3e a07f 1e3c df25 373e 80f2 a8bd
000000c0: 0ca1 123d 7762 1bbe 996c 21be 7e0d 8ebd
000000d0: 3537 43be 9956 47be e651 993e d505 bbbd
000000e0: 495b 883e 5bc6 923e 3a12 4fbe b898 c43e
000000f0: bc76 ae3e 7283 943d 9e29 6fbd 3d51 4abe
-0.100325964 -0.09864259 0.16319247 -0.1143304 0.011704898 -0.1690958 0.048256926 0.06318547
-0.13153736 0.06993931 0.06502694 0.20980929 -0.1826539 -0.1616218 0.08297591 -0.0042767003
-0.09460924 -0.11027987 0.21373346 -0.02891858 -0.090093344 0.12448336 -0.03716311 0.23343007
0.21134199 -0.1355256 -0.12397498 -0.11991451 -0.29791135 0.3489981 0.25387505 0.33207652
-0.2000089 0.16084926 -0.22955005 -0.1969338 -0.124916755 -0.2026081 0.3619789 -0.15591069
0.35094377 0.25288254 0.3957054 0.009478865 0.19738822 0.009673983 0.1788554 -0.08249378
0.035798118 -0.1517428 -0.15764083 -0.06936167 -0.19064029 -0.19466628 0.29945296 -0.09131972
0.26632145 0.28666958 -0.20221797 0.38397765 0.34074962 0.07251634 -0.0583893 -0.19757552

h2.weight f4 [16, 64]
00000000: ec40 24be ead4 7cbe e6c7 613e 9e2e bd3d
00000010: b7d2 1f3e 81d6 dbbc c93e 84bd 6db7 a2bc
00000020: 44ee 493d 6f23 efbc 8cb1 bcbd 8439 1e3e
00000030: 535d 4ebe 1cf3 63bd 2c03 4a3c 2f15 b1bd
00000040: 7ac2 e8bd 6358 90bd 9b36 2e3e 653b 503d
00000050: 0c58 e7bd aff7 6a3e 406f 053d f05f 863e
00000060: 4b15 033e c02a 5abe 9f98 53be 3a0d 1bbe
00000070: 190e 25be 63b4 283e 8f2e 813e a27a 623e
00000080: d478 f5bd 730a 363e 99ab afbd 9804 4dbe
00000090: b26d af3d 1bcf 22be fa7b 813e 10b3 673c
000000a0: 85fc 053e 915d 453e 9dc7 813e b25a 8cbd
000000b0: 72b6 083e 86f3 253e cc33 7e3d c83c ddbc
000000c0: 10d4 0fbd 84c3 9abd 00b6 61bd 6f2c a6bd
000000d0: e0be 073d 0ccd 983d c3a9 eb3d d613 cc3d
000000e0: c1b3 643d 4bfa 033e 04ce 973d 23a3 523e
000000f0: e569 4b3e 1c14 7a3c 4a54 0bbc bd2d c63d
00000100: 083b f3bc 6440 863b f8fe e03c ee90 e53d
00000110: d892 b73c 4c57 1bbd f0de 1b3c ad6f 58bd
00000120: 3a2b 91bd d92c c5bd acda cbbc 3c93 023d
00000130: 8823 37bd d800 08bd 4662 cabd e80d 3f3c
00000140: fc02 67bd ff29 ae3d 07b1 78bd b215 d2bd
00000150: ac39 0a3d 48c8 bfbc 703e 583c 20dc 12bd
00000160: 1cde 42bd b0af 203c 0cf6 773d f4e9 90bd
00000170: 2180 ab3c 2d7d afbd c79a 6f3b cfa5 06be
00000180: 8427 a1bd 229b b5bd 30fe 8a3c bc01 243d
00000190: c2eb d93d 28d0 953d 4c9f c73d 76ce b63d
000001a0: 601c 8d3d 9a2d 113d 1df0 fbbd d08c 6abc
000001b0: 226b 8d3c 7c74 7ebd 0829 d73c 2cac e73d
000001c0: 405a 42bc 1095 813c e459 67bd 52a7 08bd
000001d0: 70a7 6abc 28e9 fb3c 048c dbbb 0c5b fc3d
000001e0: d843 07bd 06ab 9c3d 682c 2ebd f742 d7bd
000001f0: 4688 2ebd bfc7 ac3a c84b ac3d 16b0 ccbd
00000200: 14f9 30bd dc4e 86bd c143 08bd ace2 d83d
00000210: 92c8 b63d a8c5 713d 16ce cbbd 75e5 743d
00000220: 007e ecbc 21ef a1bd 2140 893d c2f9 40bc
00000230: 0562 16bd 0981 813b 36f6 ddbd 18a8 c23d
00000240: 50b3 50bd cd54 a03d d647 e0bd 649e de3d
00000250: d256 de3d 7347 e8bd 7686 bcbd 2c7b f63d
00000260: ac28 7e3d 0d41 103d a46e b73d 5015 77bc
00000270: 18ce d33d 5ab5 df3a 8957 503d 3cb9 6e3d
00000280: 2030 edbb 28b9 b13d 833d 98bd 838c a83d
00000290: 2001 1cbd 7b78 01be ad41 26bb f0f5 163d
000002a0: 1a35 7ebd a01e 93bd 7dd3 0fbe 4ce7 103d
000002b0: 141a e6bd 544d cd3d b8ba 06bd 60db 9f3b
000002c0: 1049 733d f0cb 38bc 086d 9a3d 62df 8bbd
000002d0: f4a5 36bd 783e 8fbd 94b3 f5bc 6aaa cebd
000002e0: 5ee7 1fbd e057 f2bb f0b3 103c 65cf b3bd
000002f0: 8745 b0bc 7a21 ffbd dcbe 703d 40d6 9b3d
00000300: 3eb5 26be e6f7 13be e851 4b3e d6b1 d6bd
00000310: 1218 063e 959d 2fbe 0edc 8c3d 18ea 9b3c
00000320: 68f5 953c 6f7a 003e 534c 473e 09b1 893e
00000330: 2838 8bbd 6ec7 9bbd 1a34 053e d399 ba3c
00000340: cca6 66bd 52cd 39bd 7e99 623e 0c07 7b3c
00000350: f072 6abd 9068 273e 680a b63d cd3f 9f3d
00000360: 4213 a43d 0d4a d4bb 3705 4bbd 6bc4 d9bb
00000370: b68b 0ebe 6cd2 cb3d fba0 c13d cd78 f93d
00000380: 8724 e53d e5ab 743e dc68 0cbe 7a7d e73d
00000390: 5ede ab3d 2404 58be 4bad a03e 6247 f23c
000003a0: 9349 223e e03e 463e 8def 523e e2e0 36bd
000003b0: c571 233e 510a b3bd 6a8e 3a3d 2fed 763d
000003c0: 9008 dabd 9c3d 163d 6882 423d 6e45 69bd
000003d0: 6a71 d4bd a496 993d ed35 403e 8c7f c8bd
000003e0: 68c0 813e 3f56 663e 5014 a53c e042 f63d
000003f0: 964b 4c3e 82c7 2a3b de61 c5bd d381 44bd
-0.1604039 -0.24690595 0.22048911 0.09237407 0.15607725 -0.026835682 -0.06457288 -0.019862855
0.049299493 -0.0291917 -0.09213552 0.15451628 -0.20152788 -0.05565177 0.012329858 -0.086466186
-0.113652185 -0.070481084 0.17013018 0.050837893 -0.112960905 0.22946046 0.0325768 0.2624507
0.12801091 -0.2130537 -0.20663689 -0.15141764 -0.16118659 0.16475062 0.25230834 0.22117093
-0.11985937 0.17777424 -0.085776515 -0.20021284 0.085658446 -0.15899317 0.252899 0.014141813
0.1308461 0.19273974 0.25347605 -0.06853236 0.13350847 0.16206178 0.062061116 -0.027006522
-0.035114348 -0.07556823 -0.05510521 -0.08113944 0.033141017 0.074609846 0.11506989 0.09964721
0.05583549 0.12888448 0.07412341 0.20570044 0.19864614 0.0152635835 -0.008503983 0.09676693
-0.029691234 0.0040970314 0.027465329 0.11209284 0.022408888 -0.03792505 0.009513602 -0.052840877
-0.07088323 -0.09627695 -0.024884544 0.031878695 -0.04471162 -0.03320393 -0.098820254 0.01166103
-0.05639933 0.08504104 -0.0607157 -0.10258044 0.033746406 -0.023410931 0.01319848 -0.03585446
-0.0475751 0.009807512 0.060537383 -0.07075873 0.02093512 -0.08568797 0.003656076 -0.13149188
-0.07868865 -0.0886748 0.01696691 0.040040717 0.1064067 0.07315093 0.0974718 0.08926098
0.06890178 0.03544388 -0.12301657 -0.014315799 0.017262999 -0.062122807 0.026264682 0.11312136
-0.011862338 0.015818149 -0.05648221 -0.033362694 -0.014322147 0.030750826 -0.006700041 0.12322053
-0.033023685 0.07649808 -0.042522818 -0.105108194 -0.04261043 0.0013182088 0.084128916 -0.09994523
-0.04320629 -0.0655801 -0.03326774 0.10590109 0.089249745 0.05902639 -0.09951417 0.05978914
-0.028868675 -0.07906938 0.06701685 -0.011778297 -0.036714572 0.00395215 -0.10837977 0.095047176
-0.050952256 0.078286745 -0.109512016 0.10870054 0.108564034 -0.11341753 -0.09205334 0.12035212
0.062050506 0.035218287 0.0895665 -0.015080765 0.10342044 0.0017067597 0.05086473 0.058282122
-0.007238403 0.08677894 -0.074336074 0.082299255 -0.03808701 -0.12643616 -0.0025368736 0.036855638
-0.06206236 -0.07183576 -0.1404552 0.035376832 -0.11235443 0.10024515 -0.032892913 0.0048784465
0.05939585 -0.011279091 0.07540327 -0.06829716 -0.04459186 -0.06994337 -0.029992856 -0.10091098
-0.03903901 -0.0073957294 0.008831963 -0.08779792 -0.021517528 -0.12457557 0.058775768 0.07609224
-0.16280076 -0.14450034 0.19855464 -0.10483138 0.1309512 -0.17149957 0.068779096 0.019032523
0.018305495 0.12546705 0.19462709 0.2689288 -0.0679782 -0.076063976 0.13008156 0.022778427
-0.056311414 -0.045361824 0.22128865 0.015321504 -0.05723852 0.16348481 0.088887036 0.07775841
0.08011486 -0.006478554 -0.04956552 -0.0066457293 -0.13920483 0.09952244 0.09454533 0.12181244
0.11188608 0.23893698 -0.13711876 0.1130323 0.083920226 -0.2109533 0.31382212 0.029575054
0.15848379 0.19359922 0.20599194 -0.04464806 0.15961368 -0.08742202 0.045545973 0.06028479
-0.106461644 0.03667985 0.047487646 -0.05695098 -0.103731945 0.074994355 0.18770571 -0.09789953
0.25342107 0.22493838 0.020151287 0.12024474 0.19950709 0.0026058857 -0.09637807 -0.047975373

h2.bias f4 [16]
00000000: e521 8b3d 0b84 d83a 4df5 d0bd a8a6 1b3e
00000010: 82ff e3bd ecea 91bd 40a4 55bd 2876 adbc
00000020: 2976 57ba 5a20 1cbd 400f d0bd 6877 8a3c
00000030: 1f56 233d 8d6d 613d 1eae 453d 0323 943e
0.06793574 0.0016518844 -0.102030374 0.15200293 -0.111327186 -0.07124886 -0.052158594 -0.021174505
-0.00082192064 -0.03811679 -0.10159159 0.01690264 0.039877053 0.055036116 0.048261754 0.28932962

out.weight f4 [3, 16]
00000000: 5cc3 9fbe bb3c 2cbb bb0e 5fbd baa2 d83d
00000010: 5459 f33d 8267 253e 6864 433e d0f3 b33c
00000020: bc0f d43e 150a 913e 1e6c 4fbe f0a2 e23d
00000030: db5b 9cbd b4c1 c93e 7d49 19be 146a 24be
00000040: 34ce 82bd e22c ea3d 20b4 eabd feb3 a7bd
00000050: bc78 75be d802 303d b841 23be e42a b1bd
00000060: 516e b2bd 930a 5dbe fc57 c9bd 2eb4 473e
00000070: 0e6f 8b3d 5fdc 81bc d143 043e ff09 e9bd
00000080: 54cf 953e abbe 78bd 2ebe f13d cbb6 d33e
00000090: 9a0a 543e b658 763e 9877 4dbd 48b3 f3bd
000000a0: 9abe c8bd 5a3b ba3d d088 4bbd 10a4 333e
000000b0: 1b8f 40bd e199 e6bd a7f4 143d 65c3 cd3e
-0.31203735 -0.0026281315 -0.054457407 0.10577913 0.11882272 0.16152766 0.1908127 0.021966845
0.41418254 0.28328004 -0.20256087 0.11066234 -0.076347075 0.39405596 -0.1496944 -0.1605609
-0.063869864 0.11434342 -0.11460137 -0.08188628 -0.23971838 0.042971462 -0.15943038 -0.08650759
-0.087124474 -0.21586065 -0.09831235 0.19502327 0.068082914 -0.015852151 0.12916495 -0.1137886
0.2925974 -0.06072871 0.11803852 0.41350397 0.20707169 0.24057278 -0.05016288 -0.118994296
-0.09801979 0.09093352 -0.04969102 0.17543054 -0.047011476 -0.11259819 0.03636613 0.40188137

out.bias f4 [3]
00000000: 50e1 583e e3ed 593d cda7 a83e
0.211797 0.053205382 0.32940522
