source/nets/trainedNets/testModel15.pth (torch_old, 12347 bytes, 9 tensors)

c1.weight f4 [2, 4, 1]
-0.06021581 -0.29609323 0.48896417 0.08639263 0.26850107 0.70001304 0.09273512 0.57343525
00000000: daa4 76bd 8899 97be 8359 fa3e 9fee b03d
00000010: f978 893e 0e34 333f e9eb bd3d a7cc 123f

c1.bias f4 [2]
0.07995006 0.37175718
00000000: dbbc a33d f556 be3e

c2.weight f4 [1, 2, 1]
-0.62844193 0.78834355
00000000: 92e1 20bf e2d0 493f

h1.weight f4 [64, 24]
-0.07335941 0.35190204 0.5553841 0.39904928 0.102728575 0.031890035 0.41645753 0.15849969
0.07128008 0.05159056 0.1652179 -0.28611052 0.0032865466 0.013779708 -0.011668507 -0.11267996
0.133455 -0.19074273 0.47040796 0.40910828 0.43860945 -0.03436707 0.2176927 -0.27087733
0.026782542 -0.33968472 -0.44960576 -0.04495504 -0.24428599 0.21353896 -0.1860214 -0.15188602
-0.018645111 -0.08359203 -0.29484764 0.03424862 0.068288215 0.07219704 0.23948708 0.15674166
-0.22268923 0.23601256 -0.1971636 -0.3709129 -0.08735833 0.31362852 -0.37894592 0.4589423
-0.21223691 -0.11309735 -0.64453685 -0.5498319 -0.10183089 -0.35678992 -0.13050818 0.11821424
0.06662316 0.19121702 -0.34750816 0.23666646 0.17131495 0.11400312 0.22015047 0.27275473
-0.05982541 0.36188126 -0.17374296 -0.0857989 -0.42791218 0.2575086 0.17223564 0.2412797
0.22664927 0.14659908 0.42884287 0.6189298 0.40965652 0.3929608 0.25703806 0.093119495
0.05424525 -0.025244087 0.28270087 -0.36791736 -0.194371 0.13493897 -0.12701862 0.04346479
0.43735817 -0.21145391 0.31073803 0.3910033 0.34330133 -0.09957063 0.34941313 -0.118721254
0.13507518 0.2872512 0.4024623 0.47001266 0.14213265 0.3097313 0.28505045 0.30740348
0.09006127 -0.13736911 0.018004458 -0.20187801 -0.25035307 -0.026540615 -0.34416914 0.045615498
0.24530928 -0.24403675 0.21255514 0.26145253 0.5722755 0.021226946 0.3209724 -0.011515038
-0.013903558 0.017901793 0.0036286116 -0.031458214 -0.15360928 -0.09673394 0.12294304 -0.09554559
0.16009307 0.110824704 -0.169148 0.121088624 0.05503267 0.032910496 -0.11838236 0.18207723
0.072341084 -0.10533422 -0.15803856 -0.07348709 -0.09784357 0.061260313 0.1014601 -0.18957026
0.04551658 -0.008572102 0.15972987 -0.1849487 0.10974598 -0.14357996 -0.0964815 -0.15614188
0.08824456 -0.15328199 -0.20162193 -0.073949635 0.05852467 -0.07590197 -0.008569509 0.14941701
0.13228306 0.05247897 -0.17682333 0.18403843 -0.16846539 -0.09434933 0.105350405 0.095113456
0.19317034 0.14770544 0.68121123 0.4383742 0.15766367 0.24203515 0.4223015 0.18591435
0.34357905 0.09460665 0.39247003 -0.40035117 -0.047295753 0.052438278 -0.2757547 -0.27737594
0.4075898 -0.28413704 0.33968052 0.35570386 0.48651704 0.05817856 0.096158184 -0.2205124
-0.029410794 -0.09143958 -0.038187042 -0.13041669 -0.0272246 0.14191648 -0.12449761 0.15828109
0.086183816 -0.14489017 0.1632039 -0.08021354 -0.1439319 -0.04539579 -0.0122471005 -0.12977499
0.17645314 -0.062442765 -0.12044876 -0.11990558 0.17794177 0.006069407 0.18929577 -0.1703421
-0.11394663 0.06354454 -0.084138975 0.040037468 -0.20273203 0.06556578 -0.14355218 0.19419827
-0.09711851 0.17779978 0.10588557 -0.07743836 -0.2007042 0.10447068 -0.06242627 -0.0882421
-0.15280968 -0.17826901 0.0860063 -0.06771013 0.05736969 -0.06771272 0.06390701 -0.013158362
-0.067011446 0.017581537 0.11077672 -0.028182685 0.16509953 0.13806388 -0.011758968 -0.082463756
0.06575516 0.06592685 0.028613463 0.01762195 -0.05763778 0.09311825 -0.19742417 0.022033632
00000000: 753d 96bd 812c b43e a72d 0e3f 3050 cc3e
00000010: 5c63 d23d 209f 023d ec39 d53e be4d 223e
00000020: 4afb 913d 9f50 533d e22e 293e 147d 92be
00000030: 1a63 573b 49c4 613c 442d 3fbc c0c4 e6bd
00000040: 6da8 083e 1052 43be 50d9 f03e a476 d13e
00000050: 6b91 e03e 7cc4 0cbd d6ea 5e3e 6fb0 8abe
00000060: 1067 db3c 28eb adbe ba32 e6be c722 38bd
00000070: 1b26 7abe f5a9 5a3e 657c 3ebe 0288 1bbe
00000080: a2bd 98bc 4c32 abbd 45f6 96be 4848 0c3d
00000090: b1da 8b3d 0bdc 933d 1a3c 753e e380 203e
000000a0: a508 64be 47ad 713e 41e5 49be 4ce8 bdbe
000000b0: ede8 b2bd eb93 a03e 3305 c2be 7cfa ea3e
000000c0: a254 59be 959f e7bd 5e00 25bf c9c1 0cbf
000000d0: b78c d0bd 2bad b6be f0a3 05be 4f1a f23d
000000e0: b971 883d 65ce 433e 97ec b1be b158 723e
000000f0: 306d 2f3e 787a e93d 206f 613e 82a6 8b3e
00000100: 7d0b 75bd 8048 b93e ade9 31be 55b7 afbd
00000110: 4e17 dbbe 2bd8 833e 8a5e 303e 0712 773e
00000120: bf16 683e 121e 163e 4b91 db3e 2f72 1e3f
00000130: 80be d13e 2832 c93e 7e9a 833e 6fb5 be3d
00000140: 4430 5e3d b0cc cebc 2bbe 903e aa5f bcbe
00000150: 3109 47be 712d 0a3e 2b11 02be 2308 323d
00000160: 69ed df3e 6087 58be 0e19 9f3e 9631 c83e
00000170: 31c5 af3e b0eb cbbd 47e6 b23e 2124 f3bd
00000180: 2651 0a3e 9712 933e 8a0f ce3e 80a5 f03e
00000190: 398b 113e 1a95 9e3e 22f2 913e fd63 9d3e
000001a0: 0b72 b83d 7daa 0cbe 167e 933c 1cb9 4ebe
000001b0: 472e 80be b46b d9bc f036 b0be 51d7 3a3d
000001c0: 5b32 7b3e c5e4 79be 0ea8 593e 1bdd 853e
000001d0: a680 123f 22e4 ad3c 7f56 a43e 92a9 3cbc
000001e0: c0cb 63bc c8a6 923c 00ce 6d3b 54da 00bd
000001f0: c04b 1dbe 721c c6bd 90c9 fb3d 68ad c3bd
00000200: 70ef 233e 10f8 e23d 2235 2dbe 50fd f73d
00000210: f069 613d 28cd 063d 7372 f2bd 7472 3a3e
00000220: 9027 943d 78b9 d7bd dcd4 21be 6680 96bd
00000230: 3662 c8bd 18ec 7a3d 50ca cf3d b51e 42be
00000240: 986f 3a3d 0072 0cbc 3a90 233e 3163 3dbe
00000250: 80c2 e03d a006 13be 1898 c5bd a8e3 1fbe
00000260: 90b9 b43d f4f5 1cbe fb75 4ebe e872 97bd
00000270: 90b7 6f3d 7e72 9bbd 2067 0cbc c600 193e
00000280: 3675 073e 30f4 563d 2d11 35be 9274 3c3e
00000290: 3182 2cbe 393a c1bd f4c1 d73d d8ca c23d
000002a0: 72ce 453e 1840 173e dc63 2e3f 9572 e03e
000002b0: 9672 213e 10d8 773e e737 d83e 5560 3e3e
000002c0: 98e9 af3e 22c1 c13d d5f1 c83e d4fa ccbe
000002d0: 31b9 41bd 85c9 563d b82f 8dbe 3804 8ebe
000002e0: 9caf d03e 697a 91be 9bea ad3e d11e b63e
000002f0: c318 f93e a44c 6e3d 95ee c43d 01ce 61be
00000300: e8ee f0bc ad44 bbbd 046a 1cbd f48b 05be
00000310: 2006 dfbc 8e52 113e 9af8 febd 7014 223e
00000320: 2481 b03d 175e 14be ec1e 273e ff46 a4bd
00000330: e262 13be f0f0 39bd 10a8 48bc bce3 04be
00000340: 22b0 343e fcc3 7fbd d7ad f6bd 0f91 f5bd
00000350: 5e36 363e e0e1 c63b c0d6 413e 296e 2ebe
00000360: da5c e9bd a423 823d 0e51 acbd 54fe 233d
00000370: fc98 4fbe 5a47 863d 58ff 12be e9db 463e
00000380: 12e6 c6bd 2511 363e 89da d83d 0198 9ebd
00000390: 6785 4dbe b9f4 d53d b0b2 7fbd 46b8 b4bd
000003a0: 247a 1cbe 278c 36be 1224 b03d 9cab 8abd
000003b0: 7bfc 6a3d f7ac 8abd aee1 823d 2c96 57bc
000003c0: 4c3d 89bd 2807 903c e8de e23d 60df e6bc
000003d0: da0f 293e 9e60 0d3e b0a8 40bc c2e2 a8bd
000003e0: a4aa 863d a804 873d c866 ea3c e85b 903c
000003f0: 9815 6cbd c8b4 be3d 9029 4abe e07f b43c

h1.bias f4 [64]
-0.12812752 0.4654872 0.24473035 0.016571945 -0.118344545 -0.16582775 -0.16003373 -0.056648374
-0.12326816 -0.060578823 -0.004867241 -0.15751565 -0.15959552 0.46520516 -0.012949903 0.50455886
-0.12669422 -0.08373268 0.33171707 0.4487558 0.40677968 -0.06851088 -0.1483978 -0.0011073314
0.3278912 0.37738734 -0.12836713 0.019990873 0.53359187 0.032146834 -0.042917937 -0.110552624
0.40711406 0.0072113895 0.016905908 -0.11086216 0.30867815 -0.06446084 0.4089877 -0.12853888
0.42831555 -0.10395807 -0.10708681 -0.057210743 0.4739628 0.23228668 -0.16844709 -0.14073949
0.18718864 0.023842813 0.38020164 0.4241425 0.25886476 0.3974703 -0.074631736 -0.12883978
0.27058652 -0.037575852 -0.105715364 0.12735496 -0.14453882 -0.09924186 -0.07244968 0.37308988
00000000: dc33 03be 5754 ee3e 989a 7a3e e3c1 873c
00000010: a05e f2bd c0ce 29be e2df 23be 2008 68bd
00000020: 0474 fcbd 8021 78bd 607d 9fbb c84b 21be
00000030: 026d 23be 5f2f ee3e d42b 54bc c52a 013f
00000040: 21bc 01be 0a7c abbd d2d6 a93e 52c3 e53e
00000050: 6d45 d03e 6f4f 8cbd 98f5 17be e023 91ba
00000060: 5be1 a73e ea38 c13e ac72 03be e6c3 a33c
00000070: 7a99 083f 66ac 033d b8ca 2fbd 6a69 e2bd
00000080: 4171 d03e 854d ec3b 427e 8a3c b30b e3bd
00000090: 100b 9e3e 0b04 84bd d666 d13e b29f 03be
000000a0: 2d4c db3e f8e7 d4bd 5450 dbbd d055 6abd
000000b0: 41ab f23e 8fdc 6d3e 657d 2cbe 031e 10be
000000c0: 61ae 3f3e 0152 c33c caa9 c23e 3529 d93e
000000d0: ec89 843e 3a81 cb3e 86d8 98bd 93ee 03be
000000e0: 518a 8a3e 23e9 19bd 4c81 d8bd 5769 023e
000000f0: fc01 14be 513f cbbd 7f60 94bd a305 bf3e

h2.weight f4 [16, 64]
-0.392483 0.4489788 0.2117554 -0.1431566 -0.24930866 0.09268348 0.038929343 -0.23858379
-0.10473393 -0.0047637396 0.08172618 0.0040464997 0.10992506 0.38686642 0.24816296 0.20786248
0.121488124 0.02486682 0.37572226 0.42417604 0.038505416 0.0024448242 0.065717936 -0.0940505
0.4474604 0.89328516 -0.0070741326 0.8663922 0.29187113 -0.24173646 -0.18861769 -0.2381658
0.40727156 -0.08728346 -0.002676048 -0.27539513 0.022306316 -0.2746213 0.3072359 -0.32291636
0.3479577 -0.38910407 0.14139265 -0.19372423 0.4157213 0.47698522 -0.054312274 0.11385089
0.05203838 0.19630438 0.3784797 0.48317105 0.049977593 0.41250136 -0.45894942 0.08378865
-0.13308479 -0.14676942 0.032715574 0.30648535 0.075778395 -0.27384603 -0.022699192 0.37514755
-0.3723799 0.415911 0.2735297 -0.13473567 -0.19648701 0.11538829 -0.120015964 -0.29809096
-0.046154723 -0.10736757 0.11621444 -0.05913143 -0.030888632 0.361515 0.20202865 0.09750519
0.07705063 -0.021773934 0.3637909 0.4108418 -0.016938668 0.09534411 -0.08357574 -0.06303733
0.23969407 1.0470371 -0.11231087 0.57000077 0.23895396 -0.04300359 -0.28148353 -0.42700148
0.39508247 -0.040808275 0.07247382 -0.33893248 0.12439958 -0.41769114 0.27648565 -0.22482352
0.2607626 -0.31778213 0.015281174 -0.20170417 0.30507416 0.47829103 -0.027224034 0.05519876
-0.14289036 0.20059231 0.4464013 0.41942918 0.24973449 0.411008 -0.37673724 0.08592506
0.026112644 -0.15192473 0.08435696 0.29404408 0.09114206 -0.30222967 0.059104487 0.39520448
-0.012325078 0.12435748 -0.05397673 -0.040887967 -0.12301126 0.022634521 -0.069649085 -0.06796275
0.09639038 0.09544103 0.026631355 -0.06568353 0.052594423 -0.017789021 -0.05730076 -0.09398149
-0.12086502 -0.0064394325 0.09774698 -0.11531712 0.02600938 -0.086673275 0.07374498 0.015125275
0.044629827 -0.0021602064 0.06552395 -0.1233456 0.09959386 0.072569385 0.002580583 -0.08044125
-0.1145567 -0.10483481 -0.0758111 -0.12009199 -0.036086813 -0.10130547 0.04246047 -0.036213696
-0.04017988 -0.025022432 0.03318365 0.008936733 0.12344679 -0.0091522485 0.025489062 0.09548381
0.014817983 -0.03384006 0.044478565 0.09333961 -0.102413684 0.106139675 0.061445788 -0.0019075125
-0.024451897 -0.028216526 0.065370634 -0.12014058 -0.049915567 0.09675045 0.0445752 -0.08185458
0.0968628 -0.12629138 0.07128276 0.23794863 0.15527485 0.06714176 -0.105964616 0.19503559
-0.09650624 -0.07659814 -0.10204488 -0.08992782 0.017902792 0.023595942 -0.0032139756 0.212201
-0.046045348 -0.0017612725 -0.13591908 -0.06381831 0.111553825 -0.09605617 0.02307424 -0.060002755
0.19396266 -0.91460747 -0.097494714 -0.8690552 0.103010125 0.11191734 0.13528393 0.26109645
-0.08329342 0.122516766 0.23001748 0.27917972 0.020501446 -0.005481855 0.05702962 0.28816494
0.12095753 0.21861514 -0.3476575 0.2239427 -0.30946195 -0.1670936 -0.033547863 -0.09698856
0.18118003 -0.06859802 -0.31502286 -0.36256364 0.1803212 -0.3002702 0.61085373 0.08079836
0.19717234 0.015716074 -0.031890377 0.040922925 -0.07827531 0.28516394 -0.09949489 0.13553493
00000000: 88f3 c8be 8de0 e53e 68d6 583e a597 12be
00000010: c54a 7fbe d6d0 bd3d 6074 1f3d 4f4f 74be
00000020: be7e d6bd 2519 9cbb 0e60 a73d 8098 843b
00000030: 6420 e13d 5b13 c63e 6e1e 7e3e e7d9 543e
00000040: c4ce f83d 80b5 cb3c ab5e c03e 9a2d d93e
00000050: dbb7 1d3d 5839 203b 2097 863d 8c9d c0bd
00000060: 8819 e53e 56ae 643f 20ce e7bb e1cb 5d3f
00000070: 2270 953e c389 77be ff24 41be bce1 73be
00000080: e685 d03e acc1 b2bd a360 2fbb 9700 8dbe
00000090: bcbb b63c 2a9b 8cbe 064e 9d3e 4b55 a5be
000000a0: 8327 b23e a638 c7be 3cc9 103e a55f 46be
000000b0: 6cd9 d43e 6837 f43e 8c76 5ebd a82a e93d
000000c0: 3226 553d 0404 493e 17c8 c13e 3262 f73e
000000d0: 4eb5 4c3d 6133 d33e 6bfb eabe 6299 ab3d
000000e0: 6147 08be b94a 16be c400 063d a6eb 9c3e
000000f0: b431 9b3d 8c35 8cbe a8f3 b9bc 5713 c03e
00000100: 94a8 bebe 49f2 d43e 160c 8c3e 26f8 09be
00000110: e433 49be b250 ec3d eeca f5bd 619f 98be
00000120: bc0c 3dbd 87e3 dbbd d601 ee3d cc33 72bd
00000130: 280a fdbc 7e18 b93e 99e0 4e3e cdb0 c73d
00000140: b8cc 9d3d 405f b2bc cd42 ba3e db59 d23e
00000150: f6c2 8abc c643 c33d c229 abbd b719 81bd
00000160: 5d72 753e 5005 863f 3e03 e6bd 92eb 113f
00000170: 59b0 743e 8824 30bd 9c1e 90be f09f dabe
00000180: 4048 ca3e 9426 27bd 276d 943d 8f88 adbe
00000190: 35c5 fe3d 9ddb d5be 878f 8d3e 2338 66be
000001a0: ad82 853e 57b4 a2be e45d 7a3c 8a8b 4ebe
000001b0: ae32 9c3e 90e2 f43e f004 dfbc 1818 623d
000001c0: da51 12be 1268 4d3e b68e e43e 6cbf d63e
000001d0: 66ba 7f3e a46f d23e b4e3 c0be 7af9 af3d
000001e0: 2fea d53c 2892 1bbe 58c3 ac3d f28c 963e
000001f0: b0a8 ba3d d9bd 9abe 8c17 723d 3e58 ca3e
00000200: 20ef 49bc 22af fe3d b416 5dbd 247a 27bd
00000210: 54ed fbbd 086c b93c 2ea4 8ebd 0e30 8bbd
00000220: 5268 c53d 9676 c33d 002a da3c 1685 86bd
00000230: 406d 573d 48ba 91bc 34b4 6abd 5e79 c0bd
00000240: 1488 f7bd e001 d3bb 922f c83d 622b ecbd
00000250: a011 d53c c281 b1bd 9c07 973d 00d0 773c
00000260: c4cd 363d 4092 0dbb 6c31 863d 9e9c fcbd
00000270: def7 cb3d 429f 943d 001f 293b 62be a4bd
00000280: b49c eabd a2b3 d6bd da42 9bbd caf2 f5bd
00000290: c4cf 13bd 3e79 cfbd 08eb 2d3d d054 14bd
000002a0: a893 24bd d8fb ccbc 94eb 073d 606b 123c
000002b0: acd1 fc3d 50f3 15bc 70ce d03c 048d c33d
000002c0: 20c7 723c e09b 0abd 282f 363d d628 bf3d
000002d0: 44be d1bd c25f d93d 94ae 7b3d 8005 faba
000002e0: 584f c8bc 5826 e7bc 0ae1 853d 440c f6bd
000002f0: 4474 4cbd 1a25 c63d 7c94 363d 60a3 a7bd
00000300: 0160 c63d 8752 01be b2fc 913d cea8 733e
00000310: 5f00 1f3e 9e81 893d fa03 d9bd 69b7 473e
00000320: 10a5 c5bd 7cdf 9cbd e8fc d0bd 142c b8bd
00000330: e0a8 923c 474c c13c 90a1 52bb 384b 593e
00000340: 0c9a 3cbd 80da e6ba 5f2e 0bbe 2db3 82bd
00000350: 5576 e43d 19b9 c4bd 3006 bd3c 73c5 75bd
00000360: 269e 463e b723 6abf 4fab c7bd 677a 5ebf
00000370: f9f6 d23d eb34 e53d df87 0a3e 6fae 853e
00000380: be95 aabd 12ea fa3d b489 6b3e a5f0 8e3e
00000390: a6f2 a73c 22a1 b3bb e497 693d 5b8a 933e
000003a0: 95b8 f73d a6dc 5f3e 2a00 b2be 3c51 653e
000003b0: cc71 9ebe 961a 2bbe 7c69 09bd f0a1 c6bd
000003c0: 4287 393e 1e7d 8cbd ad4a a1be f1a1 b9be
000003d0: 1fa6 383e 04bd 99be e960 1c3f 9c79 a53d
000003e0: 8ce7 493e ffbe 803c 7c9f 02bd cc9e 273d
000003f0: ce4e a0bd 0201 923e fac3 cbbd abc9 0a3e

h2.bias f4 [16]
0.28602833 0.23999889 -0.061034143 0.08330947 0.035475466 0.12617515 0.21357468 -0.08965519
0.3812354 -0.061674967 0.3441894 -0.021257382 -0.09416419 0.25305432 0.007359356 -0.031779665
00000000: 4e72 923e 45c2 753e f0fe 79bd 289e aa3d
00000010: b94e 113d 0f34 013e 52b3 5a3e 249d b7bd
00000020: 4931 c33e e49e 7cbd 9839 b03e f623 aebc
00000030: 28d9 c0bd 5690 813e c126 f13b 652b 02bd

out.weight f4 [3, 16]
-0.065693066 -0.20180018 -0.20244703 -0.045181274 0.519835 0.355452 -0.15000929 0.07404869
-0.67834336 0.16783422 -0.53659123 0.3650527 -0.1480107 -0.076686926 0.4285951 0.20894955
-0.42061508 -0.2989774 -0.017513633 0.25842303 -0.4318682 0.21416105 0.35940817 -0.092521146
0.4188943 -0.09390411 -0.08082942 0.03377038 0.10400823 -0.20191635 -0.03418106 -0.37368426
0.50496995 0.54245186 -0.15025806 -0.46031547 -0.20480488 -0.3269728 0.5657777 0.09760956
0.4546945 0.007991701 0.49415118 -0.45245525 -0.20633876 0.48852983 -0.076928586 0.04891248
00000000: 168a 86bd b5a4 4ebe 464e 4fbe 0010 39bd
00000010: e813 053f cefd b53e 099c 19be d7a6 973d
00000020: e9a7 2dbf bcdc 2b3e 0b5e 09bf 30e8 ba3e
00000030: 1e90 17be 090e 9dbd d170 db3e dff6 553e
00000040: dc5a d7be 9113 99be c078 8fbc 0650 843e
00000050: d41d ddbe 094d 5b3e 5904 b83e ba7b bdbd
00000060: 5079 d63e cc50 c0bd e589 a5bd cf52 0a3d
00000070: 4402 d53d 29c3 4ebe 7001 0cbd 8b53 bfbe
00000080: b645 013f 20de 0a3f 40dd 19be 78ae ebbe
00000090: 5fb8 51be fb68 a7be cfd6 103f 85e7 c73d
000000a0: b8cd e83e a0ef 023c 6201 fd3e 37a8 e7be
000000b0: 784a 53be 9520 fa3e bc8c 9dbd 7458 483d

out.bias f4 [3]
-0.05611654 0.07709918 0.2523325
00000000: 75da 65bd 2de6 9d3d ba31 813e
