source/overfit/testModel.pth (torch_old, 12328 bytes, 9 tensors)

c1.weight f4 [2, 4, 1]
00000000: 4868 70be c6a6 c9be 25c2 cabe 8b3b 363e
00000010: 9406 1abf 4251 153b 9ade f73e f41c 81bd
-0.2347728 -0.3938505 -0.39601246 0.17796151 -0.6016629 0.002278403 0.4841202 -0.063043505

c1.bias f4 [2]
00000000: d267 bbbe 4917 a23e
-0.36602646 0.3165839

c2.weight f4 [1, 2, 1]
00000000: 0f06 fabe 3771 87bf
-0.48832747 -1.0581425

h1.weight f4 [64, 24]
00000000: 1c6b 553d 4778 fa3d 8f46 703d 30eb 933c
00000010: 99d8 07be b127 0dbe cc0f 1a3e ede0 b5bd
00000020: c9f0 84bc 5853 313e 1f78 babc d358 6ebd
00000030: 4fc1 553d 2405 aabd a424 243e 3a8a abbd
00000040: 4b50 dd3d 7ce2 c2bd 80e4 1c3e a473 41be
00000050: 147d 27bd 123b d2bc bd19 07be d8d0 283e
00000060: 7d1f 11bf e6d9 69be 1089 cabd 3813 3abf
00000070: db25 89be a33e f4be eb15 c6be fe71 afbe
00000080: f8c1 2b3f c51b 763e 868a d13d 274c 063f
00000090: 3119 4fbe 8e15 503e 3cd3 e03e 813d 3b3e
000000a0: 8c42 18bf 782e e4be b55c 5ebe 3d30 993e
000000b0: 98cd 5f3e fe38 223f 3e7c 28bf f94c 1c3f
000000c0: 390f ae3a fc7c 043e 98b4 10be edb1 b0bc
000000d0: 5dbb 3fbe 3f83 06be 9897 983d c20d 2d3e
000000e0: ab3b 1e3d a433 56bc 7ea5 b3bd bcd1 45be
000000f0: c5c9 15be 0184 86bd 8038 c93d dd05 223d
00000100: 8a4f ddbd 1810 f4bd ae9d a1bd 7741 8739
00000110: 969c 1a3e 7dd4 5a3d f0a1 983d fd15 363d
00000120: 3d93 05bf 6b33 88be 03e2 be3e 9b4c ce3c
00000130: aaaa 3ebe 81e4 cbbe 9eb6 c6bd 6211 3d3e
00000140: 32bf 20be 8ac7 7a3a 3912 9e3e ea72 8abe
00000150: c424 043e 0b2c 343e 80c3 e4be 0d7b 22be
00000160: a935 0c3e 703b d93a 7982 8e3e 7209 743e
00000170: 7721 eabc 5b3e 2a3e ad54 a03d 9333 023e
00000180: d3f0 073f b8a7 0a3f d032 5ebd 2f69 b03e
00000190: 6ec9 a23e 1f37 033f 8ef3 053f 0c1c bf3d
000001a0: 30c1 113e 6fee 66be 5b72 4f3e eafa 753d
000001b0: b400 66be 2009 16bd 2192 873e 2f79 e23d
000001c0: 93b0 5bba 9e86 b83e 0034 06be 1169 a4bc
000001d0: 8f4c 73be a266 ac3e 0719 823e e29b 86bd
000001e0: 0979 3dbe 56ed 5cbe 40ee 173e 4b82 40be
000001f0: 4216 033e b938 20be e594 40b9 1b30 2abb
00000200: a9a9 94bd 2840 2b3e 90ee 54be 48fa b33d
00000210: 0994 f8bd 5ca2 41be 182b bfbc 44bd 8c3d
00000220: 46d8 30bd 94ed 2a3e ed50 e33d 2d5e c73b
00000230: 9e4d c53d d056 67be e0c5 163b 5d3a 3abe
00000240: e0da d23e e764 d03e b8b6 e5be 32d5 8a3e
00000250: 3669 c13e 2bc4 203e d820 683e fc5c 8b3e
00000260: 8320 813e 15de 923d 9a45 cbbd 55e5 c83e
00000270: 3ec2 87be 1f97 373e 1a76 033f 2697 453e
00000280: 28d1 703e ecda 423e 1f33 9dbe c89f 813e
00000290: eca8 dc3d 146b ce3e 6579 f03d bf1f c33e
000002a0: cab5 5d3d 566c 21be 3379 d73c 212f 093e
000002b0: d8d4 2d3e f179 10be 707f f53d b03d 60be
000002c0: 45d9 e23a b253 1e3e 64ff dabd 9900 8ebd
000002d0: 2637 2dbe ddc0 52be 7ec7 e23d 0e7b 46be
000002e0: ad6c 9ebd a093 3c3d 94dc 0fbe 88f2 76bd
000002f0: 7f6d 63bd 33ad e8bd d249 22be 7e7c 09be
00000300: 3ed3 ab3e 29e0 dc3e 06c2 85bd a4b8 3a3e
00000310: 0a89 973e 40ac 8b3e cf74 d9bc 98e4 863d
00000320: 1ac7 6e3e 96fa 7f3e 3839 453e 906c 493d
00000330: a21f acbe 6eb3 163e 26f2 ef3e 92b7 2a3e
00000340: 18ec 773e be0f 133e 7bf8 93bd 6a01 db3e
00000350: bd20 73bd a42c f93d 70b9 17be 5158 fa3d
00000360: dfb2 d23e 7eda cc3e 8cb6 20be 335d e63e
00000370: fc1b 183e f999 c03e 92a9 f03e ec93 443d
00000380: 2e06 583e 7292 e93d 55e7 963c ddba 083e
00000390: 11a7 26be 0b5a aabc 5f50 123d 9eae 733e
000003a0: d3b8 00be 5330 533e 9055 85bd 2f8b 863d
000003b0: 3f3a 3bbd c414 893e c08a 073f 2627 523e
000003c0: e3f5 843e 0468 30bd 14b4 123f 81c1 bf3e
000003d0: 96a5 f5be 4a86 89bd 03cf 0b3d 229d 083e
000003e0: dd1c a3bd c90e 073e 5690 10bf 930c 9abe
000003f0: c2fc 39be f83a 153e dc10 323d 758b b53d
0.0521041 0.12229972 0.05866104 0.018056482 -0.13266219 -0.13784672 0.15045089 -0.08880792
-0.016228097 0.1731695 -0.022762356 -0.058190178 0.052186307 -0.08301762 0.16029602 -0.08375974
0.1080633 -0.09515855 0.15321541 -0.1889177 -0.04089077 -0.025662933 -0.13193412 0.16485918
-0.5668867 -0.22837028 -0.09889424 -0.72685575 -0.26786694 -0.47704038 -0.38688597 -0.34266657
0.6709285 0.2403403 0.102314994 0.5245995 -0.20224454 0.20320722 0.4391116 0.1828518
-0.5947654 -0.44566703 -0.21715052 0.29919615 0.21855772 0.63368213 -0.6581458 0.6105495
0.0013279683 0.12938303 -0.14131391 -0.021569217 -0.18723817 -0.13136004 0.07450789 0.1689978
0.038631123 -0.0130738355 -0.087717995 -0.19318289 -0.1462775 -0.065681465 0.0982523 0.039556373
-0.108061865 -0.11917132 -0.07891403 0.00025797982 0.15098795 0.0534253 0.07452762 0.044454563
-0.5217779 -0.2660173 0.37281808 0.025183013 -0.1861979 -0.39822772 -0.097028 0.18463662
-0.15697935 0.0009566477 0.30873278 -0.27040797 0.1290465 0.17594926 -0.44680405 -0.15867253
0.13692345 0.00165735 0.27833918 0.23831728 -0.02858041 0.16625349 0.078286506 0.12714987
0.53101844 0.5416217 -0.054247677 0.3445525 0.31794304 0.51255983 0.5232476 0.093315214
0.14233851 -0.22551893 0.20258467 0.060053743 -0.22461206 -0.036629796 0.26478675 0.1105827
-0.00083804986 0.36040205 -0.13105774 -0.02006963 -0.23759674 0.33672053 0.2540972 -0.06572701
-0.18503202 -0.21574911 0.14836979 -0.18799703 0.1280146 -0.15646638 -0.00018366014 -0.0025968615
-0.072589226 0.16723692 -0.2079413 0.08787972 -0.121376105 -0.18909591 -0.023335978 0.06872037
-0.043175004 0.16692191 0.1109942 0.0060842247 0.09633945 -0.2259171 0.0023006126 -0.18186326
0.41182613 0.40701982 -0.44865966 0.2711578 0.37775582 0.15699832 0.22668779 0.2721938
0.25220117 0.07171265 -0.09925385 0.39237466 -0.26515383 0.17928742 0.51352084 0.1929594
0.23517287 0.19028825 -0.30703065 0.25317216 0.10774407 0.4031607 0.11741904 0.38110158
0.054128446 -0.15763983 0.02630291 0.13396885 0.16975725 -0.14109017 0.119871974 -0.21898532
0.0017307183 0.15461615 -0.10693243 -0.06933708 -0.16915569 -0.20581384 0.11073206 -0.19382879
-0.07735572 0.046039224 -0.14048988 -0.06028989 -0.055524345 -0.1136116 -0.15848473 -0.13426396
0.33559602 0.4313977 -0.06531148 0.18234497 0.2959674 0.27279854 -0.026544956 0.065865695
0.23318139 0.24997935 0.19260108 0.0491758 -0.33617884 0.14716884 0.46864432 0.16671589
0.24211156 0.14361474 -0.07225128 0.42774516 -0.059357394 0.12166718 -0.14816833 0.12223876
0.41152093 0.40010446 -0.15694636 0.4499298 0.14854425 0.37617472 0.47004372 0.04799263
0.21096107 0.11404885 0.018420855 0.13352533 -0.16274668 -0.020794889 0.03572118 0.2379708
-0.12570505 0.20623903 -0.065104604 0.06569516 -0.045709845 0.26773655 0.5294609 0.20522746
0.25968847 -0.043067947 0.5730603 0.3745232 -0.47977895 -0.06715067 0.03413297 0.13341191
-0.079644896 0.13189234 -0.5647024 -0.30087718 -0.18162826 0.14573276 0.04347311 0.0886449

h1.bias f4 [64]
00000000: 1941 54be 9559 50bd 0ef0 4abe 91de cb3e
00000010: dc0c 54be 806e 913c 795e 96be e844 8dbd
00000020: 543a 7dbe 1fa8 01be fff6 0f3e d009 0ebd
00000030: b195 c7bd fa15 7e3d 0e10 863e ecde c2bd
00000040: cc2a fb3e 1bc4 dfbd 3faf e4bd 8f62 ca3e
00000050: 01f1 cf3e e69f f93e cf92 49be 04ab 8e3d
00000060: 028a 2d3d 6882 8a3c df56 83be 3e4e acbe
00000070: 8a49 3abe 1ee9 3fbd ea02 a2be 7bd5 ff3b
00000080: bd62 62be ef3b 013f 157d 153e c36b 4b3e
00000090: cc04 963d 63b0 e43e 32bb 703e 7af3 0a3f
000000a0: 88c9 803e 8c0a eabe ed90 c83e 569c b9ba
000000b0: f6ff 48be b887 9cbd 8657 2d3e 5a8c 00be
000000c0: 576f 41be 8e51 13be 1539 a73e 195f 8c3d
000000d0: 4574 24bd d5f4 d23e 7b3c 1c3d 50dc 3dbe
000000e0: 840a a53d bf59 b8bd 489c 01be ff74 03bd
000000f0: bbdd c83e 08ad 08bd 572e 68be 40ba 843e
-0.20727958 -0.050866682 -0.19818136 0.39818242 -0.2070803 0.017752886 -0.29368952 -0.068979084
-0.24729282 -0.1266179 0.14059065 -0.034677327 -0.09745348 0.062032677 0.26184124 -0.09515175
0.4905609 -0.10926076 -0.11166238 0.3952832 0.4061356 0.48754805 -0.1968491 0.069662124
0.042367943 0.016907886 -0.25652215 -0.33653444 -0.18192115 -0.046853177 -0.31642848 0.0078074313
-0.22107978 0.50482076 0.14598496 0.19865327 0.07325134 0.44665822 0.2350891 0.54277766
0.25153756 -0.45711172 0.3917307 -0.0014160972 -0.19628891 -0.07643074 0.16927919 -0.1255354
-0.18890129 -0.1438658 0.32660738 0.06854076 -0.040149946 0.41202417 0.038143616 -0.18541074
0.08058646 -0.09001493 -0.12657273 -0.032093998 0.39231667 -0.03336814 -0.22673927 0.25923347

h2.weight f4 [16, 64]
00000000: 5227 c73d aed1 67be 82c0 ddbd fc7c d8be
00000010: fdc6 ac3e a380 09be bebb de3e bafc ae3d
00000020: 4648 d53e 931c d23e 49de efbe 604a 913b
00000030: 844f 323d 0c4d ad3e 113b c8be 1a12 c53d
00000040: 0be9 04bd 42fe ad3e b6b8 7b3d b824 7ebe
00000050: 4cfe 16be cae7 283e c299 d6bd 14f1 743c
00000060: 2d1c 29bd c818 dbbd ec6a 6e3e aa43 0d3f
00000070: 08d1 253d a5bd 29bd 5b28 b93e 04ef ccbe
00000080: 5b73 bf3d 1223 b4be 5a63 323e 943a c6be
00000090: fc2f e13e 4ae9 b3be 1605 433e b4c7 48bb
000000a0: a92c 1dbf 2058 a53e ad97 06bd 1597 d13e
000000b0: 3473 bbbd 69be 58be a6eb 703e 9c58 ecbd
000000c0: 28fb 08bd 6502 9c3e 099c 87be 1a17 d0be
000000d0: e502 993d 09a0 a7be 1641 a23e 29cb e43e
000000e0: 029e d43d ca33 9a3e 799e 323d f85b b53e
000000f0: 779b b6be ab62 cdbe 700c 233d cd3a 773e
00000100: 324e f13d b80a b8bc baca 863d 4116 0bbd
00000110: 0d2d 923d 22fd f3bd a03b 02bd 2c4a e8bd
00000120: 2c18 653d 9513 c2bb c80a f4bc 3e44 ee3d
00000130: 303e da3c 6d43 b63d 18e9 da3c 1055 e5bd
00000140: 2339 113d f631 f1bd 1815 cebc a7e5 1c3d
00000150: 7cb1 eebd 5fda a8bc 408a 07bb 8230 66bd
00000160: 7e49 e83d bc42 fdbd c4bc f9bd d499 e9bd
00000170: c01d 213b c4c1 ec3d 2039 863b 3e3b f13d
00000180: 80b9 8b3d ea04 f2bd b7b7 6d3d 00eb e13b
00000190: 5859 0a3c b077 a0bb 51c5 c33d 850c fc3b
000001a0: b82e 673d 0422 f5bd b755 66bd ab2a aabd
000001b0: 2a44 c6bd 1c2f 3f3d e7ad b13d 4a49 8e3d
000001c0: 60e5 de3d 80b5 e6bc adb9 95bd 20b4 42bc
000001d0: 72e1 b93d c8fc 49bd 45f7 47bd 3c6f 653d
000001e0: 0f32 cfbd d02d e23c 58ac 2ebd 02b7 d93b
000001f0: c949 62bb 50b0 ce3d 8408 c4bd 513d b9bb
00000200: db33 87bd 8fd8 56be 9084 7a3c 4069 ed3e
00000210: 86e0 9bbe 2476 5e3d ea5e babe 817f e2bc
00000220: 5114 c6be 7f59 25be 21b1 cd3e 46c4 83bd
00000230: 4071 3c3b 4400 ca3e f971 a03e b852 393d
00000240: 5b8d cf3e 3fbb 63be e6a0 c2bd 7907 a93e
00000250: b751 fd3e 799e cc3e 7cf1 b1bd a299 07bd
00000260: d6c4 fabd 6c04 2abd 72af 90be 8d78 9fbe
00000270: 585b d2bd 0662 98bd 4161 17be bd91 d53e
00000280: 274f ccbd 88e7 f83e 4756 823e ab52 f63e
00000290: 09c9 49be f39f b43e 07f5 d33e 2f99 ee3e
000002a0: 2269 6fbd be39 a3be 4915 0d3f cdfe 8d3d
000002b0: 60fa c53c ad59 493f aa9f 543e 1ca7 343d
000002c0: d829 8f3d 6cb4 dabe 1bff 023f 38c6 54bf
000002d0: eace a03d 1d47 f03e 8302 e4bc e5b2 47be
000002e0: 5182 82be 4096 83be 5f3c 023d ab9e d2bd
000002f0: 1c7a ef3e 2c7f 6a3e e86a b13c c3b4 dc3e
00000300: 323c efbd c0c5 4b3c 0450 49bd e082 dbbc
00000310: ccee ac3d f233 b1bd fc50 8bbd 286b 023d
00000320: 76bb eabd 1819 63bd f286 bd3d f8b4 b43c
00000330: 009d 13bc c0de f1bb 701a 523c cc0e 653d
00000340: d0aa 53bc 00a9 69bc 46ad ab3d 58c8 ed3c
00000350: 4053 953b cc64 453d da69 ea3d 0060 c739
00000360: a8b1 bbbd 2c22 8ebd a889 95bd c8c2 91bd
00000370: 644b 5fbd 089c 9abd 76a3 cbbd b0ff a4bd
00000380: 60df e0bd ee7d fa3d 3e34 e6bd d087 d4bd
00000390: f615 febd 4010 d63c 3ca0 ffbd f4bc f03d
000003a0: 54b0 3f3d 20ce f4bc 9851 bebd 58f7 ebbd
000003b0: 70f3 cd3c 74b2 83bd 7acc f0bd d4cd 15bd
000003c0: 023f 933d 00ce 3c3b 2afe b0bd de41 a83d
000003d0: 18cb de3d ecf0 c13d bc5c fabd f874 e4bd
000003e0: 9061 f03c 50fe 0dbd ce4e ca3d ecd3 08bd
000003f0: deed bebd 4e65 e0bd 5cc9 463d a85a 483d
0.09724297 -0.2263858 -0.108277336 -0.42282856 0.33745566 -0.13427977 0.4350261 0.085442975
0.41656703 0.41037425 -0.46849278 0.004433915 0.043532863 0.33847845 -0.39107564 0.09622593
-0.03244881 0.33983046 0.06145545 -0.24818695 -0.14745444 0.1649467 -0.10478546 0.014950056
-0.041286636 -0.10698086 0.23282975 0.5518137 0.04048255 -0.041440625 0.361636 -0.40026104
0.09348174 -0.35183007 0.17420712 -0.38716567 0.43981922 -0.35138923 0.19044909 -0.003063661
-0.6139627 0.32293797 -0.032859493 0.4093558 -0.091528326 -0.21166386 0.23527393 -0.115403384
-0.033442646 0.30470577 -0.26486233 -0.40642625 0.07471255 -0.32739285 0.31690282 0.4468625
0.103817 0.30117637 0.043608163 0.3542173 -0.35665485 -0.4011434 0.039806783 0.24143524
0.11782493 -0.022466049 0.06581636 -0.03395677 0.07137499 -0.119135156 -0.031795144 -0.11342272
0.055931255 -0.0059227445 -0.029790297 0.1163411 0.026640981 0.08899579 0.026722476 -0.11197865
0.03545488 -0.117771074 -0.025156543 0.03830495 -0.11654946 -0.02061194 -0.0020681769 -0.056198604
0.113421425 -0.12366244 -0.12194207 -0.114062935 0.0024584383 0.11560395 0.0040961653 0.11778878
0.06822491 -0.118173435 0.058036532 0.0068944693 0.008444153 -0.0048970804 0.095591195 0.007691922
0.05644104 -0.119693786 -0.056234088 -0.083089195 -0.0968097 0.046675786 0.08675747 0.069475725
0.108835936 -0.028162718 -0.073108055 -0.011883765 0.090762034 -0.049313337 -0.0488198 0.056014284
-0.1011697 0.027609736 -0.04264483 0.0066441307 -0.0034528843 0.10092223 -0.09571937 -0.0056530614
-0.066016875 -0.20981048 0.015290394 0.46369362 -0.30444735 0.054311886 -0.3640054 -0.02764869
-0.38687375 -0.16147421 0.401742 -0.064339206 0.0028754026 0.39453328 0.31336954 0.045244902
0.40537533 -0.22239397 -0.09503345 0.33013514 0.49476406 0.39964655 -0.086886376 -0.0331055
-0.12244575 -0.041508123 -0.28258854 -0.3114666 -0.10271329 -0.074405715 -0.14783193 0.41712752
-0.099760346 0.48614144 0.2545645 0.48109946 -0.19705595 0.35278282 0.4139788 0.46601245
-0.05844987 -0.3187999 0.55110604 0.06933365 0.02416724 0.7865246 0.20764032 0.04410468
0.06990403 -0.42715776 0.5117051 -0.8311496 0.07851966 0.46929255 -0.027833229 -0.19501837
-0.2549005 -0.2570057 0.031795856 -0.1028417 0.4677285 0.22900075 0.021657422 0.4310666
-0.11681403 0.012437284 -0.049148574 -0.026795805 0.084439844 -0.08652486 -0.06802556 0.031840473
-0.114615366 -0.055443853 0.092542544 0.022058949 -0.0090096 -0.00738129 0.012823686 0.055922315
-0.012919143 -0.014261484 0.08382659 0.029026195 0.0045570433 0.04819183 0.11445971 0.00038027763
-0.091647446 -0.069401115 -0.073016465 -0.0711723 -0.054515257 -0.07549292 -0.09943287 -0.08056581
-0.109801054 0.122310504 -0.11240433 -0.10377467 -0.124065325 0.026130795 -0.12481734 0.1175479
0.04679902 -0.029883444 -0.092929065 -0.115217865 0.025140494 -0.064305216 -0.11757751 -0.036573246
0.07189752 0.002880931 -0.08642228 0.08215688 0.10878581 0.0946978 -0.12224719 -0.111551225
0.029343396 -0.03466636 0.09878312 -0.03340523 -0.09322713 -0.10956822 0.048531875 0.04891458

h2.bias f4 [16]
00000000: 0f6c 89be f5be c0bd cb15 933e e857 a63c
00000010: 56d5 c83e 8de6 d1bd e815 cc3e f4f0 4dbd
00000020: 9a62 83be 583b b43c 62a4 a8bc 26bc c7bd
00000030: 475c ad3d 32fa d7bd fbf2 7c3d 9e6f 97bd
-0.26840255 -0.09411422 0.28727564 0.020305589 0.39225262 -0.10249052 0.39860463 -0.05027862
-0.25661165 0.022000954 -0.020586196 -0.09752683 0.08464866 -0.10545768 0.06175516 -0.07394336

out.weight f4 [3, 16]
00000000: 419d 163f 38d2 493e 5f6b 90be d06a e63d
00000010: e707 07be ee88 723e a7cf 61be 6040 2f3c
00000020: fabb 173f ec78 30be 617b 033f 9ab6 38be
00000030: 48a0 cd3e f0cf 0abe c9d8 cc3e 585c 39be
00000040: 3d35 9f3e 9448 9a3d a779 883e 0088 7c3d
00000050: 850a 833d dbc9 9e3d d4a8 6e3e 9a8f 343e
00000060: e215 c83e 74c5 b23e 91da a2be 040a bbbd
00000070: 60cc 9ebe d059 a5bc bf5b d3be 985f 00be
00000080: 108e d9be c616 44bd bce5 0f3f fc6c d4bd
00000090: debe 153f 9862 2ebb b236 0f3f 1038 3e3d
000000a0: 2ab3 7abe cde7 36bf b0bc b2be 9e65 1d3e
000000b0: 81d5 a13d 38ff b0bd d5e3 123e ec2d 6cbe
0.588337 0.19709098 -0.28206918 0.112508416 -0.13186608 0.23685047 -0.2205187 0.010696501
0.59271204 -0.17233628 0.51360136 -0.18038407 0.40161347 -0.13555884 0.40009144 -0.18101633
0.31095305 0.075333744 0.26655313 0.061653137 0.06398491 0.077533446 0.2330659 0.17632905
0.39079195 0.3491627 -0.31807378 -0.0913277 -0.310153 -0.020184427 -0.41280934 -0.12536466
-0.42491198 -0.04787328 0.5620992 -0.103723496 0.58494365 -0.002660906 0.55942833 0.046440184
-0.24482408 -0.7144745 -0.34909582 0.15370795 0.07902051 -0.08642429 0.14344724 -0.23064393

out.bias f4 [3]
00000000: 9c1f 033e e711 953e 6884 a83e
0.12805027 0.2911522 0.32913518
